{
  "format": "graph-model",
  "generatedBy": "2.9.1",
  "convertedBy": "TensorFlow.js Converter v3.18.0",
  "signature":
  {
      "inputs":
      {
          "generator_input_tf_0_ee2363c7": {"name":"generator_input_tf_0_ee2363c7:0","dtype":"DT_FLOAT","tensorShape":{"dim":[{"size":"1"},{"size":"-1"},{"size":"-1"},{"size":"3"}]}}
      },
      "outputs":
      {
          "generator/G_MODEL/out_layer/Tanh:0": {"name":"Identity:0","dtype":"DT_FLOAT","tensorShape":{"dim":[{"size":"-1"},{"size":"-1"},{"size":"-1"},{"size":"3"}]}}
      }
  },
  "modelTopology":
  {
      "node":
      [
          {"name":"unknown_78","op":"Const","attr":{"dtype":{"type":"DT_FLOAT"},"value":{"tensor":{"dtype":"DT_FLOAT","tensorShape":{"dim":[{"size":"1"},{"size":"32"},{"size":"1"},{"size":"1"}]}}}}},
          {"name":"StatefulPartitionedCall/All_15","op":"Const","attr":{"value":{"tensor":{"dtype":"DT_BOOL","tensorShape":{}}},"dtype":{"type":"DT_BOOL"}}},
          {"name":"StatefulPartitionedCall/Const_30","op":"Const","attr":{"dtype":{"type":"DT_INT32"},"value":{"tensor":{"dtype":"DT_INT32","tensorShape":{"dim":[{"size":"8"}]}}}}},
          {"name":"unknown_75","op":"Const","attr":{"value":{"tensor":{"dtype":"DT_FLOAT","tensorShape":{"dim":[{"size":"1"},{"size":"64"},{"size":"1"},{"size":"1"}]}}},"dtype":{"type":"DT_FLOAT"}}},
          {"name":"StatefulPartitionedCall/All_14","op":"Const","attr":{"dtype":{"type":"DT_BOOL"},"value":{"tensor":{"dtype":"DT_BOOL","tensorShape":{}}}}},
          {"name":"StatefulPartitionedCall/Const_28","op":"Const","attr":{"value":{"tensor":{"dtype":"DT_INT32","tensorShape":{"dim":[{"size":"8"}]}}},"dtype":{"type":"DT_INT32"}}},
          {"name":"unknown_72","op":"Const","attr":{"value":{"tensor":{"dtype":"DT_FLOAT","tensorShape":{"dim":[{"size":"1"},{"size":"64"},{"size":"1"},{"size":"1"}]}}},"dtype":{"type":"DT_FLOAT"}}},
          {"name":"StatefulPartitionedCall/All_13","op":"Const","attr":{"dtype":{"type":"DT_BOOL"},"value":{"tensor":{"dtype":"DT_BOOL","tensorShape":{}}}}},
          {"name":"StatefulPartitionedCall/Const_26","op":"Const","attr":{"value":{"tensor":{"dtype":"DT_INT32","tensorShape":{"dim":[{"size":"8"}]}}},"dtype":{"type":"DT_INT32"}}},
          {"name":"StatefulPartitionedCall/strided_slice_22/stack","op":"Const","attr":{"value":{"tensor":{"dtype":"DT_INT32","tensorShape":{"dim":[{"size":"1"}]}}},"dtype":{"type":"DT_INT32"}}},
          {"name":"StatefulPartitionedCall/strided_slice_22/stack_1","op":"Const","attr":{"value":{"tensor":{"dtype":"DT_INT32","tensorShape":{"dim":[{"size":"1"}]}}},"dtype":{"type":"DT_INT32"}}},
          {"name":"StatefulPartitionedCall/strided_slice_22/stack_2","op":"Const","attr":{"dtype":{"type":"DT_INT32"},"value":{"tensor":{"dtype":"DT_INT32","tensorShape":{"dim":[{"size":"1"}]}}}}},
          {"name":"StatefulPartitionedCall/Equal_2/y","op":"Const","attr":{"dtype":{"type":"DT_FLOAT"},"value":{"tensor":{"dtype":"DT_FLOAT","tensorShape":{}}}}},
          {"name":"StatefulPartitionedCall/strided_slice_23/stack","op":"Const","attr":{"value":{"tensor":{"dtype":"DT_INT32","tensorShape":{"dim":[{"size":"1"}]}}},"dtype":{"type":"DT_INT32"}}},
          {"name":"StatefulPartitionedCall/strided_slice_23/stack_1","op":"Const","attr":{"dtype":{"type":"DT_INT32"},"value":{"tensor":{"dtype":"DT_INT32","tensorShape":{"dim":[{"size":"1"}]}}}}},
          {"name":"StatefulPartitionedCall/strided_slice_23/stack_2","op":"Const","attr":{"value":{"tensor":{"dtype":"DT_INT32","tensorShape":{"dim":[{"size":"1"}]}}},"dtype":{"type":"DT_INT32"}}},
          {"name":"StatefulPartitionedCall/Equal_3/y","op":"Const","attr":{"dtype":{"type":"DT_FLOAT"},"value":{"tensor":{"dtype":"DT_FLOAT","tensorShape":{}}}}},
          {"name":"StatefulPartitionedCall/onnx_tf_prefix_generator/G_MODEL/E/strided_slice/begin","op":"Const","attr":{"value":{"tensor":{"dtype":"DT_INT64","tensorShape":{"dim":[{"size":"1"}]}}},"dtype":{"type":"DT_INT64"}}},
          {"name":"StatefulPartitionedCall/onnx_tf_prefix_generator/G_MODEL/E/strided_slice/size","op":"Const","attr":{"value":{"tensor":{"dtype":"DT_INT64","tensorShape":{"dim":[{"size":"1"}]}}},"dtype":{"type":"DT_INT64"}}},
          {"name":"StatefulPartitionedCall/onnx_tf_prefix_generator/G_MODEL/E/resize/size_Unsqueeze__296/dim","op":"Const","attr":{"dtype":{"type":"DT_INT32"},"value":{"tensor":{"dtype":"DT_INT32","tensorShape":{}}}}},
          {"name":"StatefulPartitionedCall/onnx_tf_prefix_generator/G_MODEL/E/strided_slice_1/begin","op":"Const","attr":{"value":{"tensor":{"dtype":"DT_INT64","tensorShape":{"dim":[{"size":"1"}]}}},"dtype":{"type":"DT_INT64"}}},
          {"name":"StatefulPartitionedCall/onnx_tf_prefix_generator/G_MODEL/E/strided_slice_1/size","op":"Const","attr":{"dtype":{"type":"DT_INT64"},"value":{"tensor":{"dtype":"DT_INT64","tensorShape":{"dim":[{"size":"1"}]}}}}},
          {"name":"StatefulPartitionedCall/onnx_tf_prefix_generator/G_MODEL/E/resize/size_Unsqueeze__297/dim","op":"Const","attr":{"value":{"tensor":{"dtype":"DT_INT32","tensorShape":{}}},"dtype":{"type":"DT_INT32"}}},
          {"name":"StatefulPartitionedCall/onnx_tf_prefix_generator/G_MODEL/E/resize/size_Concat__298/axis","op":"Const","attr":{"value":{"tensor":{"dtype":"DT_INT32","tensorShape":{}}},"dtype":{"type":"DT_INT32"}}},
          {"name":"unknown_69","op":"Const","attr":{"dtype":{"type":"DT_FLOAT"},"value":{"tensor":{"dtype":"DT_FLOAT","tensorShape":{"dim":[{"size":"1"},{"size":"128"},{"size":"1"},{"size":"1"}]}}}}},
          {"name":"StatefulPartitionedCall/All_12","op":"Const","attr":{"value":{"tensor":{"dtype":"DT_BOOL","tensorShape":{}}},"dtype":{"type":"DT_BOOL"}}},
          {"name":"StatefulPartitionedCall/Const_24","op":"Const","attr":{"value":{"tensor":{"dtype":"DT_INT32","tensorShape":{"dim":[{"size":"8"}]}}},"dtype":{"type":"DT_INT32"}}},
          {"name":"unknown_66","op":"Const","attr":{"value":{"tensor":{"dtype":"DT_FLOAT","tensorShape":{"dim":[{"size":"1"},{"size":"128"},{"size":"1"},{"size":"1"}]}}},"dtype":{"type":"DT_FLOAT"}}},
          {"name":"StatefulPartitionedCall/All_11","op":"Const","attr":{"value":{"tensor":{"dtype":"DT_BOOL","tensorShape":{}}},"dtype":{"type":"DT_BOOL"}}},
          {"name":"StatefulPartitionedCall/Const_22","op":"Const","attr":{"value":{"tensor":{"dtype":"DT_INT32","tensorShape":{"dim":[{"size":"8"}]}}},"dtype":{"type":"DT_INT32"}}},
          {"name":"StatefulPartitionedCall/strided_slice_9/stack","op":"Const","attr":{"value":{"tensor":{"dtype":"DT_INT32","tensorShape":{"dim":[{"size":"1"}]}}},"dtype":{"type":"DT_INT32"}}},
          {"name":"StatefulPartitionedCall/strided_slice_9/stack_1","op":"Const","attr":{"value":{"tensor":{"dtype":"DT_INT32","tensorShape":{"dim":[{"size":"1"}]}}},"dtype":{"type":"DT_INT32"}}},
          {"name":"StatefulPartitionedCall/strided_slice_9/stack_2","op":"Const","attr":{"dtype":{"type":"DT_INT32"},"value":{"tensor":{"dtype":"DT_INT32","tensorShape":{"dim":[{"size":"1"}]}}}}},
          {"name":"StatefulPartitionedCall/Equal/y","op":"Const","attr":{"value":{"tensor":{"dtype":"DT_FLOAT","tensorShape":{}}},"dtype":{"type":"DT_FLOAT"}}},
          {"name":"StatefulPartitionedCall/strided_slice_10/stack","op":"Const","attr":{"value":{"tensor":{"dtype":"DT_INT32","tensorShape":{"dim":[{"size":"1"}]}}},"dtype":{"type":"DT_INT32"}}},
          {"name":"StatefulPartitionedCall/strided_slice_10/stack_1","op":"Const","attr":{"dtype":{"type":"DT_INT32"},"value":{"tensor":{"dtype":"DT_INT32","tensorShape":{"dim":[{"size":"1"}]}}}}},
          {"name":"StatefulPartitionedCall/strided_slice_10/stack_2","op":"Const","attr":{"value":{"tensor":{"dtype":"DT_INT32","tensorShape":{"dim":[{"size":"1"}]}}},"dtype":{"type":"DT_INT32"}}},
          {"name":"StatefulPartitionedCall/Equal_1/y","op":"Const","attr":{"value":{"tensor":{"dtype":"DT_FLOAT","tensorShape":{}}},"dtype":{"type":"DT_FLOAT"}}},
          {"name":"unknown_63","op":"Const","attr":{"value":{"tensor":{"dtype":"DT_FLOAT","tensorShape":{"dim":[{"size":"2"}]}}},"dtype":{"type":"DT_FLOAT"}}},
          {"name":"StatefulPartitionedCall/onnx_tf_prefix_generator/G_MODEL/D/strided_slice/begin","op":"Const","attr":{"dtype":{"type":"DT_INT64"},"value":{"tensor":{"dtype":"DT_INT64","tensorShape":{"dim":[{"size":"1"}]}}}}},
          {"name":"StatefulPartitionedCall/onnx_tf_prefix_generator/G_MODEL/D/strided_slice/size","op":"Const","attr":{"dtype":{"type":"DT_INT64"},"value":{"tensor":{"dtype":"DT_INT64","tensorShape":{"dim":[{"size":"1"}]}}}}},
          {"name":"StatefulPartitionedCall/onnx_tf_prefix_generator/G_MODEL/D/resize/size_Unsqueeze__250/dim","op":"Const","attr":{"dtype":{"type":"DT_INT32"},"value":{"tensor":{"dtype":"DT_INT32","tensorShape":{}}}}},
          {"name":"unknown_62","op":"Const","attr":{"dtype":{"type":"DT_INT32"},"value":{"tensor":{"dtype":"DT_INT32","tensorShape":{}}}}},
          {"name":"StatefulPartitionedCall/onnx_tf_prefix_generator/G_MODEL/D/strided_slice_1/begin","op":"Const","attr":{"value":{"tensor":{"dtype":"DT_INT64","tensorShape":{"dim":[{"size":"1"}]}}},"dtype":{"type":"DT_INT64"}}},
          {"name":"StatefulPartitionedCall/onnx_tf_prefix_generator/G_MODEL/D/strided_slice_1/size","op":"Const","attr":{"dtype":{"type":"DT_INT64"},"value":{"tensor":{"dtype":"DT_INT64","tensorShape":{"dim":[{"size":"1"}]}}}}},
          {"name":"StatefulPartitionedCall/onnx_tf_prefix_generator/G_MODEL/D/resize/size_Unsqueeze__251/dim","op":"Const","attr":{"dtype":{"type":"DT_INT32"},"value":{"tensor":{"dtype":"DT_INT32","tensorShape":{}}}}},
          {"name":"StatefulPartitionedCall/onnx_tf_prefix_generator/G_MODEL/D/resize/size_Concat__252/axis","op":"Const","attr":{"value":{"tensor":{"dtype":"DT_INT32","tensorShape":{}}},"dtype":{"type":"DT_INT32"}}},
          {"name":"unknown_60","op":"Const","attr":{"value":{"tensor":{"dtype":"DT_FLOAT","tensorShape":{"dim":[{"size":"1"},{"size":"128"},{"size":"1"},{"size":"1"}]}}},"dtype":{"type":"DT_FLOAT"}}},
          {"name":"StatefulPartitionedCall/All_10","op":"Const","attr":{"dtype":{"type":"DT_BOOL"},"value":{"tensor":{"dtype":"DT_BOOL","tensorShape":{}}}}},
          {"name":"StatefulPartitionedCall/Const_20","op":"Const","attr":{"dtype":{"type":"DT_INT32"},"value":{"tensor":{"dtype":"DT_INT32","tensorShape":{"dim":[{"size":"8"}]}}}}},
          {"name":"unknown_57","op":"Const","attr":{"dtype":{"type":"DT_FLOAT"},"value":{"tensor":{"dtype":"DT_FLOAT","tensorShape":{"dim":[{"size":"1"},{"size":"256"},{"size":"1"},{"size":"1"}]}}}}},
          {"name":"unknown_54","op":"Const","attr":{"value":{"tensor":{"dtype":"DT_FLOAT","tensorShape":{"dim":[{"size":"1"},{"size":"512"},{"size":"1"},{"size":"1"}]}}},"dtype":{"type":"DT_FLOAT"}}},
          {"name":"StatefulPartitionedCall/All_9","op":"Const","attr":{"value":{"tensor":{"dtype":"DT_BOOL","tensorShape":{}}},"dtype":{"type":"DT_BOOL"}}},
          {"name":"StatefulPartitionedCall/Const_18","op":"Const","attr":{"value":{"tensor":{"dtype":"DT_INT32","tensorShape":{"dim":[{"size":"8"}]}}},"dtype":{"type":"DT_INT32"}}},
          {"name":"unknown_50","op":"Const","attr":{"value":{"tensor":{"dtype":"DT_FLOAT","tensorShape":{"dim":[{"size":"1"},{"size":"512"},{"size":"1"},{"size":"1"}]}}},"dtype":{"type":"DT_FLOAT"}}},
          {"name":"unknown_47","op":"Const","attr":{"dtype":{"type":"DT_FLOAT"},"value":{"tensor":{"dtype":"DT_FLOAT","tensorShape":{"dim":[{"size":"1"},{"size":"256"},{"size":"1"},{"size":"1"}]}}}}},
          {"name":"unknown_44","op":"Const","attr":{"dtype":{"type":"DT_FLOAT"},"value":{"tensor":{"dtype":"DT_FLOAT","tensorShape":{"dim":[{"size":"1"},{"size":"512"},{"size":"1"},{"size":"1"}]}}}}},
          {"name":"StatefulPartitionedCall/All_8","op":"Const","attr":{"dtype":{"type":"DT_BOOL"},"value":{"tensor":{"dtype":"DT_BOOL","tensorShape":{}}}}},
          {"name":"StatefulPartitionedCall/Const_16","op":"Const","attr":{"dtype":{"type":"DT_INT32"},"value":{"tensor":{"dtype":"DT_INT32","tensorShape":{"dim":[{"size":"8"}]}}}}},
          {"name":"unknown_40","op":"Const","attr":{"value":{"tensor":{"dtype":"DT_FLOAT","tensorShape":{"dim":[{"size":"1"},{"size":"512"},{"size":"1"},{"size":"1"}]}}},"dtype":{"type":"DT_FLOAT"}}},
          {"name":"unknown_37","op":"Const","attr":{"value":{"tensor":{"dtype":"DT_FLOAT","tensorShape":{"dim":[{"size":"1"},{"size":"256"},{"size":"1"},{"size":"1"}]}}},"dtype":{"type":"DT_FLOAT"}}},
          {"name":"unknown_34","op":"Const","attr":{"dtype":{"type":"DT_FLOAT"},"value":{"tensor":{"dtype":"DT_FLOAT","tensorShape":{"dim":[{"size":"1"},{"size":"512"},{"size":"1"},{"size":"1"}]}}}}},
          {"name":"StatefulPartitionedCall/All_7","op":"Const","attr":{"value":{"tensor":{"dtype":"DT_BOOL","tensorShape":{}}},"dtype":{"type":"DT_BOOL"}}},
          {"name":"StatefulPartitionedCall/Const_14","op":"Const","attr":{"dtype":{"type":"DT_INT32"},"value":{"tensor":{"dtype":"DT_INT32","tensorShape":{"dim":[{"size":"8"}]}}}}},
          {"name":"unknown_30","op":"Const","attr":{"value":{"tensor":{"dtype":"DT_FLOAT","tensorShape":{"dim":[{"size":"1"},{"size":"512"},{"size":"1"},{"size":"1"}]}}},"dtype":{"type":"DT_FLOAT"}}},
          {"name":"unknown_27","op":"Const","attr":{"value":{"tensor":{"dtype":"DT_FLOAT","tensorShape":{"dim":[{"size":"1"},{"size":"256"},{"size":"1"},{"size":"1"}]}}},"dtype":{"type":"DT_FLOAT"}}},
          {"name":"unknown_24","op":"Const","attr":{"value":{"tensor":{"dtype":"DT_FLOAT","tensorShape":{"dim":[{"size":"1"},{"size":"256"},{"size":"1"},{"size":"1"}]}}},"dtype":{"type":"DT_FLOAT"}}},
          {"name":"StatefulPartitionedCall/All_6","op":"Const","attr":{"value":{"tensor":{"dtype":"DT_BOOL","tensorShape":{}}},"dtype":{"type":"DT_BOOL"}}},
          {"name":"StatefulPartitionedCall/Const_12","op":"Const","attr":{"value":{"tensor":{"dtype":"DT_INT32","tensorShape":{"dim":[{"size":"8"}]}}},"dtype":{"type":"DT_INT32"}}},
          {"name":"unknown_20","op":"Const","attr":{"value":{"tensor":{"dtype":"DT_FLOAT","tensorShape":{"dim":[{"size":"1"},{"size":"256"},{"size":"1"},{"size":"1"}]}}},"dtype":{"type":"DT_FLOAT"}}},
          {"name":"unknown_17","op":"Const","attr":{"value":{"tensor":{"dtype":"DT_FLOAT","tensorShape":{"dim":[{"size":"1"},{"size":"128"},{"size":"1"},{"size":"1"}]}}},"dtype":{"type":"DT_FLOAT"}}},
          {"name":"StatefulPartitionedCall/All_5","op":"Const","attr":{"dtype":{"type":"DT_BOOL"},"value":{"tensor":{"dtype":"DT_BOOL","tensorShape":{}}}}},
          {"name":"StatefulPartitionedCall/Const_10","op":"Const","attr":{"value":{"tensor":{"dtype":"DT_INT32","tensorShape":{"dim":[{"size":"8"}]}}},"dtype":{"type":"DT_INT32"}}},
          {"name":"unknown_14","op":"Const","attr":{"dtype":{"type":"DT_FLOAT"},"value":{"tensor":{"dtype":"DT_FLOAT","tensorShape":{"dim":[{"size":"1"},{"size":"128"},{"size":"1"},{"size":"1"}]}}}}},
          {"name":"StatefulPartitionedCall/All_4","op":"Const","attr":{"value":{"tensor":{"dtype":"DT_BOOL","tensorShape":{}}},"dtype":{"type":"DT_BOOL"}}},
          {"name":"StatefulPartitionedCall/Const_8","op":"Const","attr":{"dtype":{"type":"DT_INT32"},"value":{"tensor":{"dtype":"DT_INT32","tensorShape":{"dim":[{"size":"8"}]}}}}},
          {"name":"unknown_11","op":"Const","attr":{"dtype":{"type":"DT_FLOAT"},"value":{"tensor":{"dtype":"DT_FLOAT","tensorShape":{"dim":[{"size":"1"},{"size":"128"},{"size":"1"},{"size":"1"}]}}}}},
          {"name":"StatefulPartitionedCall/All_3","op":"Const","attr":{"value":{"tensor":{"dtype":"DT_BOOL","tensorShape":{}}},"dtype":{"type":"DT_BOOL"}}},
          {"name":"StatefulPartitionedCall/Const_6","op":"Const","attr":{"value":{"tensor":{"dtype":"DT_INT32","tensorShape":{"dim":[{"size":"8"}]}}},"dtype":{"type":"DT_INT32"}}},
          {"name":"unknown_8","op":"Const","attr":{"value":{"tensor":{"dtype":"DT_FLOAT","tensorShape":{"dim":[{"size":"1"},{"size":"64"},{"size":"1"},{"size":"1"}]}}},"dtype":{"type":"DT_FLOAT"}}},
          {"name":"StatefulPartitionedCall/All_2","op":"Const","attr":{"dtype":{"type":"DT_BOOL"},"value":{"tensor":{"dtype":"DT_BOOL","tensorShape":{}}}}},
          {"name":"StatefulPartitionedCall/Const_4","op":"Const","attr":{"value":{"tensor":{"dtype":"DT_INT32","tensorShape":{"dim":[{"size":"8"}]}}},"dtype":{"type":"DT_INT32"}}},
          {"name":"unknown_5","op":"Const","attr":{"dtype":{"type":"DT_FLOAT"},"value":{"tensor":{"dtype":"DT_FLOAT","tensorShape":{"dim":[{"size":"1"},{"size":"64"},{"size":"1"},{"size":"1"}]}}}}},
          {"name":"StatefulPartitionedCall/All_1","op":"Const","attr":{"dtype":{"type":"DT_BOOL"},"value":{"tensor":{"dtype":"DT_BOOL","tensorShape":{}}}}},
          {"name":"StatefulPartitionedCall/Const_2","op":"Const","attr":{"value":{"tensor":{"dtype":"DT_INT32","tensorShape":{"dim":[{"size":"8"}]}}},"dtype":{"type":"DT_INT32"}}},
          {"name":"unknown_2","op":"Const","attr":{"dtype":{"type":"DT_FLOAT"},"value":{"tensor":{"dtype":"DT_FLOAT","tensorShape":{"dim":[{"size":"1"},{"size":"32"},{"size":"1"},{"size":"1"}]}}}}},
          {"name":"StatefulPartitionedCall/All","op":"Const","attr":{"value":{"tensor":{"dtype":"DT_BOOL","tensorShape":{}}},"dtype":{"type":"DT_BOOL"}}},
          {"name":"StatefulPartitionedCall/Const","op":"Const","attr":{"dtype":{"type":"DT_INT32"},"value":{"tensor":{"dtype":"DT_INT32","tensorShape":{"dim":[{"size":"8"}]}}}}},
          {"name":"StatefulPartitionedCall/split","op":"Const","attr":{"dtype":{"type":"DT_FLOAT"},"value":{"tensor":{"dtype":"DT_FLOAT","tensorShape":{"dim":[{"size":"7"},{"size":"7"},{"size":"3"},{"size":"32"}]}}}}},
          {"name":"StatefulPartitionedCall/transpose_2/perm","op":"Const","attr":{"dtype":{"type":"DT_INT32"},"value":{"tensor":{"dtype":"DT_INT32","tensorShape":{"dim":[{"size":"4"}]}}}}},
          {"name":"StatefulPartitionedCall/onnx_tf_prefix_generator/G_MODEL/A/LayerNorm/moments/mean/reduction_indices","op":"Const","attr":{"value":{"tensor":{"dtype":"DT_INT32","tensorShape":{"dim":[{"size":"3"}]}}},"dtype":{"type":"DT_INT32"}}},
          {"name":"StatefulPartitionedCall/onnx_tf_prefix_generator/G_MODEL/A/LayerNorm/moments/variance/reduction_indices","op":"Const","attr":{"value":{"tensor":{"dtype":"DT_INT32","tensorShape":{"dim":[{"size":"3"}]}}},"dtype":{"type":"DT_INT32"}}},
          {"name":"unknown_1","op":"Const","attr":{"value":{"tensor":{"dtype":"DT_FLOAT","tensorShape":{"dim":[{"size":"1"},{"size":"32"},{"size":"1"},{"size":"1"}]}}},"dtype":{"type":"DT_FLOAT"}}},
          {"name":"StatefulPartitionedCall/transpose_4/perm","op":"Const","attr":{"value":{"tensor":{"dtype":"DT_INT32","tensorShape":{"dim":[{"size":"4"}]}}},"dtype":{"type":"DT_INT32"}}},
          {"name":"StatefulPartitionedCall/split_1","op":"Const","attr":{"dtype":{"type":"DT_FLOAT"},"value":{"tensor":{"dtype":"DT_FLOAT","tensorShape":{"dim":[{"size":"3"},{"size":"3"},{"size":"32"},{"size":"64"}]}}}}},
          {"name":"StatefulPartitionedCall/transpose_5/perm","op":"Const","attr":{"value":{"tensor":{"dtype":"DT_INT32","tensorShape":{"dim":[{"size":"4"}]}}},"dtype":{"type":"DT_INT32"}}},
          {"name":"StatefulPartitionedCall/onnx_tf_prefix_generator/G_MODEL/A/LayerNorm_1/moments/mean/reduction_indices","op":"Const","attr":{"dtype":{"type":"DT_INT32"},"value":{"tensor":{"dtype":"DT_INT32","tensorShape":{"dim":[{"size":"3"}]}}}}},
          {"name":"StatefulPartitionedCall/onnx_tf_prefix_generator/G_MODEL/A/LayerNorm_1/moments/variance/reduction_indices","op":"Const","attr":{"dtype":{"type":"DT_INT32"},"value":{"tensor":{"dtype":"DT_INT32","tensorShape":{"dim":[{"size":"3"}]}}}}},
          {"name":"unknown_4","op":"Const","attr":{"dtype":{"type":"DT_FLOAT"},"value":{"tensor":{"dtype":"DT_FLOAT","tensorShape":{"dim":[{"size":"1"},{"size":"64"},{"size":"1"},{"size":"1"}]}}}}},
          {"name":"StatefulPartitionedCall/transpose_7/perm","op":"Const","attr":{"value":{"tensor":{"dtype":"DT_INT32","tensorShape":{"dim":[{"size":"4"}]}}},"dtype":{"type":"DT_INT32"}}},
          {"name":"StatefulPartitionedCall/split_2","op":"Const","attr":{"value":{"tensor":{"dtype":"DT_FLOAT","tensorShape":{"dim":[{"size":"3"},{"size":"3"},{"size":"64"},{"size":"64"}]}}},"dtype":{"type":"DT_FLOAT"}}},
          {"name":"StatefulPartitionedCall/transpose_8/perm","op":"Const","attr":{"value":{"tensor":{"dtype":"DT_INT32","tensorShape":{"dim":[{"size":"4"}]}}},"dtype":{"type":"DT_INT32"}}},
          {"name":"StatefulPartitionedCall/onnx_tf_prefix_generator/G_MODEL/A/LayerNorm_2/moments/mean/reduction_indices","op":"Const","attr":{"value":{"tensor":{"dtype":"DT_INT32","tensorShape":{"dim":[{"size":"3"}]}}},"dtype":{"type":"DT_INT32"}}},
          {"name":"StatefulPartitionedCall/onnx_tf_prefix_generator/G_MODEL/A/LayerNorm_2/moments/variance/reduction_indices","op":"Const","attr":{"dtype":{"type":"DT_INT32"},"value":{"tensor":{"dtype":"DT_INT32","tensorShape":{"dim":[{"size":"3"}]}}}}},
          {"name":"unknown_7","op":"Const","attr":{"value":{"tensor":{"dtype":"DT_FLOAT","tensorShape":{"dim":[{"size":"1"},{"size":"64"},{"size":"1"},{"size":"1"}]}}},"dtype":{"type":"DT_FLOAT"}}},
          {"name":"StatefulPartitionedCall/transpose_10/perm","op":"Const","attr":{"value":{"tensor":{"dtype":"DT_INT32","tensorShape":{"dim":[{"size":"4"}]}}},"dtype":{"type":"DT_INT32"}}},
          {"name":"StatefulPartitionedCall/split_3","op":"Const","attr":{"value":{"tensor":{"dtype":"DT_FLOAT","tensorShape":{"dim":[{"size":"3"},{"size":"3"},{"size":"64"},{"size":"128"}]}}},"dtype":{"type":"DT_FLOAT"}}},
          {"name":"StatefulPartitionedCall/transpose_11/perm","op":"Const","attr":{"dtype":{"type":"DT_INT32"},"value":{"tensor":{"dtype":"DT_INT32","tensorShape":{"dim":[{"size":"4"}]}}}}},
          {"name":"StatefulPartitionedCall/onnx_tf_prefix_generator/G_MODEL/B/LayerNorm/moments/mean/reduction_indices","op":"Const","attr":{"dtype":{"type":"DT_INT32"},"value":{"tensor":{"dtype":"DT_INT32","tensorShape":{"dim":[{"size":"3"}]}}}}},
          {"name":"StatefulPartitionedCall/onnx_tf_prefix_generator/G_MODEL/B/LayerNorm/moments/variance/reduction_indices","op":"Const","attr":{"dtype":{"type":"DT_INT32"},"value":{"tensor":{"dtype":"DT_INT32","tensorShape":{"dim":[{"size":"3"}]}}}}},
          {"name":"unknown_10","op":"Const","attr":{"dtype":{"type":"DT_FLOAT"},"value":{"tensor":{"dtype":"DT_FLOAT","tensorShape":{"dim":[{"size":"1"},{"size":"128"},{"size":"1"},{"size":"1"}]}}}}},
          {"name":"StatefulPartitionedCall/transpose_13/perm","op":"Const","attr":{"value":{"tensor":{"dtype":"DT_INT32","tensorShape":{"dim":[{"size":"4"}]}}},"dtype":{"type":"DT_INT32"}}},
          {"name":"StatefulPartitionedCall/split_4","op":"Const","attr":{"dtype":{"type":"DT_FLOAT"},"value":{"tensor":{"dtype":"DT_FLOAT","tensorShape":{"dim":[{"size":"3"},{"size":"3"},{"size":"128"},{"size":"128"}]}}}}},
          {"name":"StatefulPartitionedCall/transpose_14/perm","op":"Const","attr":{"value":{"tensor":{"dtype":"DT_INT32","tensorShape":{"dim":[{"size":"4"}]}}},"dtype":{"type":"DT_INT32"}}},
          {"name":"StatefulPartitionedCall/onnx_tf_prefix_generator/G_MODEL/B/LayerNorm_1/moments/mean/reduction_indices","op":"Const","attr":{"dtype":{"type":"DT_INT32"},"value":{"tensor":{"dtype":"DT_INT32","tensorShape":{"dim":[{"size":"3"}]}}}}},
          {"name":"StatefulPartitionedCall/onnx_tf_prefix_generator/G_MODEL/B/LayerNorm_1/moments/variance/reduction_indices","op":"Const","attr":{"dtype":{"type":"DT_INT32"},"value":{"tensor":{"dtype":"DT_INT32","tensorShape":{"dim":[{"size":"3"}]}}}}},
          {"name":"unknown_13","op":"Const","attr":{"value":{"tensor":{"dtype":"DT_FLOAT","tensorShape":{"dim":[{"size":"1"},{"size":"128"},{"size":"1"},{"size":"1"}]}}},"dtype":{"type":"DT_FLOAT"}}},
          {"name":"StatefulPartitionedCall/transpose_16/perm","op":"Const","attr":{"value":{"tensor":{"dtype":"DT_INT32","tensorShape":{"dim":[{"size":"4"}]}}},"dtype":{"type":"DT_INT32"}}},
          {"name":"StatefulPartitionedCall/split_5","op":"Const","attr":{"value":{"tensor":{"dtype":"DT_FLOAT","tensorShape":{"dim":[{"size":"3"},{"size":"3"},{"size":"128"},{"size":"128"}]}}},"dtype":{"type":"DT_FLOAT"}}},
          {"name":"StatefulPartitionedCall/transpose_17/perm","op":"Const","attr":{"dtype":{"type":"DT_INT32"},"value":{"tensor":{"dtype":"DT_INT32","tensorShape":{"dim":[{"size":"4"}]}}}}},
          {"name":"StatefulPartitionedCall/onnx_tf_prefix_generator/G_MODEL/C/LayerNorm/moments/mean/reduction_indices","op":"Const","attr":{"dtype":{"type":"DT_INT32"},"value":{"tensor":{"dtype":"DT_INT32","tensorShape":{"dim":[{"size":"3"}]}}}}},
          {"name":"StatefulPartitionedCall/onnx_tf_prefix_generator/G_MODEL/C/LayerNorm/moments/variance/reduction_indices","op":"Const","attr":{"dtype":{"type":"DT_INT32"},"value":{"tensor":{"dtype":"DT_INT32","tensorShape":{"dim":[{"size":"3"}]}}}}},
          {"name":"unknown_16","op":"Const","attr":{"dtype":{"type":"DT_FLOAT"},"value":{"tensor":{"dtype":"DT_FLOAT","tensorShape":{"dim":[{"size":"1"},{"size":"128"},{"size":"1"},{"size":"1"}]}}}}},
          {"name":"StatefulPartitionedCall/transpose_19/perm","op":"Const","attr":{"value":{"tensor":{"dtype":"DT_INT32","tensorShape":{"dim":[{"size":"4"}]}}},"dtype":{"type":"DT_INT32"}}},
          {"name":"StatefulPartitionedCall/split_6","op":"Const","attr":{"dtype":{"type":"DT_FLOAT"},"value":{"tensor":{"dtype":"DT_FLOAT","tensorShape":{"dim":[{"size":"1"},{"size":"1"},{"size":"128"},{"size":"256"}]}}}}},
          {"name":"StatefulPartitionedCall/transpose_20/perm","op":"Const","attr":{"value":{"tensor":{"dtype":"DT_INT32","tensorShape":{"dim":[{"size":"4"}]}}},"dtype":{"type":"DT_INT32"}}},
          {"name":"StatefulPartitionedCall/onnx_tf_prefix_generator/G_MODEL/C/r1/LayerNorm/moments/mean/reduction_indices","op":"Const","attr":{"value":{"tensor":{"dtype":"DT_INT32","tensorShape":{"dim":[{"size":"3"}]}}},"dtype":{"type":"DT_INT32"}}},
          {"name":"StatefulPartitionedCall/onnx_tf_prefix_generator/G_MODEL/C/r1/LayerNorm/moments/variance/reduction_indices","op":"Const","attr":{"dtype":{"type":"DT_INT32"},"value":{"tensor":{"dtype":"DT_INT32","tensorShape":{"dim":[{"size":"3"}]}}}}},
          {"name":"unknown_19","op":"Const","attr":{"dtype":{"type":"DT_FLOAT"},"value":{"tensor":{"dtype":"DT_FLOAT","tensorShape":{"dim":[{"size":"1"},{"size":"256"},{"size":"1"},{"size":"1"}]}}}}},
          {"name":"StatefulPartitionedCall/transpose_22/perm","op":"Const","attr":{"dtype":{"type":"DT_INT32"},"value":{"tensor":{"dtype":"DT_INT32","tensorShape":{"dim":[{"size":"4"}]}}}}},
          {"name":"StatefulPartitionedCall/Reshape","op":"Const","attr":{"dtype":{"type":"DT_FLOAT"},"value":{"tensor":{"dtype":"DT_FLOAT","tensorShape":{"dim":[{"size":"3"},{"size":"3"},{"size":"256"},{"size":"1"}]}}}}},
          {"name":"unknown_22","op":"Const","attr":{"value":{"tensor":{"dtype":"DT_FLOAT","tensorShape":{"dim":[{"size":"256"}]}}},"dtype":{"type":"DT_FLOAT"}}},
          {"name":"StatefulPartitionedCall/transpose_23/perm","op":"Const","attr":{"dtype":{"type":"DT_INT32"},"value":{"tensor":{"dtype":"DT_INT32","tensorShape":{"dim":[{"size":"4"}]}}}}},
          {"name":"StatefulPartitionedCall/onnx_tf_prefix_generator/G_MODEL/C/r1/1/moments/mean/reduction_indices","op":"Const","attr":{"dtype":{"type":"DT_INT32"},"value":{"tensor":{"dtype":"DT_INT32","tensorShape":{"dim":[{"size":"3"}]}}}}},
          {"name":"StatefulPartitionedCall/onnx_tf_prefix_generator/G_MODEL/C/r1/1/moments/variance/reduction_indices","op":"Const","attr":{"dtype":{"type":"DT_INT32"},"value":{"tensor":{"dtype":"DT_INT32","tensorShape":{"dim":[{"size":"3"}]}}}}},
          {"name":"unknown_23","op":"Const","attr":{"value":{"tensor":{"dtype":"DT_FLOAT","tensorShape":{"dim":[{"size":"1"},{"size":"256"},{"size":"1"},{"size":"1"}]}}},"dtype":{"type":"DT_FLOAT"}}},
          {"name":"StatefulPartitionedCall/transpose_25/perm","op":"Const","attr":{"dtype":{"type":"DT_INT32"},"value":{"tensor":{"dtype":"DT_INT32","tensorShape":{"dim":[{"size":"4"}]}}}}},
          {"name":"StatefulPartitionedCall/split_7","op":"Const","attr":{"value":{"tensor":{"dtype":"DT_FLOAT","tensorShape":{"dim":[{"size":"1"},{"size":"1"},{"size":"256"},{"size":"256"}]}}},"dtype":{"type":"DT_FLOAT"}}},
          {"name":"StatefulPartitionedCall/transpose_26/perm","op":"Const","attr":{"dtype":{"type":"DT_INT32"},"value":{"tensor":{"dtype":"DT_INT32","tensorShape":{"dim":[{"size":"4"}]}}}}},
          {"name":"StatefulPartitionedCall/onnx_tf_prefix_generator/G_MODEL/C/r1/2/moments/mean/reduction_indices","op":"Const","attr":{"dtype":{"type":"DT_INT32"},"value":{"tensor":{"dtype":"DT_INT32","tensorShape":{"dim":[{"size":"3"}]}}}}},
          {"name":"StatefulPartitionedCall/onnx_tf_prefix_generator/G_MODEL/C/r1/2/moments/variance/reduction_indices","op":"Const","attr":{"dtype":{"type":"DT_INT32"},"value":{"tensor":{"dtype":"DT_INT32","tensorShape":{"dim":[{"size":"3"}]}}}}},
          {"name":"unknown_26","op":"Const","attr":{"value":{"tensor":{"dtype":"DT_FLOAT","tensorShape":{"dim":[{"size":"1"},{"size":"256"},{"size":"1"},{"size":"1"}]}}},"dtype":{"type":"DT_FLOAT"}}},
          {"name":"StatefulPartitionedCall/transpose_28/perm","op":"Const","attr":{"dtype":{"type":"DT_INT32"},"value":{"tensor":{"dtype":"DT_INT32","tensorShape":{"dim":[{"size":"4"}]}}}}},
          {"name":"StatefulPartitionedCall/split_8","op":"Const","attr":{"value":{"tensor":{"dtype":"DT_FLOAT","tensorShape":{"dim":[{"size":"1"},{"size":"1"},{"size":"256"},{"size":"512"}]}}},"dtype":{"type":"DT_FLOAT"}}},
          {"name":"StatefulPartitionedCall/transpose_29/perm","op":"Const","attr":{"dtype":{"type":"DT_INT32"},"value":{"tensor":{"dtype":"DT_INT32","tensorShape":{"dim":[{"size":"4"}]}}}}},
          {"name":"StatefulPartitionedCall/onnx_tf_prefix_generator/G_MODEL/C/r2/LayerNorm/moments/mean/reduction_indices","op":"Const","attr":{"dtype":{"type":"DT_INT32"},"value":{"tensor":{"dtype":"DT_INT32","tensorShape":{"dim":[{"size":"3"}]}}}}},
          {"name":"StatefulPartitionedCall/onnx_tf_prefix_generator/G_MODEL/C/r2/LayerNorm/moments/variance/reduction_indices","op":"Const","attr":{"dtype":{"type":"DT_INT32"},"value":{"tensor":{"dtype":"DT_INT32","tensorShape":{"dim":[{"size":"3"}]}}}}},
          {"name":"unknown_29","op":"Const","attr":{"value":{"tensor":{"dtype":"DT_FLOAT","tensorShape":{"dim":[{"size":"1"},{"size":"512"},{"size":"1"},{"size":"1"}]}}},"dtype":{"type":"DT_FLOAT"}}},
          {"name":"StatefulPartitionedCall/transpose_31/perm","op":"Const","attr":{"dtype":{"type":"DT_INT32"},"value":{"tensor":{"dtype":"DT_INT32","tensorShape":{"dim":[{"size":"4"}]}}}}},
          {"name":"StatefulPartitionedCall/Reshape_1","op":"Const","attr":{"dtype":{"type":"DT_FLOAT"},"value":{"tensor":{"dtype":"DT_FLOAT","tensorShape":{"dim":[{"size":"3"},{"size":"3"},{"size":"512"},{"size":"1"}]}}}}},
          {"name":"unknown_32","op":"Const","attr":{"dtype":{"type":"DT_FLOAT"},"value":{"tensor":{"dtype":"DT_FLOAT","tensorShape":{"dim":[{"size":"512"}]}}}}},
          {"name":"StatefulPartitionedCall/transpose_32/perm","op":"Const","attr":{"value":{"tensor":{"dtype":"DT_INT32","tensorShape":{"dim":[{"size":"4"}]}}},"dtype":{"type":"DT_INT32"}}},
          {"name":"StatefulPartitionedCall/onnx_tf_prefix_generator/G_MODEL/C/r2/1/moments/mean/reduction_indices","op":"Const","attr":{"value":{"tensor":{"dtype":"DT_INT32","tensorShape":{"dim":[{"size":"3"}]}}},"dtype":{"type":"DT_INT32"}}},
          {"name":"StatefulPartitionedCall/onnx_tf_prefix_generator/G_MODEL/C/r2/1/moments/variance/reduction_indices","op":"Const","attr":{"value":{"tensor":{"dtype":"DT_INT32","tensorShape":{"dim":[{"size":"3"}]}}},"dtype":{"type":"DT_INT32"}}},
          {"name":"unknown_33","op":"Const","attr":{"value":{"tensor":{"dtype":"DT_FLOAT","tensorShape":{"dim":[{"size":"1"},{"size":"512"},{"size":"1"},{"size":"1"}]}}},"dtype":{"type":"DT_FLOAT"}}},
          {"name":"StatefulPartitionedCall/transpose_34/perm","op":"Const","attr":{"value":{"tensor":{"dtype":"DT_INT32","tensorShape":{"dim":[{"size":"4"}]}}},"dtype":{"type":"DT_INT32"}}},
          {"name":"StatefulPartitionedCall/split_9","op":"Const","attr":{"dtype":{"type":"DT_FLOAT"},"value":{"tensor":{"dtype":"DT_FLOAT","tensorShape":{"dim":[{"size":"1"},{"size":"1"},{"size":"512"},{"size":"256"}]}}}}},
          {"name":"StatefulPartitionedCall/transpose_35/perm","op":"Const","attr":{"dtype":{"type":"DT_INT32"},"value":{"tensor":{"dtype":"DT_INT32","tensorShape":{"dim":[{"size":"4"}]}}}}},
          {"name":"StatefulPartitionedCall/onnx_tf_prefix_generator/G_MODEL/C/r2/2/moments/mean/reduction_indices","op":"Const","attr":{"value":{"tensor":{"dtype":"DT_INT32","tensorShape":{"dim":[{"size":"3"}]}}},"dtype":{"type":"DT_INT32"}}},
          {"name":"StatefulPartitionedCall/onnx_tf_prefix_generator/G_MODEL/C/r2/2/moments/variance/reduction_indices","op":"Const","attr":{"value":{"tensor":{"dtype":"DT_INT32","tensorShape":{"dim":[{"size":"3"}]}}},"dtype":{"type":"DT_INT32"}}},
          {"name":"unknown_36","op":"Const","attr":{"value":{"tensor":{"dtype":"DT_FLOAT","tensorShape":{"dim":[{"size":"1"},{"size":"256"},{"size":"1"},{"size":"1"}]}}},"dtype":{"type":"DT_FLOAT"}}},
          {"name":"StatefulPartitionedCall/transpose_37/perm","op":"Const","attr":{"dtype":{"type":"DT_INT32"},"value":{"tensor":{"dtype":"DT_INT32","tensorShape":{"dim":[{"size":"4"}]}}}}},
          {"name":"StatefulPartitionedCall/split_10","op":"Const","attr":{"value":{"tensor":{"dtype":"DT_FLOAT","tensorShape":{"dim":[{"size":"1"},{"size":"1"},{"size":"256"},{"size":"512"}]}}},"dtype":{"type":"DT_FLOAT"}}},
          {"name":"StatefulPartitionedCall/transpose_38/perm","op":"Const","attr":{"dtype":{"type":"DT_INT32"},"value":{"tensor":{"dtype":"DT_INT32","tensorShape":{"dim":[{"size":"4"}]}}}}},
          {"name":"StatefulPartitionedCall/onnx_tf_prefix_generator/G_MODEL/C/r3/LayerNorm/moments/mean/reduction_indices","op":"Const","attr":{"value":{"tensor":{"dtype":"DT_INT32","tensorShape":{"dim":[{"size":"3"}]}}},"dtype":{"type":"DT_INT32"}}},
          {"name":"StatefulPartitionedCall/onnx_tf_prefix_generator/G_MODEL/C/r3/LayerNorm/moments/variance/reduction_indices","op":"Const","attr":{"dtype":{"type":"DT_INT32"},"value":{"tensor":{"dtype":"DT_INT32","tensorShape":{"dim":[{"size":"3"}]}}}}},
          {"name":"unknown_39","op":"Const","attr":{"value":{"tensor":{"dtype":"DT_FLOAT","tensorShape":{"dim":[{"size":"1"},{"size":"512"},{"size":"1"},{"size":"1"}]}}},"dtype":{"type":"DT_FLOAT"}}},
          {"name":"StatefulPartitionedCall/transpose_40/perm","op":"Const","attr":{"value":{"tensor":{"dtype":"DT_INT32","tensorShape":{"dim":[{"size":"4"}]}}},"dtype":{"type":"DT_INT32"}}},
          {"name":"StatefulPartitionedCall/Reshape_2","op":"Const","attr":{"dtype":{"type":"DT_FLOAT"},"value":{"tensor":{"dtype":"DT_FLOAT","tensorShape":{"dim":[{"size":"3"},{"size":"3"},{"size":"512"},{"size":"1"}]}}}}},
          {"name":"unknown_42","op":"Const","attr":{"value":{"tensor":{"dtype":"DT_FLOAT","tensorShape":{"dim":[{"size":"512"}]}}},"dtype":{"type":"DT_FLOAT"}}},
          {"name":"StatefulPartitionedCall/transpose_41/perm","op":"Const","attr":{"dtype":{"type":"DT_INT32"},"value":{"tensor":{"dtype":"DT_INT32","tensorShape":{"dim":[{"size":"4"}]}}}}},
          {"name":"StatefulPartitionedCall/onnx_tf_prefix_generator/G_MODEL/C/r3/1/moments/mean/reduction_indices","op":"Const","attr":{"value":{"tensor":{"dtype":"DT_INT32","tensorShape":{"dim":[{"size":"3"}]}}},"dtype":{"type":"DT_INT32"}}},
          {"name":"StatefulPartitionedCall/onnx_tf_prefix_generator/G_MODEL/C/r3/1/moments/variance/reduction_indices","op":"Const","attr":{"dtype":{"type":"DT_INT32"},"value":{"tensor":{"dtype":"DT_INT32","tensorShape":{"dim":[{"size":"3"}]}}}}},
          {"name":"unknown_43","op":"Const","attr":{"value":{"tensor":{"dtype":"DT_FLOAT","tensorShape":{"dim":[{"size":"1"},{"size":"512"},{"size":"1"},{"size":"1"}]}}},"dtype":{"type":"DT_FLOAT"}}},
          {"name":"StatefulPartitionedCall/transpose_43/perm","op":"Const","attr":{"dtype":{"type":"DT_INT32"},"value":{"tensor":{"dtype":"DT_INT32","tensorShape":{"dim":[{"size":"4"}]}}}}},
          {"name":"StatefulPartitionedCall/split_11","op":"Const","attr":{"value":{"tensor":{"dtype":"DT_FLOAT","tensorShape":{"dim":[{"size":"1"},{"size":"1"},{"size":"512"},{"size":"256"}]}}},"dtype":{"type":"DT_FLOAT"}}},
          {"name":"StatefulPartitionedCall/transpose_44/perm","op":"Const","attr":{"dtype":{"type":"DT_INT32"},"value":{"tensor":{"dtype":"DT_INT32","tensorShape":{"dim":[{"size":"4"}]}}}}},
          {"name":"StatefulPartitionedCall/onnx_tf_prefix_generator/G_MODEL/C/r3/2/moments/mean/reduction_indices","op":"Const","attr":{"value":{"tensor":{"dtype":"DT_INT32","tensorShape":{"dim":[{"size":"3"}]}}},"dtype":{"type":"DT_INT32"}}},
          {"name":"StatefulPartitionedCall/onnx_tf_prefix_generator/G_MODEL/C/r3/2/moments/variance/reduction_indices","op":"Const","attr":{"value":{"tensor":{"dtype":"DT_INT32","tensorShape":{"dim":[{"size":"3"}]}}},"dtype":{"type":"DT_INT32"}}},
          {"name":"unknown_46","op":"Const","attr":{"dtype":{"type":"DT_FLOAT"},"value":{"tensor":{"dtype":"DT_FLOAT","tensorShape":{"dim":[{"size":"1"},{"size":"256"},{"size":"1"},{"size":"1"}]}}}}},
          {"name":"StatefulPartitionedCall/transpose_46/perm","op":"Const","attr":{"dtype":{"type":"DT_INT32"},"value":{"tensor":{"dtype":"DT_INT32","tensorShape":{"dim":[{"size":"4"}]}}}}},
          {"name":"StatefulPartitionedCall/split_12","op":"Const","attr":{"dtype":{"type":"DT_FLOAT"},"value":{"tensor":{"dtype":"DT_FLOAT","tensorShape":{"dim":[{"size":"1"},{"size":"1"},{"size":"256"},{"size":"512"}]}}}}},
          {"name":"StatefulPartitionedCall/transpose_47/perm","op":"Const","attr":{"value":{"tensor":{"dtype":"DT_INT32","tensorShape":{"dim":[{"size":"4"}]}}},"dtype":{"type":"DT_INT32"}}},
          {"name":"StatefulPartitionedCall/onnx_tf_prefix_generator/G_MODEL/C/r4/LayerNorm/moments/mean/reduction_indices","op":"Const","attr":{"value":{"tensor":{"dtype":"DT_INT32","tensorShape":{"dim":[{"size":"3"}]}}},"dtype":{"type":"DT_INT32"}}},
          {"name":"StatefulPartitionedCall/onnx_tf_prefix_generator/G_MODEL/C/r4/LayerNorm/moments/variance/reduction_indices","op":"Const","attr":{"dtype":{"type":"DT_INT32"},"value":{"tensor":{"dtype":"DT_INT32","tensorShape":{"dim":[{"size":"3"}]}}}}},
          {"name":"unknown_49","op":"Const","attr":{"value":{"tensor":{"dtype":"DT_FLOAT","tensorShape":{"dim":[{"size":"1"},{"size":"512"},{"size":"1"},{"size":"1"}]}}},"dtype":{"type":"DT_FLOAT"}}},
          {"name":"StatefulPartitionedCall/transpose_49/perm","op":"Const","attr":{"value":{"tensor":{"dtype":"DT_INT32","tensorShape":{"dim":[{"size":"4"}]}}},"dtype":{"type":"DT_INT32"}}},
          {"name":"StatefulPartitionedCall/Reshape_3","op":"Const","attr":{"value":{"tensor":{"dtype":"DT_FLOAT","tensorShape":{"dim":[{"size":"3"},{"size":"3"},{"size":"512"},{"size":"1"}]}}},"dtype":{"type":"DT_FLOAT"}}},
          {"name":"unknown_52","op":"Const","attr":{"dtype":{"type":"DT_FLOAT"},"value":{"tensor":{"dtype":"DT_FLOAT","tensorShape":{"dim":[{"size":"512"}]}}}}},
          {"name":"StatefulPartitionedCall/transpose_50/perm","op":"Const","attr":{"dtype":{"type":"DT_INT32"},"value":{"tensor":{"dtype":"DT_INT32","tensorShape":{"dim":[{"size":"4"}]}}}}},
          {"name":"StatefulPartitionedCall/onnx_tf_prefix_generator/G_MODEL/C/r4/1/moments/mean/reduction_indices","op":"Const","attr":{"value":{"tensor":{"dtype":"DT_INT32","tensorShape":{"dim":[{"size":"3"}]}}},"dtype":{"type":"DT_INT32"}}},
          {"name":"StatefulPartitionedCall/onnx_tf_prefix_generator/G_MODEL/C/r4/1/moments/variance/reduction_indices","op":"Const","attr":{"value":{"tensor":{"dtype":"DT_INT32","tensorShape":{"dim":[{"size":"3"}]}}},"dtype":{"type":"DT_INT32"}}},
          {"name":"unknown_53","op":"Const","attr":{"dtype":{"type":"DT_FLOAT"},"value":{"tensor":{"dtype":"DT_FLOAT","tensorShape":{"dim":[{"size":"1"},{"size":"512"},{"size":"1"},{"size":"1"}]}}}}},
          {"name":"StatefulPartitionedCall/transpose_52/perm","op":"Const","attr":{"value":{"tensor":{"dtype":"DT_INT32","tensorShape":{"dim":[{"size":"4"}]}}},"dtype":{"type":"DT_INT32"}}},
          {"name":"StatefulPartitionedCall/split_13","op":"Const","attr":{"value":{"tensor":{"dtype":"DT_FLOAT","tensorShape":{"dim":[{"size":"1"},{"size":"1"},{"size":"512"},{"size":"256"}]}}},"dtype":{"type":"DT_FLOAT"}}},
          {"name":"StatefulPartitionedCall/transpose_53/perm","op":"Const","attr":{"dtype":{"type":"DT_INT32"},"value":{"tensor":{"dtype":"DT_INT32","tensorShape":{"dim":[{"size":"4"}]}}}}},
          {"name":"StatefulPartitionedCall/onnx_tf_prefix_generator/G_MODEL/C/r4/2/moments/mean/reduction_indices","op":"Const","attr":{"dtype":{"type":"DT_INT32"},"value":{"tensor":{"dtype":"DT_INT32","tensorShape":{"dim":[{"size":"3"}]}}}}},
          {"name":"StatefulPartitionedCall/onnx_tf_prefix_generator/G_MODEL/C/r4/2/moments/variance/reduction_indices","op":"Const","attr":{"value":{"tensor":{"dtype":"DT_INT32","tensorShape":{"dim":[{"size":"3"}]}}},"dtype":{"type":"DT_INT32"}}},
          {"name":"unknown_56","op":"Const","attr":{"value":{"tensor":{"dtype":"DT_FLOAT","tensorShape":{"dim":[{"size":"1"},{"size":"256"},{"size":"1"},{"size":"1"}]}}},"dtype":{"type":"DT_FLOAT"}}},
          {"name":"StatefulPartitionedCall/transpose_55/perm","op":"Const","attr":{"value":{"tensor":{"dtype":"DT_INT32","tensorShape":{"dim":[{"size":"4"}]}}},"dtype":{"type":"DT_INT32"}}},
          {"name":"StatefulPartitionedCall/split_14","op":"Const","attr":{"dtype":{"type":"DT_FLOAT"},"value":{"tensor":{"dtype":"DT_FLOAT","tensorShape":{"dim":[{"size":"3"},{"size":"3"},{"size":"256"},{"size":"128"}]}}}}},
          {"name":"StatefulPartitionedCall/transpose_56/perm","op":"Const","attr":{"value":{"tensor":{"dtype":"DT_INT32","tensorShape":{"dim":[{"size":"4"}]}}},"dtype":{"type":"DT_INT32"}}},
          {"name":"StatefulPartitionedCall/onnx_tf_prefix_generator/G_MODEL/C/LayerNorm_1/moments/mean/reduction_indices","op":"Const","attr":{"value":{"tensor":{"dtype":"DT_INT32","tensorShape":{"dim":[{"size":"3"}]}}},"dtype":{"type":"DT_INT32"}}},
          {"name":"StatefulPartitionedCall/onnx_tf_prefix_generator/G_MODEL/C/LayerNorm_1/moments/variance/reduction_indices","op":"Const","attr":{"dtype":{"type":"DT_INT32"},"value":{"tensor":{"dtype":"DT_INT32","tensorShape":{"dim":[{"size":"3"}]}}}}},
          {"name":"unknown_59","op":"Const","attr":{"value":{"tensor":{"dtype":"DT_FLOAT","tensorShape":{"dim":[{"size":"1"},{"size":"128"},{"size":"1"},{"size":"1"}]}}},"dtype":{"type":"DT_FLOAT"}}},
          {"name":"StatefulPartitionedCall/onnx_tf_prefix_Gather__1355/axis","op":"Const","attr":{"dtype":{"type":"DT_INT32"},"value":{"tensor":{"dtype":"DT_INT32","tensorShape":{}}}}},
          {"name":"StatefulPartitionedCall/onnx_tf_prefix_Slice__259/begin","op":"Const","attr":{"value":{"tensor":{"dtype":"DT_INT64","tensorShape":{"dim":[{"size":"1"}]}}},"dtype":{"type":"DT_INT64"}}},
          {"name":"StatefulPartitionedCall/onnx_tf_prefix_Slice__259/size","op":"Const","attr":{"dtype":{"type":"DT_INT64"},"value":{"tensor":{"dtype":"DT_INT64","tensorShape":{"dim":[{"size":"1"}]}}}}},
          {"name":"StatefulPartitionedCall/onnx_tf_prefix_Concat__264/axis","op":"Const","attr":{"dtype":{"type":"DT_INT32"},"value":{"tensor":{"dtype":"DT_INT32","tensorShape":{}}}}},
          {"name":"StatefulPartitionedCall/transpose_60/perm","op":"Const","attr":{"dtype":{"type":"DT_INT32"},"value":{"tensor":{"dtype":"DT_INT32","tensorShape":{"dim":[{"size":"4"}]}}}}},
          {"name":"StatefulPartitionedCall/split_15","op":"Const","attr":{"value":{"tensor":{"dtype":"DT_FLOAT","tensorShape":{"dim":[{"size":"3"},{"size":"3"},{"size":"128"},{"size":"128"}]}}},"dtype":{"type":"DT_FLOAT"}}},
          {"name":"StatefulPartitionedCall/transpose_61/perm","op":"Const","attr":{"value":{"tensor":{"dtype":"DT_INT32","tensorShape":{"dim":[{"size":"4"}]}}},"dtype":{"type":"DT_INT32"}}},
          {"name":"StatefulPartitionedCall/onnx_tf_prefix_generator/G_MODEL/D/LayerNorm/moments/mean/reduction_indices","op":"Const","attr":{"dtype":{"type":"DT_INT32"},"value":{"tensor":{"dtype":"DT_INT32","tensorShape":{"dim":[{"size":"3"}]}}}}},
          {"name":"StatefulPartitionedCall/onnx_tf_prefix_generator/G_MODEL/D/LayerNorm/moments/variance/reduction_indices","op":"Const","attr":{"value":{"tensor":{"dtype":"DT_INT32","tensorShape":{"dim":[{"size":"3"}]}}},"dtype":{"type":"DT_INT32"}}},
          {"name":"unknown_65","op":"Const","attr":{"dtype":{"type":"DT_FLOAT"},"value":{"tensor":{"dtype":"DT_FLOAT","tensorShape":{"dim":[{"size":"1"},{"size":"128"},{"size":"1"},{"size":"1"}]}}}}},
          {"name":"StatefulPartitionedCall/transpose_63/perm","op":"Const","attr":{"dtype":{"type":"DT_INT32"},"value":{"tensor":{"dtype":"DT_INT32","tensorShape":{"dim":[{"size":"4"}]}}}}},
          {"name":"StatefulPartitionedCall/split_16","op":"Const","attr":{"dtype":{"type":"DT_FLOAT"},"value":{"tensor":{"dtype":"DT_FLOAT","tensorShape":{"dim":[{"size":"3"},{"size":"3"},{"size":"128"},{"size":"128"}]}}}}},
          {"name":"StatefulPartitionedCall/transpose_64/perm","op":"Const","attr":{"value":{"tensor":{"dtype":"DT_INT32","tensorShape":{"dim":[{"size":"4"}]}}},"dtype":{"type":"DT_INT32"}}},
          {"name":"StatefulPartitionedCall/onnx_tf_prefix_generator/G_MODEL/D/LayerNorm_1/moments/mean/reduction_indices","op":"Const","attr":{"dtype":{"type":"DT_INT32"},"value":{"tensor":{"dtype":"DT_INT32","tensorShape":{"dim":[{"size":"3"}]}}}}},
          {"name":"StatefulPartitionedCall/onnx_tf_prefix_generator/G_MODEL/D/LayerNorm_1/moments/variance/reduction_indices","op":"Const","attr":{"value":{"tensor":{"dtype":"DT_INT32","tensorShape":{"dim":[{"size":"3"}]}}},"dtype":{"type":"DT_INT32"}}},
          {"name":"unknown_68","op":"Const","attr":{"dtype":{"type":"DT_FLOAT"},"value":{"tensor":{"dtype":"DT_FLOAT","tensorShape":{"dim":[{"size":"1"},{"size":"128"},{"size":"1"},{"size":"1"}]}}}}},
          {"name":"unknown_61","op":"Const","attr":{"value":{"tensor":{"dtype":"DT_INT64","tensorShape":{"dim":[{"size":"4"}]}}},"dtype":{"type":"DT_INT64"}}},
          {"name":"StatefulPartitionedCall/onnx_tf_prefix_Gather__1370/axis","op":"Const","attr":{"value":{"tensor":{"dtype":"DT_INT32","tensorShape":{}}},"dtype":{"type":"DT_INT32"}}},
          {"name":"StatefulPartitionedCall/onnx_tf_prefix_Slice__305/begin","op":"Const","attr":{"value":{"tensor":{"dtype":"DT_INT64","tensorShape":{"dim":[{"size":"1"}]}}},"dtype":{"type":"DT_INT64"}}},
          {"name":"StatefulPartitionedCall/onnx_tf_prefix_Slice__305/size","op":"Const","attr":{"value":{"tensor":{"dtype":"DT_INT64","tensorShape":{"dim":[{"size":"1"}]}}},"dtype":{"type":"DT_INT64"}}},
          {"name":"StatefulPartitionedCall/onnx_tf_prefix_Concat__310/axis","op":"Const","attr":{"value":{"tensor":{"dtype":"DT_INT32","tensorShape":{}}},"dtype":{"type":"DT_INT32"}}},
          {"name":"StatefulPartitionedCall/transpose_68/perm","op":"Const","attr":{"value":{"tensor":{"dtype":"DT_INT32","tensorShape":{"dim":[{"size":"4"}]}}},"dtype":{"type":"DT_INT32"}}},
          {"name":"StatefulPartitionedCall/split_17","op":"Const","attr":{"dtype":{"type":"DT_FLOAT"},"value":{"tensor":{"dtype":"DT_FLOAT","tensorShape":{"dim":[{"size":"3"},{"size":"3"},{"size":"128"},{"size":"64"}]}}}}},
          {"name":"StatefulPartitionedCall/transpose_69/perm","op":"Const","attr":{"value":{"tensor":{"dtype":"DT_INT32","tensorShape":{"dim":[{"size":"4"}]}}},"dtype":{"type":"DT_INT32"}}},
          {"name":"StatefulPartitionedCall/onnx_tf_prefix_generator/G_MODEL/E/LayerNorm/moments/mean/reduction_indices","op":"Const","attr":{"dtype":{"type":"DT_INT32"},"value":{"tensor":{"dtype":"DT_INT32","tensorShape":{"dim":[{"size":"3"}]}}}}},
          {"name":"StatefulPartitionedCall/onnx_tf_prefix_generator/G_MODEL/E/LayerNorm/moments/variance/reduction_indices","op":"Const","attr":{"value":{"tensor":{"dtype":"DT_INT32","tensorShape":{"dim":[{"size":"3"}]}}},"dtype":{"type":"DT_INT32"}}},
          {"name":"unknown_71","op":"Const","attr":{"value":{"tensor":{"dtype":"DT_FLOAT","tensorShape":{"dim":[{"size":"1"},{"size":"64"},{"size":"1"},{"size":"1"}]}}},"dtype":{"type":"DT_FLOAT"}}},
          {"name":"StatefulPartitionedCall/transpose_71/perm","op":"Const","attr":{"dtype":{"type":"DT_INT32"},"value":{"tensor":{"dtype":"DT_INT32","tensorShape":{"dim":[{"size":"4"}]}}}}},
          {"name":"StatefulPartitionedCall/split_18","op":"Const","attr":{"value":{"tensor":{"dtype":"DT_FLOAT","tensorShape":{"dim":[{"size":"3"},{"size":"3"},{"size":"64"},{"size":"64"}]}}},"dtype":{"type":"DT_FLOAT"}}},
          {"name":"StatefulPartitionedCall/transpose_72/perm","op":"Const","attr":{"value":{"tensor":{"dtype":"DT_INT32","tensorShape":{"dim":[{"size":"4"}]}}},"dtype":{"type":"DT_INT32"}}},
          {"name":"StatefulPartitionedCall/onnx_tf_prefix_generator/G_MODEL/E/LayerNorm_1/moments/mean/reduction_indices","op":"Const","attr":{"dtype":{"type":"DT_INT32"},"value":{"tensor":{"dtype":"DT_INT32","tensorShape":{"dim":[{"size":"3"}]}}}}},
          {"name":"StatefulPartitionedCall/onnx_tf_prefix_generator/G_MODEL/E/LayerNorm_1/moments/variance/reduction_indices","op":"Const","attr":{"value":{"tensor":{"dtype":"DT_INT32","tensorShape":{"dim":[{"size":"3"}]}}},"dtype":{"type":"DT_INT32"}}},
          {"name":"unknown_74","op":"Const","attr":{"value":{"tensor":{"dtype":"DT_FLOAT","tensorShape":{"dim":[{"size":"1"},{"size":"64"},{"size":"1"},{"size":"1"}]}}},"dtype":{"type":"DT_FLOAT"}}},
          {"name":"StatefulPartitionedCall/transpose_74/perm","op":"Const","attr":{"dtype":{"type":"DT_INT32"},"value":{"tensor":{"dtype":"DT_INT32","tensorShape":{"dim":[{"size":"4"}]}}}}},
          {"name":"StatefulPartitionedCall/split_19","op":"Const","attr":{"value":{"tensor":{"dtype":"DT_FLOAT","tensorShape":{"dim":[{"size":"7"},{"size":"7"},{"size":"64"},{"size":"32"}]}}},"dtype":{"type":"DT_FLOAT"}}},
          {"name":"StatefulPartitionedCall/transpose_75/perm","op":"Const","attr":{"dtype":{"type":"DT_INT32"},"value":{"tensor":{"dtype":"DT_INT32","tensorShape":{"dim":[{"size":"4"}]}}}}},
          {"name":"StatefulPartitionedCall/onnx_tf_prefix_generator/G_MODEL/E/LayerNorm_2/moments/mean/reduction_indices","op":"Const","attr":{"value":{"tensor":{"dtype":"DT_INT32","tensorShape":{"dim":[{"size":"3"}]}}},"dtype":{"type":"DT_INT32"}}},
          {"name":"StatefulPartitionedCall/onnx_tf_prefix_generator/G_MODEL/E/LayerNorm_2/moments/variance/reduction_indices","op":"Const","attr":{"dtype":{"type":"DT_INT32"},"value":{"tensor":{"dtype":"DT_INT32","tensorShape":{"dim":[{"size":"3"}]}}}}},
          {"name":"unknown_0","op":"Const","attr":{"dtype":{"type":"DT_FLOAT"},"value":{"tensor":{"dtype":"DT_FLOAT","tensorShape":{"dim":[{"size":"1"},{"size":"1"},{"size":"1"},{"size":"1"}]}}}}},
          {"name":"unknown_77","op":"Const","attr":{"value":{"tensor":{"dtype":"DT_FLOAT","tensorShape":{"dim":[{"size":"1"},{"size":"32"},{"size":"1"},{"size":"1"}]}}},"dtype":{"type":"DT_FLOAT"}}},
          {"name":"StatefulPartitionedCall/transpose_77/perm","op":"Const","attr":{"value":{"tensor":{"dtype":"DT_INT32","tensorShape":{"dim":[{"size":"4"}]}}},"dtype":{"type":"DT_INT32"}}},
          {"name":"StatefulPartitionedCall/split_20","op":"Const","attr":{"dtype":{"type":"DT_FLOAT"},"value":{"tensor":{"dtype":"DT_FLOAT","tensorShape":{"dim":[{"size":"1"},{"size":"1"},{"size":"32"},{"size":"3"}]}}}}},
          {"name":"StatefulPartitionedCall/transpose_78/perm","op":"Const","attr":{"value":{"tensor":{"dtype":"DT_INT32","tensorShape":{"dim":[{"size":"4"}]}}},"dtype":{"type":"DT_INT32"}}},
          {"name":"StatefulPartitionedCall/onnx_tf_prefix_generator/G_MODEL/out_layer/Conv/Conv2D__353/perm","op":"Const","attr":{"value":{"tensor":{"dtype":"DT_INT32","tensorShape":{"dim":[{"size":"4"}]}}},"dtype":{"type":"DT_INT32"}}},
          {"name":"generator_input_tf_0_ee2363c7","op":"Placeholder","attr":{"shape":{"shape":{"dim":[{"size":"1"},{"size":"-1"},{"size":"-1"},{"size":"3"}]}},"dtype":{"type":"DT_FLOAT"}}},
          {"name":"StatefulPartitionedCall/cond","op":"StatelessIf","input":["StatefulPartitionedCall/All","StatefulPartitionedCall/Const","generator_input_tf_0_ee2363c7"],"attr":{"Tin":{"list":{"type":["DT_INT32","DT_FLOAT"]}},"Tout":{"list":{"type":["DT_FLOAT"]}},"Tcond":{"type":"DT_BOOL"},"else_branch":{"func":{"name":"__inference_cond_false_245_169"}},"_lower_using_switch_merge":{"b":false},"output_shapes":{"list":{"shape":[{"dim":[{"size":"-1"},{"size":"-1"},{"size":"-1"},{"size":"-1"}]}]}},"then_branch":{"func":{"name":"__inference_cond_true_244_642"}},"_read_only_resource_inputs":{"list":{}}}},
          {"name":"StatefulPartitionedCall/convolution","op":"Conv2D","input":["StatefulPartitionedCall/cond","StatefulPartitionedCall/split"],"device":"/device:CPU:0","attr":{"padding":{"s":"VkFMSUQ="},"data_format":{"s":"TkhXQw=="},"dilations":{"list":{"i":["1","1","1","1"]}},"T":{"type":"DT_FLOAT"},"use_cudnn_on_gpu":{"b":true},"strides":{"list":{"i":["1","1","1","1"]}},"explicit_paddings":{"list":{}}}},
          {"name":"StatefulPartitionedCall/transpose_2","op":"Transpose","input":["StatefulPartitionedCall/convolution","StatefulPartitionedCall/transpose_2/perm"],"attr":{"T":{"type":"DT_FLOAT"},"Tperm":{"type":"DT_INT32"}}},
          {"name":"StatefulPartitionedCall/onnx_tf_prefix_generator/G_MODEL/A/LayerNorm/moments/mean","op":"Mean","input":["StatefulPartitionedCall/transpose_2","StatefulPartitionedCall/onnx_tf_prefix_generator/G_MODEL/A/LayerNorm/moments/mean/reduction_indices"],"attr":{"keep_dims":{"b":true},"Tidx":{"type":"DT_INT32"},"T":{"type":"DT_FLOAT"}}},
          {"name":"StatefulPartitionedCall/onnx_tf_prefix_generator/G_MODEL/A/LayerNorm/moments/SquaredDifference","op":"SquaredDifference","input":["StatefulPartitionedCall/transpose_2","StatefulPartitionedCall/onnx_tf_prefix_generator/G_MODEL/A/LayerNorm/moments/mean"],"attr":{"T":{"type":"DT_FLOAT"}}},
          {"name":"StatefulPartitionedCall/onnx_tf_prefix_generator/G_MODEL/A/LayerNorm/moments/variance","op":"Mean","input":["StatefulPartitionedCall/onnx_tf_prefix_generator/G_MODEL/A/LayerNorm/moments/SquaredDifference","StatefulPartitionedCall/onnx_tf_prefix_generator/G_MODEL/A/LayerNorm/moments/variance/reduction_indices"],"attr":{"T":{"type":"DT_FLOAT"},"Tidx":{"type":"DT_INT32"},"keep_dims":{"b":true}}},
          {"name":"StatefulPartitionedCall/onnx_tf_prefix_generator/G_MODEL/A/LayerNorm/batchnorm/add","op":"AddV2","input":["StatefulPartitionedCall/onnx_tf_prefix_generator/G_MODEL/A/LayerNorm/moments/variance","unknown_0"],"attr":{"T":{"type":"DT_FLOAT"}}},
          {"name":"StatefulPartitionedCall/onnx_tf_prefix_generator/G_MODEL/A/LayerNorm/batchnorm/Rsqrt","op":"Sqrt","input":["StatefulPartitionedCall/onnx_tf_prefix_generator/G_MODEL/A/LayerNorm/batchnorm/add"],"attr":{"T":{"type":"DT_FLOAT"}}},
          {"name":"StatefulPartitionedCall/onnx_tf_prefix_generator/G_MODEL/A/LayerNorm/batchnorm/Rsqrt__17","op":"Reciprocal","input":["StatefulPartitionedCall/onnx_tf_prefix_generator/G_MODEL/A/LayerNorm/batchnorm/Rsqrt"],"attr":{"T":{"type":"DT_FLOAT"}}},
          {"name":"StatefulPartitionedCall/onnx_tf_prefix_generator/G_MODEL/A/LayerNorm/batchnorm/mul","op":"Mul","input":["StatefulPartitionedCall/onnx_tf_prefix_generator/G_MODEL/A/LayerNorm/batchnorm/Rsqrt__17","unknown_1"],"attr":{"T":{"type":"DT_FLOAT"}}},
          {"name":"StatefulPartitionedCall/onnx_tf_prefix_generator/G_MODEL/A/LayerNorm/batchnorm/mul_2","op":"Mul","input":["StatefulPartitionedCall/onnx_tf_prefix_generator/G_MODEL/A/LayerNorm/moments/mean","StatefulPartitionedCall/onnx_tf_prefix_generator/G_MODEL/A/LayerNorm/batchnorm/mul"],"attr":{"T":{"type":"DT_FLOAT"}}},
          {"name":"StatefulPartitionedCall/onnx_tf_prefix_generator/G_MODEL/A/LayerNorm/batchnorm/mul_1","op":"Mul","input":["StatefulPartitionedCall/transpose_2","StatefulPartitionedCall/onnx_tf_prefix_generator/G_MODEL/A/LayerNorm/batchnorm/mul"],"attr":{"T":{"type":"DT_FLOAT"}}},
          {"name":"StatefulPartitionedCall/onnx_tf_prefix_generator/G_MODEL/A/LayerNorm/batchnorm/sub","op":"Sub","input":["unknown_2","StatefulPartitionedCall/onnx_tf_prefix_generator/G_MODEL/A/LayerNorm/batchnorm/mul_2"],"attr":{"T":{"type":"DT_FLOAT"}}},
          {"name":"StatefulPartitionedCall/onnx_tf_prefix_generator/G_MODEL/A/LayerNorm/batchnorm/add_1","op":"AddV2","input":["StatefulPartitionedCall/onnx_tf_prefix_generator/G_MODEL/A/LayerNorm/batchnorm/mul_1","StatefulPartitionedCall/onnx_tf_prefix_generator/G_MODEL/A/LayerNorm/batchnorm/sub"],"attr":{"T":{"type":"DT_FLOAT"}}},
          {"name":"StatefulPartitionedCall/onnx_tf_prefix_generator/G_MODEL/A/LeakyRelu","op":"LeakyRelu","input":["StatefulPartitionedCall/onnx_tf_prefix_generator/G_MODEL/A/LayerNorm/batchnorm/add_1"],"attr":{"alpha":{"f":0.2},"T":{"type":"DT_FLOAT"}}},
          {"name":"StatefulPartitionedCall/cond_1","op":"StatelessIf","input":["StatefulPartitionedCall/All_1","StatefulPartitionedCall/Const_2","StatefulPartitionedCall/onnx_tf_prefix_generator/G_MODEL/A/LeakyRelu"],"attr":{"_lower_using_switch_merge":{"b":false},"Tcond":{"type":"DT_BOOL"},"Tin":{"list":{"type":["DT_INT32","DT_FLOAT"]}},"_read_only_resource_inputs":{"list":{}},"output_shapes":{"list":{"shape":[{"dim":[{"size":"-1"},{"size":"-1"},{"size":"-1"},{"size":"-1"}]}]}},"else_branch":{"func":{"name":"__inference_cond_1_false_319_1066"}},"Tout":{"list":{"type":["DT_FLOAT"]}},"then_branch":{"func":{"name":"__inference_cond_1_true_318_864"}}}},
          {"name":"StatefulPartitionedCall/transpose_4","op":"Transpose","input":["StatefulPartitionedCall/cond_1","StatefulPartitionedCall/transpose_4/perm"],"attr":{"Tperm":{"type":"DT_INT32"},"T":{"type":"DT_FLOAT"}}},
          {"name":"StatefulPartitionedCall/convolution_1","op":"Conv2D","input":["StatefulPartitionedCall/transpose_4","StatefulPartitionedCall/split_1"],"device":"/device:CPU:0","attr":{"data_format":{"s":"TkhXQw=="},"explicit_paddings":{"list":{}},"T":{"type":"DT_FLOAT"},"strides":{"list":{"i":["1","2","2","1"]}},"use_cudnn_on_gpu":{"b":true},"padding":{"s":"VkFMSUQ="},"dilations":{"list":{"i":["1","1","1","1"]}}}},
          {"name":"StatefulPartitionedCall/transpose_5","op":"Transpose","input":["StatefulPartitionedCall/convolution_1","StatefulPartitionedCall/transpose_5/perm"],"attr":{"Tperm":{"type":"DT_INT32"},"T":{"type":"DT_FLOAT"}}},
          {"name":"StatefulPartitionedCall/onnx_tf_prefix_generator/G_MODEL/A/LayerNorm_1/moments/mean","op":"Mean","input":["StatefulPartitionedCall/transpose_5","StatefulPartitionedCall/onnx_tf_prefix_generator/G_MODEL/A/LayerNorm_1/moments/mean/reduction_indices"],"attr":{"keep_dims":{"b":true},"Tidx":{"type":"DT_INT32"},"T":{"type":"DT_FLOAT"}}},
          {"name":"StatefulPartitionedCall/onnx_tf_prefix_generator/G_MODEL/A/LayerNorm_1/moments/SquaredDifference","op":"SquaredDifference","input":["StatefulPartitionedCall/transpose_5","StatefulPartitionedCall/onnx_tf_prefix_generator/G_MODEL/A/LayerNorm_1/moments/mean"],"attr":{"T":{"type":"DT_FLOAT"}}},
          {"name":"StatefulPartitionedCall/onnx_tf_prefix_generator/G_MODEL/A/LayerNorm_1/moments/variance","op":"Mean","input":["StatefulPartitionedCall/onnx_tf_prefix_generator/G_MODEL/A/LayerNorm_1/moments/SquaredDifference","StatefulPartitionedCall/onnx_tf_prefix_generator/G_MODEL/A/LayerNorm_1/moments/variance/reduction_indices"],"attr":{"keep_dims":{"b":true},"T":{"type":"DT_FLOAT"},"Tidx":{"type":"DT_INT32"}}},
          {"name":"StatefulPartitionedCall/onnx_tf_prefix_generator/G_MODEL/A/LayerNorm_1/batchnorm/add","op":"AddV2","input":["StatefulPartitionedCall/onnx_tf_prefix_generator/G_MODEL/A/LayerNorm_1/moments/variance","unknown_0"],"attr":{"T":{"type":"DT_FLOAT"}}},
          {"name":"StatefulPartitionedCall/onnx_tf_prefix_generator/G_MODEL/A/LayerNorm_1/batchnorm/Rsqrt","op":"Sqrt","input":["StatefulPartitionedCall/onnx_tf_prefix_generator/G_MODEL/A/LayerNorm_1/batchnorm/add"],"attr":{"T":{"type":"DT_FLOAT"}}},
          {"name":"StatefulPartitionedCall/onnx_tf_prefix_generator/G_MODEL/A/LayerNorm_1/batchnorm/Rsqrt__29","op":"Reciprocal","input":["StatefulPartitionedCall/onnx_tf_prefix_generator/G_MODEL/A/LayerNorm_1/batchnorm/Rsqrt"],"attr":{"T":{"type":"DT_FLOAT"}}},
          {"name":"StatefulPartitionedCall/onnx_tf_prefix_generator/G_MODEL/A/LayerNorm_1/batchnorm/mul","op":"Mul","input":["StatefulPartitionedCall/onnx_tf_prefix_generator/G_MODEL/A/LayerNorm_1/batchnorm/Rsqrt__29","unknown_4"],"attr":{"T":{"type":"DT_FLOAT"}}},
          {"name":"StatefulPartitionedCall/onnx_tf_prefix_generator/G_MODEL/A/LayerNorm_1/batchnorm/mul_2","op":"Mul","input":["StatefulPartitionedCall/onnx_tf_prefix_generator/G_MODEL/A/LayerNorm_1/moments/mean","StatefulPartitionedCall/onnx_tf_prefix_generator/G_MODEL/A/LayerNorm_1/batchnorm/mul"],"attr":{"T":{"type":"DT_FLOAT"}}},
          {"name":"StatefulPartitionedCall/onnx_tf_prefix_generator/G_MODEL/A/LayerNorm_1/batchnorm/mul_1","op":"Mul","input":["StatefulPartitionedCall/transpose_5","StatefulPartitionedCall/onnx_tf_prefix_generator/G_MODEL/A/LayerNorm_1/batchnorm/mul"],"attr":{"T":{"type":"DT_FLOAT"}}},
          {"name":"StatefulPartitionedCall/onnx_tf_prefix_generator/G_MODEL/A/LayerNorm_1/batchnorm/sub","op":"Sub","input":["unknown_5","StatefulPartitionedCall/onnx_tf_prefix_generator/G_MODEL/A/LayerNorm_1/batchnorm/mul_2"],"attr":{"T":{"type":"DT_FLOAT"}}},
          {"name":"StatefulPartitionedCall/onnx_tf_prefix_generator/G_MODEL/A/LayerNorm_1/batchnorm/add_1","op":"AddV2","input":["StatefulPartitionedCall/onnx_tf_prefix_generator/G_MODEL/A/LayerNorm_1/batchnorm/mul_1","StatefulPartitionedCall/onnx_tf_prefix_generator/G_MODEL/A/LayerNorm_1/batchnorm/sub"],"attr":{"T":{"type":"DT_FLOAT"}}},
          {"name":"StatefulPartitionedCall/onnx_tf_prefix_generator/G_MODEL/A/LeakyRelu_1","op":"LeakyRelu","input":["StatefulPartitionedCall/onnx_tf_prefix_generator/G_MODEL/A/LayerNorm_1/batchnorm/add_1"],"attr":{"alpha":{"f":0.2},"T":{"type":"DT_FLOAT"}}},
          {"name":"StatefulPartitionedCall/cond_2","op":"StatelessIf","input":["StatefulPartitionedCall/All_2","StatefulPartitionedCall/Const_4","StatefulPartitionedCall/onnx_tf_prefix_generator/G_MODEL/A/LeakyRelu_1"],"attr":{"Tin":{"list":{"type":["DT_INT32","DT_FLOAT"]}},"Tout":{"list":{"type":["DT_FLOAT"]}},"output_shapes":{"list":{"shape":[{"dim":[{"size":"-1"},{"size":"-1"},{"size":"-1"},{"size":"-1"}]}]}},"_lower_using_switch_merge":{"b":false},"_read_only_resource_inputs":{"list":{}},"then_branch":{"func":{"name":"__inference_cond_2_true_389_1014"}},"else_branch":{"func":{"name":"__inference_cond_2_false_390_1088"}},"Tcond":{"type":"DT_BOOL"}}},
          {"name":"StatefulPartitionedCall/transpose_7","op":"Transpose","input":["StatefulPartitionedCall/cond_2","StatefulPartitionedCall/transpose_7/perm"],"attr":{"T":{"type":"DT_FLOAT"},"Tperm":{"type":"DT_INT32"}}},
          {"name":"StatefulPartitionedCall/convolution_2","op":"Conv2D","input":["StatefulPartitionedCall/transpose_7","StatefulPartitionedCall/split_2"],"device":"/device:CPU:0","attr":{"dilations":{"list":{"i":["1","1","1","1"]}},"strides":{"list":{"i":["1","1","1","1"]}},"explicit_paddings":{"list":{}},"data_format":{"s":"TkhXQw=="},"T":{"type":"DT_FLOAT"},"padding":{"s":"VkFMSUQ="},"use_cudnn_on_gpu":{"b":true}}},
          {"name":"StatefulPartitionedCall/transpose_8","op":"Transpose","input":["StatefulPartitionedCall/convolution_2","StatefulPartitionedCall/transpose_8/perm"],"attr":{"T":{"type":"DT_FLOAT"},"Tperm":{"type":"DT_INT32"}}},
          {"name":"StatefulPartitionedCall/onnx_tf_prefix_generator/G_MODEL/A/LayerNorm_2/moments/mean","op":"Mean","input":["StatefulPartitionedCall/transpose_8","StatefulPartitionedCall/onnx_tf_prefix_generator/G_MODEL/A/LayerNorm_2/moments/mean/reduction_indices"],"attr":{"keep_dims":{"b":true},"Tidx":{"type":"DT_INT32"},"T":{"type":"DT_FLOAT"}}},
          {"name":"StatefulPartitionedCall/onnx_tf_prefix_generator/G_MODEL/A/LayerNorm_2/moments/SquaredDifference","op":"SquaredDifference","input":["StatefulPartitionedCall/transpose_8","StatefulPartitionedCall/onnx_tf_prefix_generator/G_MODEL/A/LayerNorm_2/moments/mean"],"attr":{"T":{"type":"DT_FLOAT"}}},
          {"name":"StatefulPartitionedCall/onnx_tf_prefix_generator/G_MODEL/A/LayerNorm_2/moments/variance","op":"Mean","input":["StatefulPartitionedCall/onnx_tf_prefix_generator/G_MODEL/A/LayerNorm_2/moments/SquaredDifference","StatefulPartitionedCall/onnx_tf_prefix_generator/G_MODEL/A/LayerNorm_2/moments/variance/reduction_indices"],"attr":{"keep_dims":{"b":true},"T":{"type":"DT_FLOAT"},"Tidx":{"type":"DT_INT32"}}},
          {"name":"StatefulPartitionedCall/onnx_tf_prefix_generator/G_MODEL/A/LayerNorm_2/batchnorm/add","op":"AddV2","input":["StatefulPartitionedCall/onnx_tf_prefix_generator/G_MODEL/A/LayerNorm_2/moments/variance","unknown_0"],"attr":{"T":{"type":"DT_FLOAT"}}},
          {"name":"StatefulPartitionedCall/onnx_tf_prefix_generator/G_MODEL/A/LayerNorm_2/batchnorm/Rsqrt","op":"Sqrt","input":["StatefulPartitionedCall/onnx_tf_prefix_generator/G_MODEL/A/LayerNorm_2/batchnorm/add"],"attr":{"T":{"type":"DT_FLOAT"}}},
          {"name":"StatefulPartitionedCall/onnx_tf_prefix_generator/G_MODEL/A/LayerNorm_2/batchnorm/Rsqrt__41","op":"Reciprocal","input":["StatefulPartitionedCall/onnx_tf_prefix_generator/G_MODEL/A/LayerNorm_2/batchnorm/Rsqrt"],"attr":{"T":{"type":"DT_FLOAT"}}},
          {"name":"StatefulPartitionedCall/onnx_tf_prefix_generator/G_MODEL/A/LayerNorm_2/batchnorm/mul","op":"Mul","input":["StatefulPartitionedCall/onnx_tf_prefix_generator/G_MODEL/A/LayerNorm_2/batchnorm/Rsqrt__41","unknown_7"],"attr":{"T":{"type":"DT_FLOAT"}}},
          {"name":"StatefulPartitionedCall/onnx_tf_prefix_generator/G_MODEL/A/LayerNorm_2/batchnorm/mul_2","op":"Mul","input":["StatefulPartitionedCall/onnx_tf_prefix_generator/G_MODEL/A/LayerNorm_2/moments/mean","StatefulPartitionedCall/onnx_tf_prefix_generator/G_MODEL/A/LayerNorm_2/batchnorm/mul"],"attr":{"T":{"type":"DT_FLOAT"}}},
          {"name":"StatefulPartitionedCall/onnx_tf_prefix_generator/G_MODEL/A/LayerNorm_2/batchnorm/mul_1","op":"Mul","input":["StatefulPartitionedCall/transpose_8","StatefulPartitionedCall/onnx_tf_prefix_generator/G_MODEL/A/LayerNorm_2/batchnorm/mul"],"attr":{"T":{"type":"DT_FLOAT"}}},
          {"name":"StatefulPartitionedCall/onnx_tf_prefix_generator/G_MODEL/A/LayerNorm_2/batchnorm/sub","op":"Sub","input":["unknown_8","StatefulPartitionedCall/onnx_tf_prefix_generator/G_MODEL/A/LayerNorm_2/batchnorm/mul_2"],"attr":{"T":{"type":"DT_FLOAT"}}},
          {"name":"StatefulPartitionedCall/onnx_tf_prefix_generator/G_MODEL/A/LayerNorm_2/batchnorm/add_1","op":"AddV2","input":["StatefulPartitionedCall/onnx_tf_prefix_generator/G_MODEL/A/LayerNorm_2/batchnorm/mul_1","StatefulPartitionedCall/onnx_tf_prefix_generator/G_MODEL/A/LayerNorm_2/batchnorm/sub"],"attr":{"T":{"type":"DT_FLOAT"}}},
          {"name":"StatefulPartitionedCall/onnx_tf_prefix_generator/G_MODEL/A/LeakyRelu_2","op":"LeakyRelu","input":["StatefulPartitionedCall/onnx_tf_prefix_generator/G_MODEL/A/LayerNorm_2/batchnorm/add_1"],"attr":{"alpha":{"f":0.2},"T":{"type":"DT_FLOAT"}}},
          {"name":"StatefulPartitionedCall/cond_3","op":"StatelessIf","input":["StatefulPartitionedCall/All_3","StatefulPartitionedCall/Const_6","StatefulPartitionedCall/onnx_tf_prefix_generator/G_MODEL/A/LeakyRelu_2"],"attr":{"Tout":{"list":{"type":["DT_FLOAT"]}},"Tcond":{"type":"DT_BOOL"},"_lower_using_switch_merge":{"b":false},"_read_only_resource_inputs":{"list":{}},"then_branch":{"func":{"name":"__inference_cond_3_true_460_918"}},"Tin":{"list":{"type":["DT_INT32","DT_FLOAT"]}},"output_shapes":{"list":{"shape":[{"dim":[{"size":"-1"},{"size":"-1"},{"size":"-1"},{"size":"-1"}]}]}},"else_branch":{"func":{"name":"__inference_cond_3_false_461_348"}}}},
          {"name":"StatefulPartitionedCall/transpose_10","op":"Transpose","input":["StatefulPartitionedCall/cond_3","StatefulPartitionedCall/transpose_10/perm"],"attr":{"T":{"type":"DT_FLOAT"},"Tperm":{"type":"DT_INT32"}}},
          {"name":"StatefulPartitionedCall/convolution_3","op":"Conv2D","input":["StatefulPartitionedCall/transpose_10","StatefulPartitionedCall/split_3"],"device":"/device:CPU:0","attr":{"data_format":{"s":"TkhXQw=="},"padding":{"s":"VkFMSUQ="},"use_cudnn_on_gpu":{"b":true},"T":{"type":"DT_FLOAT"},"strides":{"list":{"i":["1","2","2","1"]}},"explicit_paddings":{"list":{}},"dilations":{"list":{"i":["1","1","1","1"]}}}},
          {"name":"StatefulPartitionedCall/transpose_11","op":"Transpose","input":["StatefulPartitionedCall/convolution_3","StatefulPartitionedCall/transpose_11/perm"],"attr":{"Tperm":{"type":"DT_INT32"},"T":{"type":"DT_FLOAT"}}},
          {"name":"StatefulPartitionedCall/onnx_tf_prefix_generator/G_MODEL/B/LayerNorm/moments/mean","op":"Mean","input":["StatefulPartitionedCall/transpose_11","StatefulPartitionedCall/onnx_tf_prefix_generator/G_MODEL/B/LayerNorm/moments/mean/reduction_indices"],"attr":{"T":{"type":"DT_FLOAT"},"Tidx":{"type":"DT_INT32"},"keep_dims":{"b":true}}},
          {"name":"StatefulPartitionedCall/onnx_tf_prefix_generator/G_MODEL/B/LayerNorm/moments/SquaredDifference","op":"SquaredDifference","input":["StatefulPartitionedCall/transpose_11","StatefulPartitionedCall/onnx_tf_prefix_generator/G_MODEL/B/LayerNorm/moments/mean"],"attr":{"T":{"type":"DT_FLOAT"}}},
          {"name":"StatefulPartitionedCall/onnx_tf_prefix_generator/G_MODEL/B/LayerNorm/moments/variance","op":"Mean","input":["StatefulPartitionedCall/onnx_tf_prefix_generator/G_MODEL/B/LayerNorm/moments/SquaredDifference","StatefulPartitionedCall/onnx_tf_prefix_generator/G_MODEL/B/LayerNorm/moments/variance/reduction_indices"],"attr":{"keep_dims":{"b":true},"T":{"type":"DT_FLOAT"},"Tidx":{"type":"DT_INT32"}}},
          {"name":"StatefulPartitionedCall/onnx_tf_prefix_generator/G_MODEL/B/LayerNorm/batchnorm/add","op":"AddV2","input":["StatefulPartitionedCall/onnx_tf_prefix_generator/G_MODEL/B/LayerNorm/moments/variance","unknown_0"],"attr":{"T":{"type":"DT_FLOAT"}}},
          {"name":"StatefulPartitionedCall/onnx_tf_prefix_generator/G_MODEL/B/LayerNorm/batchnorm/Rsqrt","op":"Sqrt","input":["StatefulPartitionedCall/onnx_tf_prefix_generator/G_MODEL/B/LayerNorm/batchnorm/add"],"attr":{"T":{"type":"DT_FLOAT"}}},
          {"name":"StatefulPartitionedCall/onnx_tf_prefix_generator/G_MODEL/B/LayerNorm/batchnorm/Rsqrt__53","op":"Reciprocal","input":["StatefulPartitionedCall/onnx_tf_prefix_generator/G_MODEL/B/LayerNorm/batchnorm/Rsqrt"],"attr":{"T":{"type":"DT_FLOAT"}}},
          {"name":"StatefulPartitionedCall/onnx_tf_prefix_generator/G_MODEL/B/LayerNorm/batchnorm/mul","op":"Mul","input":["StatefulPartitionedCall/onnx_tf_prefix_generator/G_MODEL/B/LayerNorm/batchnorm/Rsqrt__53","unknown_10"],"attr":{"T":{"type":"DT_FLOAT"}}},
          {"name":"StatefulPartitionedCall/onnx_tf_prefix_generator/G_MODEL/B/LayerNorm/batchnorm/mul_2","op":"Mul","input":["StatefulPartitionedCall/onnx_tf_prefix_generator/G_MODEL/B/LayerNorm/moments/mean","StatefulPartitionedCall/onnx_tf_prefix_generator/G_MODEL/B/LayerNorm/batchnorm/mul"],"attr":{"T":{"type":"DT_FLOAT"}}},
          {"name":"StatefulPartitionedCall/onnx_tf_prefix_generator/G_MODEL/B/LayerNorm/batchnorm/mul_1","op":"Mul","input":["StatefulPartitionedCall/transpose_11","StatefulPartitionedCall/onnx_tf_prefix_generator/G_MODEL/B/LayerNorm/batchnorm/mul"],"attr":{"T":{"type":"DT_FLOAT"}}},
          {"name":"StatefulPartitionedCall/onnx_tf_prefix_generator/G_MODEL/B/LayerNorm/batchnorm/sub","op":"Sub","input":["unknown_11","StatefulPartitionedCall/onnx_tf_prefix_generator/G_MODEL/B/LayerNorm/batchnorm/mul_2"],"attr":{"T":{"type":"DT_FLOAT"}}},
          {"name":"StatefulPartitionedCall/onnx_tf_prefix_generator/G_MODEL/B/LayerNorm/batchnorm/add_1","op":"AddV2","input":["StatefulPartitionedCall/onnx_tf_prefix_generator/G_MODEL/B/LayerNorm/batchnorm/mul_1","StatefulPartitionedCall/onnx_tf_prefix_generator/G_MODEL/B/LayerNorm/batchnorm/sub"],"attr":{"T":{"type":"DT_FLOAT"}}},
          {"name":"StatefulPartitionedCall/onnx_tf_prefix_generator/G_MODEL/B/LeakyRelu","op":"LeakyRelu","input":["StatefulPartitionedCall/onnx_tf_prefix_generator/G_MODEL/B/LayerNorm/batchnorm/add_1"],"attr":{"T":{"type":"DT_FLOAT"},"alpha":{"f":0.2}}},
          {"name":"StatefulPartitionedCall/cond_4","op":"StatelessIf","input":["StatefulPartitionedCall/All_4","StatefulPartitionedCall/Const_8","StatefulPartitionedCall/onnx_tf_prefix_generator/G_MODEL/B/LeakyRelu"],"attr":{"_lower_using_switch_merge":{"b":false},"else_branch":{"func":{"name":"__inference_cond_4_false_532_854"}},"_read_only_resource_inputs":{"list":{}},"Tout":{"list":{"type":["DT_FLOAT"]}},"output_shapes":{"list":{"shape":[{"dim":[{"size":"-1"},{"size":"-1"},{"size":"-1"},{"size":"-1"}]}]}},"Tin":{"list":{"type":["DT_INT32","DT_FLOAT"]}},"Tcond":{"type":"DT_BOOL"},"then_branch":{"func":{"name":"__inference_cond_4_true_531_744"}}}},
          {"name":"StatefulPartitionedCall/transpose_13","op":"Transpose","input":["StatefulPartitionedCall/cond_4","StatefulPartitionedCall/transpose_13/perm"],"attr":{"T":{"type":"DT_FLOAT"},"Tperm":{"type":"DT_INT32"}}},
          {"name":"StatefulPartitionedCall/convolution_4","op":"Conv2D","input":["StatefulPartitionedCall/transpose_13","StatefulPartitionedCall/split_4"],"device":"/device:CPU:0","attr":{"use_cudnn_on_gpu":{"b":true},"dilations":{"list":{"i":["1","1","1","1"]}},"strides":{"list":{"i":["1","1","1","1"]}},"T":{"type":"DT_FLOAT"},"explicit_paddings":{"list":{}},"padding":{"s":"VkFMSUQ="},"data_format":{"s":"TkhXQw=="}}},
          {"name":"StatefulPartitionedCall/transpose_14","op":"Transpose","input":["StatefulPartitionedCall/convolution_4","StatefulPartitionedCall/transpose_14/perm"],"attr":{"Tperm":{"type":"DT_INT32"},"T":{"type":"DT_FLOAT"}}},
          {"name":"StatefulPartitionedCall/onnx_tf_prefix_generator/G_MODEL/B/LayerNorm_1/moments/mean","op":"Mean","input":["StatefulPartitionedCall/transpose_14","StatefulPartitionedCall/onnx_tf_prefix_generator/G_MODEL/B/LayerNorm_1/moments/mean/reduction_indices"],"attr":{"Tidx":{"type":"DT_INT32"},"T":{"type":"DT_FLOAT"},"keep_dims":{"b":true}}},
          {"name":"StatefulPartitionedCall/onnx_tf_prefix_generator/G_MODEL/B/LayerNorm_1/moments/SquaredDifference","op":"SquaredDifference","input":["StatefulPartitionedCall/transpose_14","StatefulPartitionedCall/onnx_tf_prefix_generator/G_MODEL/B/LayerNorm_1/moments/mean"],"attr":{"T":{"type":"DT_FLOAT"}}},
          {"name":"StatefulPartitionedCall/onnx_tf_prefix_generator/G_MODEL/B/LayerNorm_1/moments/variance","op":"Mean","input":["StatefulPartitionedCall/onnx_tf_prefix_generator/G_MODEL/B/LayerNorm_1/moments/SquaredDifference","StatefulPartitionedCall/onnx_tf_prefix_generator/G_MODEL/B/LayerNorm_1/moments/variance/reduction_indices"],"attr":{"keep_dims":{"b":true},"T":{"type":"DT_FLOAT"},"Tidx":{"type":"DT_INT32"}}},
          {"name":"StatefulPartitionedCall/onnx_tf_prefix_generator/G_MODEL/B/LayerNorm_1/batchnorm/add","op":"AddV2","input":["StatefulPartitionedCall/onnx_tf_prefix_generator/G_MODEL/B/LayerNorm_1/moments/variance","unknown_0"],"attr":{"T":{"type":"DT_FLOAT"}}},
          {"name":"StatefulPartitionedCall/onnx_tf_prefix_generator/G_MODEL/B/LayerNorm_1/batchnorm/Rsqrt","op":"Sqrt","input":["StatefulPartitionedCall/onnx_tf_prefix_generator/G_MODEL/B/LayerNorm_1/batchnorm/add"],"attr":{"T":{"type":"DT_FLOAT"}}},
          {"name":"StatefulPartitionedCall/onnx_tf_prefix_generator/G_MODEL/B/LayerNorm_1/batchnorm/Rsqrt__65","op":"Reciprocal","input":["StatefulPartitionedCall/onnx_tf_prefix_generator/G_MODEL/B/LayerNorm_1/batchnorm/Rsqrt"],"attr":{"T":{"type":"DT_FLOAT"}}},
          {"name":"StatefulPartitionedCall/onnx_tf_prefix_generator/G_MODEL/B/LayerNorm_1/batchnorm/mul","op":"Mul","input":["StatefulPartitionedCall/onnx_tf_prefix_generator/G_MODEL/B/LayerNorm_1/batchnorm/Rsqrt__65","unknown_13"],"attr":{"T":{"type":"DT_FLOAT"}}},
          {"name":"StatefulPartitionedCall/onnx_tf_prefix_generator/G_MODEL/B/LayerNorm_1/batchnorm/mul_2","op":"Mul","input":["StatefulPartitionedCall/onnx_tf_prefix_generator/G_MODEL/B/LayerNorm_1/moments/mean","StatefulPartitionedCall/onnx_tf_prefix_generator/G_MODEL/B/LayerNorm_1/batchnorm/mul"],"attr":{"T":{"type":"DT_FLOAT"}}},
          {"name":"StatefulPartitionedCall/onnx_tf_prefix_generator/G_MODEL/B/LayerNorm_1/batchnorm/mul_1","op":"Mul","input":["StatefulPartitionedCall/transpose_14","StatefulPartitionedCall/onnx_tf_prefix_generator/G_MODEL/B/LayerNorm_1/batchnorm/mul"],"attr":{"T":{"type":"DT_FLOAT"}}},
          {"name":"StatefulPartitionedCall/onnx_tf_prefix_generator/G_MODEL/B/LayerNorm_1/batchnorm/sub","op":"Sub","input":["unknown_14","StatefulPartitionedCall/onnx_tf_prefix_generator/G_MODEL/B/LayerNorm_1/batchnorm/mul_2"],"attr":{"T":{"type":"DT_FLOAT"}}},
          {"name":"StatefulPartitionedCall/onnx_tf_prefix_generator/G_MODEL/B/LayerNorm_1/batchnorm/add_1","op":"AddV2","input":["StatefulPartitionedCall/onnx_tf_prefix_generator/G_MODEL/B/LayerNorm_1/batchnorm/mul_1","StatefulPartitionedCall/onnx_tf_prefix_generator/G_MODEL/B/LayerNorm_1/batchnorm/sub"],"attr":{"T":{"type":"DT_FLOAT"}}},
          {"name":"StatefulPartitionedCall/onnx_tf_prefix_generator/G_MODEL/B/LeakyRelu_1","op":"LeakyRelu","input":["StatefulPartitionedCall/onnx_tf_prefix_generator/G_MODEL/B/LayerNorm_1/batchnorm/add_1"],"attr":{"T":{"type":"DT_FLOAT"},"alpha":{"f":0.2}}},
          {"name":"StatefulPartitionedCall/cond_5","op":"StatelessIf","input":["StatefulPartitionedCall/All_5","StatefulPartitionedCall/Const_10","StatefulPartitionedCall/onnx_tf_prefix_generator/G_MODEL/B/LeakyRelu_1"],"attr":{"else_branch":{"func":{"name":"__inference_cond_5_false_603_55"}},"_lower_using_switch_merge":{"b":false},"Tout":{"list":{"type":["DT_FLOAT"]}},"_read_only_resource_inputs":{"list":{}},"Tcond":{"type":"DT_BOOL"},"output_shapes":{"list":{"shape":[{"dim":[{"size":"-1"},{"size":"-1"},{"size":"-1"},{"size":"-1"}]}]}},"then_branch":{"func":{"name":"__inference_cond_5_true_602_950"}},"Tin":{"list":{"type":["DT_INT32","DT_FLOAT"]}}}},
          {"name":"StatefulPartitionedCall/transpose_16","op":"Transpose","input":["StatefulPartitionedCall/cond_5","StatefulPartitionedCall/transpose_16/perm"],"attr":{"T":{"type":"DT_FLOAT"},"Tperm":{"type":"DT_INT32"}}},
          {"name":"StatefulPartitionedCall/convolution_5","op":"Conv2D","input":["StatefulPartitionedCall/transpose_16","StatefulPartitionedCall/split_5"],"device":"/device:CPU:0","attr":{"padding":{"s":"VkFMSUQ="},"use_cudnn_on_gpu":{"b":true},"data_format":{"s":"TkhXQw=="},"strides":{"list":{"i":["1","1","1","1"]}},"explicit_paddings":{"list":{}},"dilations":{"list":{"i":["1","1","1","1"]}},"T":{"type":"DT_FLOAT"}}},
          {"name":"StatefulPartitionedCall/transpose_17","op":"Transpose","input":["StatefulPartitionedCall/convolution_5","StatefulPartitionedCall/transpose_17/perm"],"attr":{"Tperm":{"type":"DT_INT32"},"T":{"type":"DT_FLOAT"}}},
          {"name":"StatefulPartitionedCall/onnx_tf_prefix_generator/G_MODEL/C/LayerNorm/moments/mean","op":"Mean","input":["StatefulPartitionedCall/transpose_17","StatefulPartitionedCall/onnx_tf_prefix_generator/G_MODEL/C/LayerNorm/moments/mean/reduction_indices"],"attr":{"Tidx":{"type":"DT_INT32"},"keep_dims":{"b":true},"T":{"type":"DT_FLOAT"}}},
          {"name":"StatefulPartitionedCall/onnx_tf_prefix_generator/G_MODEL/C/LayerNorm/moments/SquaredDifference","op":"SquaredDifference","input":["StatefulPartitionedCall/transpose_17","StatefulPartitionedCall/onnx_tf_prefix_generator/G_MODEL/C/LayerNorm/moments/mean"],"attr":{"T":{"type":"DT_FLOAT"}}},
          {"name":"StatefulPartitionedCall/onnx_tf_prefix_generator/G_MODEL/C/LayerNorm/moments/variance","op":"Mean","input":["StatefulPartitionedCall/onnx_tf_prefix_generator/G_MODEL/C/LayerNorm/moments/SquaredDifference","StatefulPartitionedCall/onnx_tf_prefix_generator/G_MODEL/C/LayerNorm/moments/variance/reduction_indices"],"attr":{"Tidx":{"type":"DT_INT32"},"keep_dims":{"b":true},"T":{"type":"DT_FLOAT"}}},
          {"name":"StatefulPartitionedCall/onnx_tf_prefix_generator/G_MODEL/C/LayerNorm/batchnorm/add","op":"AddV2","input":["StatefulPartitionedCall/onnx_tf_prefix_generator/G_MODEL/C/LayerNorm/moments/variance","unknown_0"],"attr":{"T":{"type":"DT_FLOAT"}}},
          {"name":"StatefulPartitionedCall/onnx_tf_prefix_generator/G_MODEL/C/LayerNorm/batchnorm/Rsqrt","op":"Sqrt","input":["StatefulPartitionedCall/onnx_tf_prefix_generator/G_MODEL/C/LayerNorm/batchnorm/add"],"attr":{"T":{"type":"DT_FLOAT"}}},
          {"name":"StatefulPartitionedCall/onnx_tf_prefix_generator/G_MODEL/C/LayerNorm/batchnorm/Rsqrt__77","op":"Reciprocal","input":["StatefulPartitionedCall/onnx_tf_prefix_generator/G_MODEL/C/LayerNorm/batchnorm/Rsqrt"],"attr":{"T":{"type":"DT_FLOAT"}}},
          {"name":"StatefulPartitionedCall/onnx_tf_prefix_generator/G_MODEL/C/LayerNorm/batchnorm/mul","op":"Mul","input":["StatefulPartitionedCall/onnx_tf_prefix_generator/G_MODEL/C/LayerNorm/batchnorm/Rsqrt__77","unknown_16"],"attr":{"T":{"type":"DT_FLOAT"}}},
          {"name":"StatefulPartitionedCall/onnx_tf_prefix_generator/G_MODEL/C/LayerNorm/batchnorm/mul_2","op":"Mul","input":["StatefulPartitionedCall/onnx_tf_prefix_generator/G_MODEL/C/LayerNorm/moments/mean","StatefulPartitionedCall/onnx_tf_prefix_generator/G_MODEL/C/LayerNorm/batchnorm/mul"],"attr":{"T":{"type":"DT_FLOAT"}}},
          {"name":"StatefulPartitionedCall/onnx_tf_prefix_generator/G_MODEL/C/LayerNorm/batchnorm/mul_1","op":"Mul","input":["StatefulPartitionedCall/transpose_17","StatefulPartitionedCall/onnx_tf_prefix_generator/G_MODEL/C/LayerNorm/batchnorm/mul"],"attr":{"T":{"type":"DT_FLOAT"}}},
          {"name":"StatefulPartitionedCall/onnx_tf_prefix_generator/G_MODEL/C/LayerNorm/batchnorm/sub","op":"Sub","input":["unknown_17","StatefulPartitionedCall/onnx_tf_prefix_generator/G_MODEL/C/LayerNorm/batchnorm/mul_2"],"attr":{"T":{"type":"DT_FLOAT"}}},
          {"name":"StatefulPartitionedCall/onnx_tf_prefix_generator/G_MODEL/C/LayerNorm/batchnorm/add_1","op":"AddV2","input":["StatefulPartitionedCall/onnx_tf_prefix_generator/G_MODEL/C/LayerNorm/batchnorm/mul_1","StatefulPartitionedCall/onnx_tf_prefix_generator/G_MODEL/C/LayerNorm/batchnorm/sub"],"attr":{"T":{"type":"DT_FLOAT"}}},
          {"name":"StatefulPartitionedCall/onnx_tf_prefix_generator/G_MODEL/C/LeakyRelu","op":"LeakyRelu","input":["StatefulPartitionedCall/onnx_tf_prefix_generator/G_MODEL/C/LayerNorm/batchnorm/add_1"],"attr":{"T":{"type":"DT_FLOAT"},"alpha":{"f":0.2}}},
          {"name":"StatefulPartitionedCall/transpose_19","op":"Transpose","input":["StatefulPartitionedCall/onnx_tf_prefix_generator/G_MODEL/C/LeakyRelu","StatefulPartitionedCall/transpose_19/perm"],"attr":{"Tperm":{"type":"DT_INT32"},"T":{"type":"DT_FLOAT"}}},
          {"name":"StatefulPartitionedCall/convolution_6","op":"Conv2D","input":["StatefulPartitionedCall/transpose_19","StatefulPartitionedCall/split_6"],"device":"/device:CPU:0","attr":{"dilations":{"list":{"i":["1","1","1","1"]}},"padding":{"s":"VkFMSUQ="},"use_cudnn_on_gpu":{"b":true},"explicit_paddings":{"list":{}},"T":{"type":"DT_FLOAT"},"data_format":{"s":"TkhXQw=="},"strides":{"list":{"i":["1","1","1","1"]}}}},
          {"name":"StatefulPartitionedCall/transpose_20","op":"Transpose","input":["StatefulPartitionedCall/convolution_6","StatefulPartitionedCall/transpose_20/perm"],"attr":{"T":{"type":"DT_FLOAT"},"Tperm":{"type":"DT_INT32"}}},
          {"name":"StatefulPartitionedCall/onnx_tf_prefix_generator/G_MODEL/C/r1/LayerNorm/moments/mean","op":"Mean","input":["StatefulPartitionedCall/transpose_20","StatefulPartitionedCall/onnx_tf_prefix_generator/G_MODEL/C/r1/LayerNorm/moments/mean/reduction_indices"],"attr":{"keep_dims":{"b":true},"T":{"type":"DT_FLOAT"},"Tidx":{"type":"DT_INT32"}}},
          {"name":"StatefulPartitionedCall/onnx_tf_prefix_generator/G_MODEL/C/r1/LayerNorm/moments/SquaredDifference","op":"SquaredDifference","input":["StatefulPartitionedCall/transpose_20","StatefulPartitionedCall/onnx_tf_prefix_generator/G_MODEL/C/r1/LayerNorm/moments/mean"],"attr":{"T":{"type":"DT_FLOAT"}}},
          {"name":"StatefulPartitionedCall/onnx_tf_prefix_generator/G_MODEL/C/r1/LayerNorm/moments/variance","op":"Mean","input":["StatefulPartitionedCall/onnx_tf_prefix_generator/G_MODEL/C/r1/LayerNorm/moments/SquaredDifference","StatefulPartitionedCall/onnx_tf_prefix_generator/G_MODEL/C/r1/LayerNorm/moments/variance/reduction_indices"],"attr":{"keep_dims":{"b":true},"Tidx":{"type":"DT_INT32"},"T":{"type":"DT_FLOAT"}}},
          {"name":"StatefulPartitionedCall/onnx_tf_prefix_generator/G_MODEL/C/r1/LayerNorm/batchnorm/add","op":"AddV2","input":["StatefulPartitionedCall/onnx_tf_prefix_generator/G_MODEL/C/r1/LayerNorm/moments/variance","unknown_0"],"attr":{"T":{"type":"DT_FLOAT"}}},
          {"name":"StatefulPartitionedCall/onnx_tf_prefix_generator/G_MODEL/C/r1/LayerNorm/batchnorm/Rsqrt","op":"Sqrt","input":["StatefulPartitionedCall/onnx_tf_prefix_generator/G_MODEL/C/r1/LayerNorm/batchnorm/add"],"attr":{"T":{"type":"DT_FLOAT"}}},
          {"name":"StatefulPartitionedCall/onnx_tf_prefix_generator/G_MODEL/C/r1/LayerNorm/batchnorm/Rsqrt__89","op":"Reciprocal","input":["StatefulPartitionedCall/onnx_tf_prefix_generator/G_MODEL/C/r1/LayerNorm/batchnorm/Rsqrt"],"attr":{"T":{"type":"DT_FLOAT"}}},
          {"name":"StatefulPartitionedCall/onnx_tf_prefix_generator/G_MODEL/C/r1/LayerNorm/batchnorm/mul","op":"Mul","input":["StatefulPartitionedCall/onnx_tf_prefix_generator/G_MODEL/C/r1/LayerNorm/batchnorm/Rsqrt__89","unknown_19"],"attr":{"T":{"type":"DT_FLOAT"}}},
          {"name":"StatefulPartitionedCall/onnx_tf_prefix_generator/G_MODEL/C/r1/LayerNorm/batchnorm/mul_2","op":"Mul","input":["StatefulPartitionedCall/onnx_tf_prefix_generator/G_MODEL/C/r1/LayerNorm/moments/mean","StatefulPartitionedCall/onnx_tf_prefix_generator/G_MODEL/C/r1/LayerNorm/batchnorm/mul"],"attr":{"T":{"type":"DT_FLOAT"}}},
          {"name":"StatefulPartitionedCall/onnx_tf_prefix_generator/G_MODEL/C/r1/LayerNorm/batchnorm/mul_1","op":"Mul","input":["StatefulPartitionedCall/transpose_20","StatefulPartitionedCall/onnx_tf_prefix_generator/G_MODEL/C/r1/LayerNorm/batchnorm/mul"],"attr":{"T":{"type":"DT_FLOAT"}}},
          {"name":"StatefulPartitionedCall/onnx_tf_prefix_generator/G_MODEL/C/r1/LayerNorm/batchnorm/sub","op":"Sub","input":["unknown_20","StatefulPartitionedCall/onnx_tf_prefix_generator/G_MODEL/C/r1/LayerNorm/batchnorm/mul_2"],"attr":{"T":{"type":"DT_FLOAT"}}},
          {"name":"StatefulPartitionedCall/onnx_tf_prefix_generator/G_MODEL/C/r1/LayerNorm/batchnorm/add_1","op":"AddV2","input":["StatefulPartitionedCall/onnx_tf_prefix_generator/G_MODEL/C/r1/LayerNorm/batchnorm/mul_1","StatefulPartitionedCall/onnx_tf_prefix_generator/G_MODEL/C/r1/LayerNorm/batchnorm/sub"],"attr":{"T":{"type":"DT_FLOAT"}}},
          {"name":"StatefulPartitionedCall/onnx_tf_prefix_generator/G_MODEL/C/r1/LeakyRelu","op":"LeakyRelu","input":["StatefulPartitionedCall/onnx_tf_prefix_generator/G_MODEL/C/r1/LayerNorm/batchnorm/add_1"],"attr":{"T":{"type":"DT_FLOAT"},"alpha":{"f":0.2}}},
          {"name":"StatefulPartitionedCall/cond_6","op":"StatelessIf","input":["StatefulPartitionedCall/All_6","StatefulPartitionedCall/Const_12","StatefulPartitionedCall/onnx_tf_prefix_generator/G_MODEL/C/r1/LeakyRelu"],"attr":{"_lower_using_switch_merge":{"b":false},"else_branch":{"func":{"name":"__inference_cond_6_false_704_23"}},"Tcond":{"type":"DT_BOOL"},"then_branch":{"func":{"name":"__inference_cond_6_true_703_390"}},"_read_only_resource_inputs":{"list":{}},"output_shapes":{"list":{"shape":[{"dim":[{"size":"-1"},{"size":"-1"},{"size":"-1"},{"size":"-1"}]}]}},"Tout":{"list":{"type":["DT_FLOAT"]}},"Tin":{"list":{"type":["DT_INT32","DT_FLOAT"]}}}},
          {"name":"StatefulPartitionedCall/transpose_22","op":"Transpose","input":["StatefulPartitionedCall/cond_6","StatefulPartitionedCall/transpose_22/perm"],"attr":{"T":{"type":"DT_FLOAT"},"Tperm":{"type":"DT_INT32"}}},
          {"name":"StatefulPartitionedCall/depthwise","op":"DepthwiseConv2dNative","input":["StatefulPartitionedCall/transpose_22","StatefulPartitionedCall/Reshape"],"attr":{"strides":{"list":{"i":["1","1","1","1"]}},"T":{"type":"DT_FLOAT"},"data_format":{"s":"TkhXQw=="},"explicit_paddings":{"list":{}},"padding":{"s":"VkFMSUQ="},"dilations":{"list":{"i":["1","1","1","1"]}}}},
          {"name":"StatefulPartitionedCall/Add","op":"AddV2","input":["StatefulPartitionedCall/depthwise","unknown_22"],"attr":{"T":{"type":"DT_FLOAT"}}},
          {"name":"StatefulPartitionedCall/transpose_23","op":"Transpose","input":["StatefulPartitionedCall/Add","StatefulPartitionedCall/transpose_23/perm"],"attr":{"T":{"type":"DT_FLOAT"},"Tperm":{"type":"DT_INT32"}}},
          {"name":"StatefulPartitionedCall/onnx_tf_prefix_generator/G_MODEL/C/r1/1/moments/mean","op":"Mean","input":["StatefulPartitionedCall/transpose_23","StatefulPartitionedCall/onnx_tf_prefix_generator/G_MODEL/C/r1/1/moments/mean/reduction_indices"],"attr":{"Tidx":{"type":"DT_INT32"},"keep_dims":{"b":true},"T":{"type":"DT_FLOAT"}}},
          {"name":"StatefulPartitionedCall/onnx_tf_prefix_generator/G_MODEL/C/r1/1/moments/SquaredDifference","op":"SquaredDifference","input":["StatefulPartitionedCall/transpose_23","StatefulPartitionedCall/onnx_tf_prefix_generator/G_MODEL/C/r1/1/moments/mean"],"attr":{"T":{"type":"DT_FLOAT"}}},
          {"name":"StatefulPartitionedCall/onnx_tf_prefix_generator/G_MODEL/C/r1/1/moments/variance","op":"Mean","input":["StatefulPartitionedCall/onnx_tf_prefix_generator/G_MODEL/C/r1/1/moments/SquaredDifference","StatefulPartitionedCall/onnx_tf_prefix_generator/G_MODEL/C/r1/1/moments/variance/reduction_indices"],"attr":{"T":{"type":"DT_FLOAT"},"keep_dims":{"b":true},"Tidx":{"type":"DT_INT32"}}},
          {"name":"StatefulPartitionedCall/onnx_tf_prefix_generator/G_MODEL/C/r1/1/batchnorm/add","op":"AddV2","input":["StatefulPartitionedCall/onnx_tf_prefix_generator/G_MODEL/C/r1/1/moments/variance","unknown_0"],"attr":{"T":{"type":"DT_FLOAT"}}},
          {"name":"StatefulPartitionedCall/onnx_tf_prefix_generator/G_MODEL/C/r1/1/batchnorm/Rsqrt","op":"Sqrt","input":["StatefulPartitionedCall/onnx_tf_prefix_generator/G_MODEL/C/r1/1/batchnorm/add"],"attr":{"T":{"type":"DT_FLOAT"}}},
          {"name":"StatefulPartitionedCall/onnx_tf_prefix_generator/G_MODEL/C/r1/1/batchnorm/Rsqrt__104","op":"Reciprocal","input":["StatefulPartitionedCall/onnx_tf_prefix_generator/G_MODEL/C/r1/1/batchnorm/Rsqrt"],"attr":{"T":{"type":"DT_FLOAT"}}},
          {"name":"StatefulPartitionedCall/onnx_tf_prefix_generator/G_MODEL/C/r1/1/batchnorm/mul","op":"Mul","input":["StatefulPartitionedCall/onnx_tf_prefix_generator/G_MODEL/C/r1/1/batchnorm/Rsqrt__104","unknown_23"],"attr":{"T":{"type":"DT_FLOAT"}}},
          {"name":"StatefulPartitionedCall/onnx_tf_prefix_generator/G_MODEL/C/r1/1/batchnorm/mul_2","op":"Mul","input":["StatefulPartitionedCall/onnx_tf_prefix_generator/G_MODEL/C/r1/1/moments/mean","StatefulPartitionedCall/onnx_tf_prefix_generator/G_MODEL/C/r1/1/batchnorm/mul"],"attr":{"T":{"type":"DT_FLOAT"}}},
          {"name":"StatefulPartitionedCall/onnx_tf_prefix_generator/G_MODEL/C/r1/1/batchnorm/mul_1","op":"Mul","input":["StatefulPartitionedCall/transpose_23","StatefulPartitionedCall/onnx_tf_prefix_generator/G_MODEL/C/r1/1/batchnorm/mul"],"attr":{"T":{"type":"DT_FLOAT"}}},
          {"name":"StatefulPartitionedCall/onnx_tf_prefix_generator/G_MODEL/C/r1/1/batchnorm/sub","op":"Sub","input":["unknown_24","StatefulPartitionedCall/onnx_tf_prefix_generator/G_MODEL/C/r1/1/batchnorm/mul_2"],"attr":{"T":{"type":"DT_FLOAT"}}},
          {"name":"StatefulPartitionedCall/onnx_tf_prefix_generator/G_MODEL/C/r1/1/batchnorm/add_1","op":"AddV2","input":["StatefulPartitionedCall/onnx_tf_prefix_generator/G_MODEL/C/r1/1/batchnorm/mul_1","StatefulPartitionedCall/onnx_tf_prefix_generator/G_MODEL/C/r1/1/batchnorm/sub"],"attr":{"T":{"type":"DT_FLOAT"}}},
          {"name":"StatefulPartitionedCall/onnx_tf_prefix_generator/G_MODEL/C/r1/LeakyRelu_1","op":"LeakyRelu","input":["StatefulPartitionedCall/onnx_tf_prefix_generator/G_MODEL/C/r1/1/batchnorm/add_1"],"attr":{"alpha":{"f":0.2},"T":{"type":"DT_FLOAT"}}},
          {"name":"StatefulPartitionedCall/transpose_25","op":"Transpose","input":["StatefulPartitionedCall/onnx_tf_prefix_generator/G_MODEL/C/r1/LeakyRelu_1","StatefulPartitionedCall/transpose_25/perm"],"attr":{"Tperm":{"type":"DT_INT32"},"T":{"type":"DT_FLOAT"}}},
          {"name":"StatefulPartitionedCall/convolution_7","op":"Conv2D","input":["StatefulPartitionedCall/transpose_25","StatefulPartitionedCall/split_7"],"device":"/device:CPU:0","attr":{"data_format":{"s":"TkhXQw=="},"strides":{"list":{"i":["1","1","1","1"]}},"explicit_paddings":{"list":{}},"padding":{"s":"VkFMSUQ="},"use_cudnn_on_gpu":{"b":true},"T":{"type":"DT_FLOAT"},"dilations":{"list":{"i":["1","1","1","1"]}}}},
          {"name":"StatefulPartitionedCall/transpose_26","op":"Transpose","input":["StatefulPartitionedCall/convolution_7","StatefulPartitionedCall/transpose_26/perm"],"attr":{"Tperm":{"type":"DT_INT32"},"T":{"type":"DT_FLOAT"}}},
          {"name":"StatefulPartitionedCall/onnx_tf_prefix_generator/G_MODEL/C/r1/2/moments/mean","op":"Mean","input":["StatefulPartitionedCall/transpose_26","StatefulPartitionedCall/onnx_tf_prefix_generator/G_MODEL/C/r1/2/moments/mean/reduction_indices"],"attr":{"T":{"type":"DT_FLOAT"},"keep_dims":{"b":true},"Tidx":{"type":"DT_INT32"}}},
          {"name":"StatefulPartitionedCall/onnx_tf_prefix_generator/G_MODEL/C/r1/2/moments/SquaredDifference","op":"SquaredDifference","input":["StatefulPartitionedCall/transpose_26","StatefulPartitionedCall/onnx_tf_prefix_generator/G_MODEL/C/r1/2/moments/mean"],"attr":{"T":{"type":"DT_FLOAT"}}},
          {"name":"StatefulPartitionedCall/onnx_tf_prefix_generator/G_MODEL/C/r1/2/moments/variance","op":"Mean","input":["StatefulPartitionedCall/onnx_tf_prefix_generator/G_MODEL/C/r1/2/moments/SquaredDifference","StatefulPartitionedCall/onnx_tf_prefix_generator/G_MODEL/C/r1/2/moments/variance/reduction_indices"],"attr":{"Tidx":{"type":"DT_INT32"},"keep_dims":{"b":true},"T":{"type":"DT_FLOAT"}}},
          {"name":"StatefulPartitionedCall/onnx_tf_prefix_generator/G_MODEL/C/r1/2/batchnorm/add","op":"AddV2","input":["StatefulPartitionedCall/onnx_tf_prefix_generator/G_MODEL/C/r1/2/moments/variance","unknown_0"],"attr":{"T":{"type":"DT_FLOAT"}}},
          {"name":"StatefulPartitionedCall/onnx_tf_prefix_generator/G_MODEL/C/r1/2/batchnorm/Rsqrt","op":"Sqrt","input":["StatefulPartitionedCall/onnx_tf_prefix_generator/G_MODEL/C/r1/2/batchnorm/add"],"attr":{"T":{"type":"DT_FLOAT"}}},
          {"name":"StatefulPartitionedCall/onnx_tf_prefix_generator/G_MODEL/C/r1/2/batchnorm/Rsqrt__116","op":"Reciprocal","input":["StatefulPartitionedCall/onnx_tf_prefix_generator/G_MODEL/C/r1/2/batchnorm/Rsqrt"],"attr":{"T":{"type":"DT_FLOAT"}}},
          {"name":"StatefulPartitionedCall/onnx_tf_prefix_generator/G_MODEL/C/r1/2/batchnorm/mul","op":"Mul","input":["StatefulPartitionedCall/onnx_tf_prefix_generator/G_MODEL/C/r1/2/batchnorm/Rsqrt__116","unknown_26"],"attr":{"T":{"type":"DT_FLOAT"}}},
          {"name":"StatefulPartitionedCall/onnx_tf_prefix_generator/G_MODEL/C/r1/2/batchnorm/mul_2","op":"Mul","input":["StatefulPartitionedCall/onnx_tf_prefix_generator/G_MODEL/C/r1/2/moments/mean","StatefulPartitionedCall/onnx_tf_prefix_generator/G_MODEL/C/r1/2/batchnorm/mul"],"attr":{"T":{"type":"DT_FLOAT"}}},
          {"name":"StatefulPartitionedCall/onnx_tf_prefix_generator/G_MODEL/C/r1/2/batchnorm/mul_1","op":"Mul","input":["StatefulPartitionedCall/transpose_26","StatefulPartitionedCall/onnx_tf_prefix_generator/G_MODEL/C/r1/2/batchnorm/mul"],"attr":{"T":{"type":"DT_FLOAT"}}},
          {"name":"StatefulPartitionedCall/onnx_tf_prefix_generator/G_MODEL/C/r1/2/batchnorm/sub","op":"Sub","input":["unknown_27","StatefulPartitionedCall/onnx_tf_prefix_generator/G_MODEL/C/r1/2/batchnorm/mul_2"],"attr":{"T":{"type":"DT_FLOAT"}}},
          {"name":"StatefulPartitionedCall/onnx_tf_prefix_generator/G_MODEL/C/r1/2/batchnorm/add_1","op":"AddV2","input":["StatefulPartitionedCall/onnx_tf_prefix_generator/G_MODEL/C/r1/2/batchnorm/mul_1","StatefulPartitionedCall/onnx_tf_prefix_generator/G_MODEL/C/r1/2/batchnorm/sub"],"attr":{"T":{"type":"DT_FLOAT"}}},
          {"name":"StatefulPartitionedCall/transpose_28","op":"Transpose","input":["StatefulPartitionedCall/onnx_tf_prefix_generator/G_MODEL/C/r1/2/batchnorm/add_1","StatefulPartitionedCall/transpose_28/perm"],"attr":{"T":{"type":"DT_FLOAT"},"Tperm":{"type":"DT_INT32"}}},
          {"name":"StatefulPartitionedCall/convolution_8","op":"Conv2D","input":["StatefulPartitionedCall/transpose_28","StatefulPartitionedCall/split_8"],"device":"/device:CPU:0","attr":{"data_format":{"s":"TkhXQw=="},"dilations":{"list":{"i":["1","1","1","1"]}},"T":{"type":"DT_FLOAT"},"strides":{"list":{"i":["1","1","1","1"]}},"explicit_paddings":{"list":{}},"use_cudnn_on_gpu":{"b":true},"padding":{"s":"VkFMSUQ="}}},
          {"name":"StatefulPartitionedCall/transpose_29","op":"Transpose","input":["StatefulPartitionedCall/convolution_8","StatefulPartitionedCall/transpose_29/perm"],"attr":{"Tperm":{"type":"DT_INT32"},"T":{"type":"DT_FLOAT"}}},
          {"name":"StatefulPartitionedCall/onnx_tf_prefix_generator/G_MODEL/C/r2/LayerNorm/moments/mean","op":"Mean","input":["StatefulPartitionedCall/transpose_29","StatefulPartitionedCall/onnx_tf_prefix_generator/G_MODEL/C/r2/LayerNorm/moments/mean/reduction_indices"],"attr":{"keep_dims":{"b":true},"Tidx":{"type":"DT_INT32"},"T":{"type":"DT_FLOAT"}}},
          {"name":"StatefulPartitionedCall/onnx_tf_prefix_generator/G_MODEL/C/r2/LayerNorm/moments/SquaredDifference","op":"SquaredDifference","input":["StatefulPartitionedCall/transpose_29","StatefulPartitionedCall/onnx_tf_prefix_generator/G_MODEL/C/r2/LayerNorm/moments/mean"],"attr":{"T":{"type":"DT_FLOAT"}}},
          {"name":"StatefulPartitionedCall/onnx_tf_prefix_generator/G_MODEL/C/r2/LayerNorm/moments/variance","op":"Mean","input":["StatefulPartitionedCall/onnx_tf_prefix_generator/G_MODEL/C/r2/LayerNorm/moments/SquaredDifference","StatefulPartitionedCall/onnx_tf_prefix_generator/G_MODEL/C/r2/LayerNorm/moments/variance/reduction_indices"],"attr":{"T":{"type":"DT_FLOAT"},"keep_dims":{"b":true},"Tidx":{"type":"DT_INT32"}}},
          {"name":"StatefulPartitionedCall/onnx_tf_prefix_generator/G_MODEL/C/r2/LayerNorm/batchnorm/add","op":"AddV2","input":["StatefulPartitionedCall/onnx_tf_prefix_generator/G_MODEL/C/r2/LayerNorm/moments/variance","unknown_0"],"attr":{"T":{"type":"DT_FLOAT"}}},
          {"name":"StatefulPartitionedCall/onnx_tf_prefix_generator/G_MODEL/C/r2/LayerNorm/batchnorm/Rsqrt","op":"Sqrt","input":["StatefulPartitionedCall/onnx_tf_prefix_generator/G_MODEL/C/r2/LayerNorm/batchnorm/add"],"attr":{"T":{"type":"DT_FLOAT"}}},
          {"name":"StatefulPartitionedCall/onnx_tf_prefix_generator/G_MODEL/C/r2/LayerNorm/batchnorm/Rsqrt__128","op":"Reciprocal","input":["StatefulPartitionedCall/onnx_tf_prefix_generator/G_MODEL/C/r2/LayerNorm/batchnorm/Rsqrt"],"attr":{"T":{"type":"DT_FLOAT"}}},
          {"name":"StatefulPartitionedCall/onnx_tf_prefix_generator/G_MODEL/C/r2/LayerNorm/batchnorm/mul","op":"Mul","input":["StatefulPartitionedCall/onnx_tf_prefix_generator/G_MODEL/C/r2/LayerNorm/batchnorm/Rsqrt__128","unknown_29"],"attr":{"T":{"type":"DT_FLOAT"}}},
          {"name":"StatefulPartitionedCall/onnx_tf_prefix_generator/G_MODEL/C/r2/LayerNorm/batchnorm/mul_2","op":"Mul","input":["StatefulPartitionedCall/onnx_tf_prefix_generator/G_MODEL/C/r2/LayerNorm/moments/mean","StatefulPartitionedCall/onnx_tf_prefix_generator/G_MODEL/C/r2/LayerNorm/batchnorm/mul"],"attr":{"T":{"type":"DT_FLOAT"}}},
          {"name":"StatefulPartitionedCall/onnx_tf_prefix_generator/G_MODEL/C/r2/LayerNorm/batchnorm/mul_1","op":"Mul","input":["StatefulPartitionedCall/transpose_29","StatefulPartitionedCall/onnx_tf_prefix_generator/G_MODEL/C/r2/LayerNorm/batchnorm/mul"],"attr":{"T":{"type":"DT_FLOAT"}}},
          {"name":"StatefulPartitionedCall/onnx_tf_prefix_generator/G_MODEL/C/r2/LayerNorm/batchnorm/sub","op":"Sub","input":["unknown_30","StatefulPartitionedCall/onnx_tf_prefix_generator/G_MODEL/C/r2/LayerNorm/batchnorm/mul_2"],"attr":{"T":{"type":"DT_FLOAT"}}},
          {"name":"StatefulPartitionedCall/onnx_tf_prefix_generator/G_MODEL/C/r2/LayerNorm/batchnorm/add_1","op":"AddV2","input":["StatefulPartitionedCall/onnx_tf_prefix_generator/G_MODEL/C/r2/LayerNorm/batchnorm/mul_1","StatefulPartitionedCall/onnx_tf_prefix_generator/G_MODEL/C/r2/LayerNorm/batchnorm/sub"],"attr":{"T":{"type":"DT_FLOAT"}}},
          {"name":"StatefulPartitionedCall/onnx_tf_prefix_generator/G_MODEL/C/r2/LeakyRelu","op":"LeakyRelu","input":["StatefulPartitionedCall/onnx_tf_prefix_generator/G_MODEL/C/r2/LayerNorm/batchnorm/add_1"],"attr":{"T":{"type":"DT_FLOAT"},"alpha":{"f":0.2}}},
          {"name":"StatefulPartitionedCall/cond_7","op":"StatelessIf","input":["StatefulPartitionedCall/All_7","StatefulPartitionedCall/Const_14","StatefulPartitionedCall/onnx_tf_prefix_generator/G_MODEL/C/r2/LeakyRelu"],"attr":{"Tout":{"list":{"type":["DT_FLOAT"]}},"Tcond":{"type":"DT_BOOL"},"Tin":{"list":{"type":["DT_INT32","DT_FLOAT"]}},"else_branch":{"func":{"name":"__inference_cond_7_false_838_600"}},"_lower_using_switch_merge":{"b":false},"_read_only_resource_inputs":{"list":{}},"then_branch":{"func":{"name":"__inference_cond_7_true_837_1034"}},"output_shapes":{"list":{"shape":[{"dim":[{"size":"-1"},{"size":"-1"},{"size":"-1"},{"size":"-1"}]}]}}}},
          {"name":"StatefulPartitionedCall/transpose_31","op":"Transpose","input":["StatefulPartitionedCall/cond_7","StatefulPartitionedCall/transpose_31/perm"],"attr":{"Tperm":{"type":"DT_INT32"},"T":{"type":"DT_FLOAT"}}},
          {"name":"StatefulPartitionedCall/depthwise_1","op":"DepthwiseConv2dNative","input":["StatefulPartitionedCall/transpose_31","StatefulPartitionedCall/Reshape_1"],"attr":{"dilations":{"list":{"i":["1","1","1","1"]}},"padding":{"s":"VkFMSUQ="},"strides":{"list":{"i":["1","1","1","1"]}},"data_format":{"s":"TkhXQw=="},"explicit_paddings":{"list":{}},"T":{"type":"DT_FLOAT"}}},
          {"name":"StatefulPartitionedCall/Add_1","op":"AddV2","input":["StatefulPartitionedCall/depthwise_1","unknown_32"],"attr":{"T":{"type":"DT_FLOAT"}}},
          {"name":"StatefulPartitionedCall/transpose_32","op":"Transpose","input":["StatefulPartitionedCall/Add_1","StatefulPartitionedCall/transpose_32/perm"],"attr":{"T":{"type":"DT_FLOAT"},"Tperm":{"type":"DT_INT32"}}},
          {"name":"StatefulPartitionedCall/onnx_tf_prefix_generator/G_MODEL/C/r2/1/moments/mean","op":"Mean","input":["StatefulPartitionedCall/transpose_32","StatefulPartitionedCall/onnx_tf_prefix_generator/G_MODEL/C/r2/1/moments/mean/reduction_indices"],"attr":{"T":{"type":"DT_FLOAT"},"Tidx":{"type":"DT_INT32"},"keep_dims":{"b":true}}},
          {"name":"StatefulPartitionedCall/onnx_tf_prefix_generator/G_MODEL/C/r2/1/moments/SquaredDifference","op":"SquaredDifference","input":["StatefulPartitionedCall/transpose_32","StatefulPartitionedCall/onnx_tf_prefix_generator/G_MODEL/C/r2/1/moments/mean"],"attr":{"T":{"type":"DT_FLOAT"}}},
          {"name":"StatefulPartitionedCall/onnx_tf_prefix_generator/G_MODEL/C/r2/1/moments/variance","op":"Mean","input":["StatefulPartitionedCall/onnx_tf_prefix_generator/G_MODEL/C/r2/1/moments/SquaredDifference","StatefulPartitionedCall/onnx_tf_prefix_generator/G_MODEL/C/r2/1/moments/variance/reduction_indices"],"attr":{"T":{"type":"DT_FLOAT"},"Tidx":{"type":"DT_INT32"},"keep_dims":{"b":true}}},
          {"name":"StatefulPartitionedCall/onnx_tf_prefix_generator/G_MODEL/C/r2/1/batchnorm/add","op":"AddV2","input":["StatefulPartitionedCall/onnx_tf_prefix_generator/G_MODEL/C/r2/1/moments/variance","unknown_0"],"attr":{"T":{"type":"DT_FLOAT"}}},
          {"name":"StatefulPartitionedCall/onnx_tf_prefix_generator/G_MODEL/C/r2/1/batchnorm/Rsqrt","op":"Sqrt","input":["StatefulPartitionedCall/onnx_tf_prefix_generator/G_MODEL/C/r2/1/batchnorm/add"],"attr":{"T":{"type":"DT_FLOAT"}}},
          {"name":"StatefulPartitionedCall/onnx_tf_prefix_generator/G_MODEL/C/r2/1/batchnorm/Rsqrt__143","op":"Reciprocal","input":["StatefulPartitionedCall/onnx_tf_prefix_generator/G_MODEL/C/r2/1/batchnorm/Rsqrt"],"attr":{"T":{"type":"DT_FLOAT"}}},
          {"name":"StatefulPartitionedCall/onnx_tf_prefix_generator/G_MODEL/C/r2/1/batchnorm/mul","op":"Mul","input":["StatefulPartitionedCall/onnx_tf_prefix_generator/G_MODEL/C/r2/1/batchnorm/Rsqrt__143","unknown_33"],"attr":{"T":{"type":"DT_FLOAT"}}},
          {"name":"StatefulPartitionedCall/onnx_tf_prefix_generator/G_MODEL/C/r2/1/batchnorm/mul_2","op":"Mul","input":["StatefulPartitionedCall/onnx_tf_prefix_generator/G_MODEL/C/r2/1/moments/mean","StatefulPartitionedCall/onnx_tf_prefix_generator/G_MODEL/C/r2/1/batchnorm/mul"],"attr":{"T":{"type":"DT_FLOAT"}}},
          {"name":"StatefulPartitionedCall/onnx_tf_prefix_generator/G_MODEL/C/r2/1/batchnorm/mul_1","op":"Mul","input":["StatefulPartitionedCall/transpose_32","StatefulPartitionedCall/onnx_tf_prefix_generator/G_MODEL/C/r2/1/batchnorm/mul"],"attr":{"T":{"type":"DT_FLOAT"}}},
          {"name":"StatefulPartitionedCall/onnx_tf_prefix_generator/G_MODEL/C/r2/1/batchnorm/sub","op":"Sub","input":["unknown_34","StatefulPartitionedCall/onnx_tf_prefix_generator/G_MODEL/C/r2/1/batchnorm/mul_2"],"attr":{"T":{"type":"DT_FLOAT"}}},
          {"name":"StatefulPartitionedCall/onnx_tf_prefix_generator/G_MODEL/C/r2/1/batchnorm/add_1","op":"AddV2","input":["StatefulPartitionedCall/onnx_tf_prefix_generator/G_MODEL/C/r2/1/batchnorm/mul_1","StatefulPartitionedCall/onnx_tf_prefix_generator/G_MODEL/C/r2/1/batchnorm/sub"],"attr":{"T":{"type":"DT_FLOAT"}}},
          {"name":"StatefulPartitionedCall/onnx_tf_prefix_generator/G_MODEL/C/r2/LeakyRelu_1","op":"LeakyRelu","input":["StatefulPartitionedCall/onnx_tf_prefix_generator/G_MODEL/C/r2/1/batchnorm/add_1"],"attr":{"T":{"type":"DT_FLOAT"},"alpha":{"f":0.2}}},
          {"name":"StatefulPartitionedCall/transpose_34","op":"Transpose","input":["StatefulPartitionedCall/onnx_tf_prefix_generator/G_MODEL/C/r2/LeakyRelu_1","StatefulPartitionedCall/transpose_34/perm"],"attr":{"T":{"type":"DT_FLOAT"},"Tperm":{"type":"DT_INT32"}}},
          {"name":"StatefulPartitionedCall/convolution_9","op":"Conv2D","input":["StatefulPartitionedCall/transpose_34","StatefulPartitionedCall/split_9"],"device":"/device:CPU:0","attr":{"data_format":{"s":"TkhXQw=="},"T":{"type":"DT_FLOAT"},"padding":{"s":"VkFMSUQ="},"explicit_paddings":{"list":{}},"dilations":{"list":{"i":["1","1","1","1"]}},"use_cudnn_on_gpu":{"b":true},"strides":{"list":{"i":["1","1","1","1"]}}}},
          {"name":"StatefulPartitionedCall/transpose_35","op":"Transpose","input":["StatefulPartitionedCall/convolution_9","StatefulPartitionedCall/transpose_35/perm"],"attr":{"T":{"type":"DT_FLOAT"},"Tperm":{"type":"DT_INT32"}}},
          {"name":"StatefulPartitionedCall/onnx_tf_prefix_generator/G_MODEL/C/r2/2/moments/mean","op":"Mean","input":["StatefulPartitionedCall/transpose_35","StatefulPartitionedCall/onnx_tf_prefix_generator/G_MODEL/C/r2/2/moments/mean/reduction_indices"],"attr":{"Tidx":{"type":"DT_INT32"},"keep_dims":{"b":true},"T":{"type":"DT_FLOAT"}}},
          {"name":"StatefulPartitionedCall/onnx_tf_prefix_generator/G_MODEL/C/r2/2/moments/SquaredDifference","op":"SquaredDifference","input":["StatefulPartitionedCall/transpose_35","StatefulPartitionedCall/onnx_tf_prefix_generator/G_MODEL/C/r2/2/moments/mean"],"attr":{"T":{"type":"DT_FLOAT"}}},
          {"name":"StatefulPartitionedCall/onnx_tf_prefix_generator/G_MODEL/C/r2/2/moments/variance","op":"Mean","input":["StatefulPartitionedCall/onnx_tf_prefix_generator/G_MODEL/C/r2/2/moments/SquaredDifference","StatefulPartitionedCall/onnx_tf_prefix_generator/G_MODEL/C/r2/2/moments/variance/reduction_indices"],"attr":{"Tidx":{"type":"DT_INT32"},"keep_dims":{"b":true},"T":{"type":"DT_FLOAT"}}},
          {"name":"StatefulPartitionedCall/onnx_tf_prefix_generator/G_MODEL/C/r2/2/batchnorm/add","op":"AddV2","input":["StatefulPartitionedCall/onnx_tf_prefix_generator/G_MODEL/C/r2/2/moments/variance","unknown_0"],"attr":{"T":{"type":"DT_FLOAT"}}},
          {"name":"StatefulPartitionedCall/onnx_tf_prefix_generator/G_MODEL/C/r2/2/batchnorm/Rsqrt","op":"Sqrt","input":["StatefulPartitionedCall/onnx_tf_prefix_generator/G_MODEL/C/r2/2/batchnorm/add"],"attr":{"T":{"type":"DT_FLOAT"}}},
          {"name":"StatefulPartitionedCall/onnx_tf_prefix_generator/G_MODEL/C/r2/2/batchnorm/Rsqrt__155","op":"Reciprocal","input":["StatefulPartitionedCall/onnx_tf_prefix_generator/G_MODEL/C/r2/2/batchnorm/Rsqrt"],"attr":{"T":{"type":"DT_FLOAT"}}},
          {"name":"StatefulPartitionedCall/onnx_tf_prefix_generator/G_MODEL/C/r2/2/batchnorm/mul","op":"Mul","input":["StatefulPartitionedCall/onnx_tf_prefix_generator/G_MODEL/C/r2/2/batchnorm/Rsqrt__155","unknown_36"],"attr":{"T":{"type":"DT_FLOAT"}}},
          {"name":"StatefulPartitionedCall/onnx_tf_prefix_generator/G_MODEL/C/r2/2/batchnorm/mul_2","op":"Mul","input":["StatefulPartitionedCall/onnx_tf_prefix_generator/G_MODEL/C/r2/2/moments/mean","StatefulPartitionedCall/onnx_tf_prefix_generator/G_MODEL/C/r2/2/batchnorm/mul"],"attr":{"T":{"type":"DT_FLOAT"}}},
          {"name":"StatefulPartitionedCall/onnx_tf_prefix_generator/G_MODEL/C/r2/2/batchnorm/mul_1","op":"Mul","input":["StatefulPartitionedCall/transpose_35","StatefulPartitionedCall/onnx_tf_prefix_generator/G_MODEL/C/r2/2/batchnorm/mul"],"attr":{"T":{"type":"DT_FLOAT"}}},
          {"name":"StatefulPartitionedCall/onnx_tf_prefix_generator/G_MODEL/C/r2/2/batchnorm/sub","op":"Sub","input":["unknown_37","StatefulPartitionedCall/onnx_tf_prefix_generator/G_MODEL/C/r2/2/batchnorm/mul_2"],"attr":{"T":{"type":"DT_FLOAT"}}},
          {"name":"StatefulPartitionedCall/onnx_tf_prefix_generator/G_MODEL/C/r2/2/batchnorm/add_1","op":"AddV2","input":["StatefulPartitionedCall/onnx_tf_prefix_generator/G_MODEL/C/r2/2/batchnorm/mul_1","StatefulPartitionedCall/onnx_tf_prefix_generator/G_MODEL/C/r2/2/batchnorm/sub"],"attr":{"T":{"type":"DT_FLOAT"}}},
          {"name":"StatefulPartitionedCall/onnx_tf_prefix_generator/G_MODEL/C/r2/add","op":"AddV2","input":["StatefulPartitionedCall/onnx_tf_prefix_generator/G_MODEL/C/r1/2/batchnorm/add_1","StatefulPartitionedCall/onnx_tf_prefix_generator/G_MODEL/C/r2/2/batchnorm/add_1"],"attr":{"T":{"type":"DT_FLOAT"}}},
          {"name":"StatefulPartitionedCall/transpose_37","op":"Transpose","input":["StatefulPartitionedCall/onnx_tf_prefix_generator/G_MODEL/C/r2/add","StatefulPartitionedCall/transpose_37/perm"],"attr":{"Tperm":{"type":"DT_INT32"},"T":{"type":"DT_FLOAT"}}},
          {"name":"StatefulPartitionedCall/convolution_10","op":"Conv2D","input":["StatefulPartitionedCall/transpose_37","StatefulPartitionedCall/split_10"],"device":"/device:CPU:0","attr":{"T":{"type":"DT_FLOAT"},"explicit_paddings":{"list":{}},"data_format":{"s":"TkhXQw=="},"use_cudnn_on_gpu":{"b":true},"padding":{"s":"VkFMSUQ="},"dilations":{"list":{"i":["1","1","1","1"]}},"strides":{"list":{"i":["1","1","1","1"]}}}},
          {"name":"StatefulPartitionedCall/transpose_38","op":"Transpose","input":["StatefulPartitionedCall/convolution_10","StatefulPartitionedCall/transpose_38/perm"],"attr":{"Tperm":{"type":"DT_INT32"},"T":{"type":"DT_FLOAT"}}},
          {"name":"StatefulPartitionedCall/onnx_tf_prefix_generator/G_MODEL/C/r3/LayerNorm/moments/mean","op":"Mean","input":["StatefulPartitionedCall/transpose_38","StatefulPartitionedCall/onnx_tf_prefix_generator/G_MODEL/C/r3/LayerNorm/moments/mean/reduction_indices"],"attr":{"T":{"type":"DT_FLOAT"},"Tidx":{"type":"DT_INT32"},"keep_dims":{"b":true}}},
          {"name":"StatefulPartitionedCall/onnx_tf_prefix_generator/G_MODEL/C/r3/LayerNorm/moments/SquaredDifference","op":"SquaredDifference","input":["StatefulPartitionedCall/transpose_38","StatefulPartitionedCall/onnx_tf_prefix_generator/G_MODEL/C/r3/LayerNorm/moments/mean"],"attr":{"T":{"type":"DT_FLOAT"}}},
          {"name":"StatefulPartitionedCall/onnx_tf_prefix_generator/G_MODEL/C/r3/LayerNorm/moments/variance","op":"Mean","input":["StatefulPartitionedCall/onnx_tf_prefix_generator/G_MODEL/C/r3/LayerNorm/moments/SquaredDifference","StatefulPartitionedCall/onnx_tf_prefix_generator/G_MODEL/C/r3/LayerNorm/moments/variance/reduction_indices"],"attr":{"Tidx":{"type":"DT_INT32"},"keep_dims":{"b":true},"T":{"type":"DT_FLOAT"}}},
          {"name":"StatefulPartitionedCall/onnx_tf_prefix_generator/G_MODEL/C/r3/LayerNorm/batchnorm/add","op":"AddV2","input":["StatefulPartitionedCall/onnx_tf_prefix_generator/G_MODEL/C/r3/LayerNorm/moments/variance","unknown_0"],"attr":{"T":{"type":"DT_FLOAT"}}},
          {"name":"StatefulPartitionedCall/onnx_tf_prefix_generator/G_MODEL/C/r3/LayerNorm/batchnorm/Rsqrt","op":"Sqrt","input":["StatefulPartitionedCall/onnx_tf_prefix_generator/G_MODEL/C/r3/LayerNorm/batchnorm/add"],"attr":{"T":{"type":"DT_FLOAT"}}},
          {"name":"StatefulPartitionedCall/onnx_tf_prefix_generator/G_MODEL/C/r3/LayerNorm/batchnorm/Rsqrt__167","op":"Reciprocal","input":["StatefulPartitionedCall/onnx_tf_prefix_generator/G_MODEL/C/r3/LayerNorm/batchnorm/Rsqrt"],"attr":{"T":{"type":"DT_FLOAT"}}},
          {"name":"StatefulPartitionedCall/onnx_tf_prefix_generator/G_MODEL/C/r3/LayerNorm/batchnorm/mul","op":"Mul","input":["StatefulPartitionedCall/onnx_tf_prefix_generator/G_MODEL/C/r3/LayerNorm/batchnorm/Rsqrt__167","unknown_39"],"attr":{"T":{"type":"DT_FLOAT"}}},
          {"name":"StatefulPartitionedCall/onnx_tf_prefix_generator/G_MODEL/C/r3/LayerNorm/batchnorm/mul_2","op":"Mul","input":["StatefulPartitionedCall/onnx_tf_prefix_generator/G_MODEL/C/r3/LayerNorm/moments/mean","StatefulPartitionedCall/onnx_tf_prefix_generator/G_MODEL/C/r3/LayerNorm/batchnorm/mul"],"attr":{"T":{"type":"DT_FLOAT"}}},
          {"name":"StatefulPartitionedCall/onnx_tf_prefix_generator/G_MODEL/C/r3/LayerNorm/batchnorm/mul_1","op":"Mul","input":["StatefulPartitionedCall/transpose_38","StatefulPartitionedCall/onnx_tf_prefix_generator/G_MODEL/C/r3/LayerNorm/batchnorm/mul"],"attr":{"T":{"type":"DT_FLOAT"}}},
          {"name":"StatefulPartitionedCall/onnx_tf_prefix_generator/G_MODEL/C/r3/LayerNorm/batchnorm/sub","op":"Sub","input":["unknown_40","StatefulPartitionedCall/onnx_tf_prefix_generator/G_MODEL/C/r3/LayerNorm/batchnorm/mul_2"],"attr":{"T":{"type":"DT_FLOAT"}}},
          {"name":"StatefulPartitionedCall/onnx_tf_prefix_generator/G_MODEL/C/r3/LayerNorm/batchnorm/add_1","op":"AddV2","input":["StatefulPartitionedCall/onnx_tf_prefix_generator/G_MODEL/C/r3/LayerNorm/batchnorm/mul_1","StatefulPartitionedCall/onnx_tf_prefix_generator/G_MODEL/C/r3/LayerNorm/batchnorm/sub"],"attr":{"T":{"type":"DT_FLOAT"}}},
          {"name":"StatefulPartitionedCall/onnx_tf_prefix_generator/G_MODEL/C/r3/LeakyRelu","op":"LeakyRelu","input":["StatefulPartitionedCall/onnx_tf_prefix_generator/G_MODEL/C/r3/LayerNorm/batchnorm/add_1"],"attr":{"T":{"type":"DT_FLOAT"},"alpha":{"f":0.2}}},
          {"name":"StatefulPartitionedCall/cond_8","op":"StatelessIf","input":["StatefulPartitionedCall/All_8","StatefulPartitionedCall/Const_16","StatefulPartitionedCall/onnx_tf_prefix_generator/G_MODEL/C/r3/LeakyRelu"],"attr":{"Tin":{"list":{"type":["DT_INT32","DT_FLOAT"]}},"Tcond":{"type":"DT_BOOL"},"then_branch":{"func":{"name":"__inference_cond_8_true_972_552"}},"_read_only_resource_inputs":{"list":{}},"Tout":{"list":{"type":["DT_FLOAT"]}},"_lower_using_switch_merge":{"b":false},"else_branch":{"func":{"name":"__inference_cond_8_false_973_692"}},"output_shapes":{"list":{"shape":[{"dim":[{"size":"-1"},{"size":"-1"},{"size":"-1"},{"size":"-1"}]}]}}}},
          {"name":"StatefulPartitionedCall/transpose_40","op":"Transpose","input":["StatefulPartitionedCall/cond_8","StatefulPartitionedCall/transpose_40/perm"],"attr":{"T":{"type":"DT_FLOAT"},"Tperm":{"type":"DT_INT32"}}},
          {"name":"StatefulPartitionedCall/depthwise_2","op":"DepthwiseConv2dNative","input":["StatefulPartitionedCall/transpose_40","StatefulPartitionedCall/Reshape_2"],"attr":{"dilations":{"list":{"i":["1","1","1","1"]}},"T":{"type":"DT_FLOAT"},"data_format":{"s":"TkhXQw=="},"padding":{"s":"VkFMSUQ="},"explicit_paddings":{"list":{}},"strides":{"list":{"i":["1","1","1","1"]}}}},
          {"name":"StatefulPartitionedCall/Add_2","op":"AddV2","input":["StatefulPartitionedCall/depthwise_2","unknown_42"],"attr":{"T":{"type":"DT_FLOAT"}}},
          {"name":"StatefulPartitionedCall/transpose_41","op":"Transpose","input":["StatefulPartitionedCall/Add_2","StatefulPartitionedCall/transpose_41/perm"],"attr":{"Tperm":{"type":"DT_INT32"},"T":{"type":"DT_FLOAT"}}},
          {"name":"StatefulPartitionedCall/onnx_tf_prefix_generator/G_MODEL/C/r3/1/moments/mean","op":"Mean","input":["StatefulPartitionedCall/transpose_41","StatefulPartitionedCall/onnx_tf_prefix_generator/G_MODEL/C/r3/1/moments/mean/reduction_indices"],"attr":{"Tidx":{"type":"DT_INT32"},"T":{"type":"DT_FLOAT"},"keep_dims":{"b":true}}},
          {"name":"StatefulPartitionedCall/onnx_tf_prefix_generator/G_MODEL/C/r3/1/moments/SquaredDifference","op":"SquaredDifference","input":["StatefulPartitionedCall/transpose_41","StatefulPartitionedCall/onnx_tf_prefix_generator/G_MODEL/C/r3/1/moments/mean"],"attr":{"T":{"type":"DT_FLOAT"}}},
          {"name":"StatefulPartitionedCall/onnx_tf_prefix_generator/G_MODEL/C/r3/1/moments/variance","op":"Mean","input":["StatefulPartitionedCall/onnx_tf_prefix_generator/G_MODEL/C/r3/1/moments/SquaredDifference","StatefulPartitionedCall/onnx_tf_prefix_generator/G_MODEL/C/r3/1/moments/variance/reduction_indices"],"attr":{"Tidx":{"type":"DT_INT32"},"T":{"type":"DT_FLOAT"},"keep_dims":{"b":true}}},
          {"name":"StatefulPartitionedCall/onnx_tf_prefix_generator/G_MODEL/C/r3/1/batchnorm/add","op":"AddV2","input":["StatefulPartitionedCall/onnx_tf_prefix_generator/G_MODEL/C/r3/1/moments/variance","unknown_0"],"attr":{"T":{"type":"DT_FLOAT"}}},
          {"name":"StatefulPartitionedCall/onnx_tf_prefix_generator/G_MODEL/C/r3/1/batchnorm/Rsqrt","op":"Sqrt","input":["StatefulPartitionedCall/onnx_tf_prefix_generator/G_MODEL/C/r3/1/batchnorm/add"],"attr":{"T":{"type":"DT_FLOAT"}}},
          {"name":"StatefulPartitionedCall/onnx_tf_prefix_generator/G_MODEL/C/r3/1/batchnorm/Rsqrt__182","op":"Reciprocal","input":["StatefulPartitionedCall/onnx_tf_prefix_generator/G_MODEL/C/r3/1/batchnorm/Rsqrt"],"attr":{"T":{"type":"DT_FLOAT"}}},
          {"name":"StatefulPartitionedCall/onnx_tf_prefix_generator/G_MODEL/C/r3/1/batchnorm/mul","op":"Mul","input":["StatefulPartitionedCall/onnx_tf_prefix_generator/G_MODEL/C/r3/1/batchnorm/Rsqrt__182","unknown_43"],"attr":{"T":{"type":"DT_FLOAT"}}},
          {"name":"StatefulPartitionedCall/onnx_tf_prefix_generator/G_MODEL/C/r3/1/batchnorm/mul_2","op":"Mul","input":["StatefulPartitionedCall/onnx_tf_prefix_generator/G_MODEL/C/r3/1/moments/mean","StatefulPartitionedCall/onnx_tf_prefix_generator/G_MODEL/C/r3/1/batchnorm/mul"],"attr":{"T":{"type":"DT_FLOAT"}}},
          {"name":"StatefulPartitionedCall/onnx_tf_prefix_generator/G_MODEL/C/r3/1/batchnorm/mul_1","op":"Mul","input":["StatefulPartitionedCall/transpose_41","StatefulPartitionedCall/onnx_tf_prefix_generator/G_MODEL/C/r3/1/batchnorm/mul"],"attr":{"T":{"type":"DT_FLOAT"}}},
          {"name":"StatefulPartitionedCall/onnx_tf_prefix_generator/G_MODEL/C/r3/1/batchnorm/sub","op":"Sub","input":["unknown_44","StatefulPartitionedCall/onnx_tf_prefix_generator/G_MODEL/C/r3/1/batchnorm/mul_2"],"attr":{"T":{"type":"DT_FLOAT"}}},
          {"name":"StatefulPartitionedCall/onnx_tf_prefix_generator/G_MODEL/C/r3/1/batchnorm/add_1","op":"AddV2","input":["StatefulPartitionedCall/onnx_tf_prefix_generator/G_MODEL/C/r3/1/batchnorm/mul_1","StatefulPartitionedCall/onnx_tf_prefix_generator/G_MODEL/C/r3/1/batchnorm/sub"],"attr":{"T":{"type":"DT_FLOAT"}}},
          {"name":"StatefulPartitionedCall/onnx_tf_prefix_generator/G_MODEL/C/r3/LeakyRelu_1","op":"LeakyRelu","input":["StatefulPartitionedCall/onnx_tf_prefix_generator/G_MODEL/C/r3/1/batchnorm/add_1"],"attr":{"alpha":{"f":0.2},"T":{"type":"DT_FLOAT"}}},
          {"name":"StatefulPartitionedCall/transpose_43","op":"Transpose","input":["StatefulPartitionedCall/onnx_tf_prefix_generator/G_MODEL/C/r3/LeakyRelu_1","StatefulPartitionedCall/transpose_43/perm"],"attr":{"T":{"type":"DT_FLOAT"},"Tperm":{"type":"DT_INT32"}}},
          {"name":"StatefulPartitionedCall/convolution_11","op":"Conv2D","input":["StatefulPartitionedCall/transpose_43","StatefulPartitionedCall/split_11"],"device":"/device:CPU:0","attr":{"data_format":{"s":"TkhXQw=="},"use_cudnn_on_gpu":{"b":true},"explicit_paddings":{"list":{}},"padding":{"s":"VkFMSUQ="},"T":{"type":"DT_FLOAT"},"strides":{"list":{"i":["1","1","1","1"]}},"dilations":{"list":{"i":["1","1","1","1"]}}}},
          {"name":"StatefulPartitionedCall/transpose_44","op":"Transpose","input":["StatefulPartitionedCall/convolution_11","StatefulPartitionedCall/transpose_44/perm"],"attr":{"T":{"type":"DT_FLOAT"},"Tperm":{"type":"DT_INT32"}}},
          {"name":"StatefulPartitionedCall/onnx_tf_prefix_generator/G_MODEL/C/r3/2/moments/mean","op":"Mean","input":["StatefulPartitionedCall/transpose_44","StatefulPartitionedCall/onnx_tf_prefix_generator/G_MODEL/C/r3/2/moments/mean/reduction_indices"],"attr":{"keep_dims":{"b":true},"Tidx":{"type":"DT_INT32"},"T":{"type":"DT_FLOAT"}}},
          {"name":"StatefulPartitionedCall/onnx_tf_prefix_generator/G_MODEL/C/r3/2/moments/SquaredDifference","op":"SquaredDifference","input":["StatefulPartitionedCall/transpose_44","StatefulPartitionedCall/onnx_tf_prefix_generator/G_MODEL/C/r3/2/moments/mean"],"attr":{"T":{"type":"DT_FLOAT"}}},
          {"name":"StatefulPartitionedCall/onnx_tf_prefix_generator/G_MODEL/C/r3/2/moments/variance","op":"Mean","input":["StatefulPartitionedCall/onnx_tf_prefix_generator/G_MODEL/C/r3/2/moments/SquaredDifference","StatefulPartitionedCall/onnx_tf_prefix_generator/G_MODEL/C/r3/2/moments/variance/reduction_indices"],"attr":{"keep_dims":{"b":true},"T":{"type":"DT_FLOAT"},"Tidx":{"type":"DT_INT32"}}},
          {"name":"StatefulPartitionedCall/onnx_tf_prefix_generator/G_MODEL/C/r3/2/batchnorm/add","op":"AddV2","input":["StatefulPartitionedCall/onnx_tf_prefix_generator/G_MODEL/C/r3/2/moments/variance","unknown_0"],"attr":{"T":{"type":"DT_FLOAT"}}},
          {"name":"StatefulPartitionedCall/onnx_tf_prefix_generator/G_MODEL/C/r3/2/batchnorm/Rsqrt","op":"Sqrt","input":["StatefulPartitionedCall/onnx_tf_prefix_generator/G_MODEL/C/r3/2/batchnorm/add"],"attr":{"T":{"type":"DT_FLOAT"}}},
          {"name":"StatefulPartitionedCall/onnx_tf_prefix_generator/G_MODEL/C/r3/2/batchnorm/Rsqrt__194","op":"Reciprocal","input":["StatefulPartitionedCall/onnx_tf_prefix_generator/G_MODEL/C/r3/2/batchnorm/Rsqrt"],"attr":{"T":{"type":"DT_FLOAT"}}},
          {"name":"StatefulPartitionedCall/onnx_tf_prefix_generator/G_MODEL/C/r3/2/batchnorm/mul","op":"Mul","input":["StatefulPartitionedCall/onnx_tf_prefix_generator/G_MODEL/C/r3/2/batchnorm/Rsqrt__194","unknown_46"],"attr":{"T":{"type":"DT_FLOAT"}}},
          {"name":"StatefulPartitionedCall/onnx_tf_prefix_generator/G_MODEL/C/r3/2/batchnorm/mul_2","op":"Mul","input":["StatefulPartitionedCall/onnx_tf_prefix_generator/G_MODEL/C/r3/2/moments/mean","StatefulPartitionedCall/onnx_tf_prefix_generator/G_MODEL/C/r3/2/batchnorm/mul"],"attr":{"T":{"type":"DT_FLOAT"}}},
          {"name":"StatefulPartitionedCall/onnx_tf_prefix_generator/G_MODEL/C/r3/2/batchnorm/mul_1","op":"Mul","input":["StatefulPartitionedCall/transpose_44","StatefulPartitionedCall/onnx_tf_prefix_generator/G_MODEL/C/r3/2/batchnorm/mul"],"attr":{"T":{"type":"DT_FLOAT"}}},
          {"name":"StatefulPartitionedCall/onnx_tf_prefix_generator/G_MODEL/C/r3/2/batchnorm/sub","op":"Sub","input":["unknown_47","StatefulPartitionedCall/onnx_tf_prefix_generator/G_MODEL/C/r3/2/batchnorm/mul_2"],"attr":{"T":{"type":"DT_FLOAT"}}},
          {"name":"StatefulPartitionedCall/onnx_tf_prefix_generator/G_MODEL/C/r3/2/batchnorm/add_1","op":"AddV2","input":["StatefulPartitionedCall/onnx_tf_prefix_generator/G_MODEL/C/r3/2/batchnorm/mul_1","StatefulPartitionedCall/onnx_tf_prefix_generator/G_MODEL/C/r3/2/batchnorm/sub"],"attr":{"T":{"type":"DT_FLOAT"}}},
          {"name":"StatefulPartitionedCall/onnx_tf_prefix_generator/G_MODEL/C/r3/add","op":"AddV2","input":["StatefulPartitionedCall/onnx_tf_prefix_generator/G_MODEL/C/r2/add","StatefulPartitionedCall/onnx_tf_prefix_generator/G_MODEL/C/r3/2/batchnorm/add_1"],"attr":{"T":{"type":"DT_FLOAT"}}},
          {"name":"StatefulPartitionedCall/transpose_46","op":"Transpose","input":["StatefulPartitionedCall/onnx_tf_prefix_generator/G_MODEL/C/r3/add","StatefulPartitionedCall/transpose_46/perm"],"attr":{"Tperm":{"type":"DT_INT32"},"T":{"type":"DT_FLOAT"}}},
          {"name":"StatefulPartitionedCall/convolution_12","op":"Conv2D","input":["StatefulPartitionedCall/transpose_46","StatefulPartitionedCall/split_12"],"device":"/device:CPU:0","attr":{"data_format":{"s":"TkhXQw=="},"T":{"type":"DT_FLOAT"},"use_cudnn_on_gpu":{"b":true},"padding":{"s":"VkFMSUQ="},"strides":{"list":{"i":["1","1","1","1"]}},"dilations":{"list":{"i":["1","1","1","1"]}},"explicit_paddings":{"list":{}}}},
          {"name":"StatefulPartitionedCall/transpose_47","op":"Transpose","input":["StatefulPartitionedCall/convolution_12","StatefulPartitionedCall/transpose_47/perm"],"attr":{"T":{"type":"DT_FLOAT"},"Tperm":{"type":"DT_INT32"}}},
          {"name":"StatefulPartitionedCall/onnx_tf_prefix_generator/G_MODEL/C/r4/LayerNorm/moments/mean","op":"Mean","input":["StatefulPartitionedCall/transpose_47","StatefulPartitionedCall/onnx_tf_prefix_generator/G_MODEL/C/r4/LayerNorm/moments/mean/reduction_indices"],"attr":{"T":{"type":"DT_FLOAT"},"keep_dims":{"b":true},"Tidx":{"type":"DT_INT32"}}},
          {"name":"StatefulPartitionedCall/onnx_tf_prefix_generator/G_MODEL/C/r4/LayerNorm/moments/SquaredDifference","op":"SquaredDifference","input":["StatefulPartitionedCall/transpose_47","StatefulPartitionedCall/onnx_tf_prefix_generator/G_MODEL/C/r4/LayerNorm/moments/mean"],"attr":{"T":{"type":"DT_FLOAT"}}},
          {"name":"StatefulPartitionedCall/onnx_tf_prefix_generator/G_MODEL/C/r4/LayerNorm/moments/variance","op":"Mean","input":["StatefulPartitionedCall/onnx_tf_prefix_generator/G_MODEL/C/r4/LayerNorm/moments/SquaredDifference","StatefulPartitionedCall/onnx_tf_prefix_generator/G_MODEL/C/r4/LayerNorm/moments/variance/reduction_indices"],"attr":{"Tidx":{"type":"DT_INT32"},"T":{"type":"DT_FLOAT"},"keep_dims":{"b":true}}},
          {"name":"StatefulPartitionedCall/onnx_tf_prefix_generator/G_MODEL/C/r4/LayerNorm/batchnorm/add","op":"AddV2","input":["StatefulPartitionedCall/onnx_tf_prefix_generator/G_MODEL/C/r4/LayerNorm/moments/variance","unknown_0"],"attr":{"T":{"type":"DT_FLOAT"}}},
          {"name":"StatefulPartitionedCall/onnx_tf_prefix_generator/G_MODEL/C/r4/LayerNorm/batchnorm/Rsqrt","op":"Sqrt","input":["StatefulPartitionedCall/onnx_tf_prefix_generator/G_MODEL/C/r4/LayerNorm/batchnorm/add"],"attr":{"T":{"type":"DT_FLOAT"}}},
          {"name":"StatefulPartitionedCall/onnx_tf_prefix_generator/G_MODEL/C/r4/LayerNorm/batchnorm/Rsqrt__206","op":"Reciprocal","input":["StatefulPartitionedCall/onnx_tf_prefix_generator/G_MODEL/C/r4/LayerNorm/batchnorm/Rsqrt"],"attr":{"T":{"type":"DT_FLOAT"}}},
          {"name":"StatefulPartitionedCall/onnx_tf_prefix_generator/G_MODEL/C/r4/LayerNorm/batchnorm/mul","op":"Mul","input":["StatefulPartitionedCall/onnx_tf_prefix_generator/G_MODEL/C/r4/LayerNorm/batchnorm/Rsqrt__206","unknown_49"],"attr":{"T":{"type":"DT_FLOAT"}}},
          {"name":"StatefulPartitionedCall/onnx_tf_prefix_generator/G_MODEL/C/r4/LayerNorm/batchnorm/mul_2","op":"Mul","input":["StatefulPartitionedCall/onnx_tf_prefix_generator/G_MODEL/C/r4/LayerNorm/moments/mean","StatefulPartitionedCall/onnx_tf_prefix_generator/G_MODEL/C/r4/LayerNorm/batchnorm/mul"],"attr":{"T":{"type":"DT_FLOAT"}}},
          {"name":"StatefulPartitionedCall/onnx_tf_prefix_generator/G_MODEL/C/r4/LayerNorm/batchnorm/mul_1","op":"Mul","input":["StatefulPartitionedCall/transpose_47","StatefulPartitionedCall/onnx_tf_prefix_generator/G_MODEL/C/r4/LayerNorm/batchnorm/mul"],"attr":{"T":{"type":"DT_FLOAT"}}},
          {"name":"StatefulPartitionedCall/onnx_tf_prefix_generator/G_MODEL/C/r4/LayerNorm/batchnorm/sub","op":"Sub","input":["unknown_50","StatefulPartitionedCall/onnx_tf_prefix_generator/G_MODEL/C/r4/LayerNorm/batchnorm/mul_2"],"attr":{"T":{"type":"DT_FLOAT"}}},
          {"name":"StatefulPartitionedCall/onnx_tf_prefix_generator/G_MODEL/C/r4/LayerNorm/batchnorm/add_1","op":"AddV2","input":["StatefulPartitionedCall/onnx_tf_prefix_generator/G_MODEL/C/r4/LayerNorm/batchnorm/mul_1","StatefulPartitionedCall/onnx_tf_prefix_generator/G_MODEL/C/r4/LayerNorm/batchnorm/sub"],"attr":{"T":{"type":"DT_FLOAT"}}},
          {"name":"StatefulPartitionedCall/onnx_tf_prefix_generator/G_MODEL/C/r4/LeakyRelu","op":"LeakyRelu","input":["StatefulPartitionedCall/onnx_tf_prefix_generator/G_MODEL/C/r4/LayerNorm/batchnorm/add_1"],"attr":{"alpha":{"f":0.2},"T":{"type":"DT_FLOAT"}}},
          {"name":"StatefulPartitionedCall/cond_9","op":"StatelessIf","input":["StatefulPartitionedCall/All_9","StatefulPartitionedCall/Const_18","StatefulPartitionedCall/onnx_tf_prefix_generator/G_MODEL/C/r4/LeakyRelu"],"attr":{"_lower_using_switch_merge":{"b":false},"Tcond":{"type":"DT_BOOL"},"Tout":{"list":{"type":["DT_FLOAT"]}},"then_branch":{"func":{"name":"__inference_cond_9_true_1107_380"}},"output_shapes":{"list":{"shape":[{"dim":[{"size":"-1"},{"size":"-1"},{"size":"-1"},{"size":"-1"}]}]}},"_read_only_resource_inputs":{"list":{}},"Tin":{"list":{"type":["DT_INT32","DT_FLOAT"]}},"else_branch":{"func":{"name":"__inference_cond_9_false_1108_236"}}}},
          {"name":"StatefulPartitionedCall/transpose_49","op":"Transpose","input":["StatefulPartitionedCall/cond_9","StatefulPartitionedCall/transpose_49/perm"],"attr":{"Tperm":{"type":"DT_INT32"},"T":{"type":"DT_FLOAT"}}},
          {"name":"StatefulPartitionedCall/depthwise_3","op":"DepthwiseConv2dNative","input":["StatefulPartitionedCall/transpose_49","StatefulPartitionedCall/Reshape_3"],"attr":{"explicit_paddings":{"list":{}},"padding":{"s":"VkFMSUQ="},"strides":{"list":{"i":["1","1","1","1"]}},"dilations":{"list":{"i":["1","1","1","1"]}},"data_format":{"s":"TkhXQw=="},"T":{"type":"DT_FLOAT"}}},
          {"name":"StatefulPartitionedCall/Add_3","op":"AddV2","input":["StatefulPartitionedCall/depthwise_3","unknown_52"],"attr":{"T":{"type":"DT_FLOAT"}}},
          {"name":"StatefulPartitionedCall/transpose_50","op":"Transpose","input":["StatefulPartitionedCall/Add_3","StatefulPartitionedCall/transpose_50/perm"],"attr":{"T":{"type":"DT_FLOAT"},"Tperm":{"type":"DT_INT32"}}},
          {"name":"StatefulPartitionedCall/onnx_tf_prefix_generator/G_MODEL/C/r4/1/moments/mean","op":"Mean","input":["StatefulPartitionedCall/transpose_50","StatefulPartitionedCall/onnx_tf_prefix_generator/G_MODEL/C/r4/1/moments/mean/reduction_indices"],"attr":{"Tidx":{"type":"DT_INT32"},"keep_dims":{"b":true},"T":{"type":"DT_FLOAT"}}},
          {"name":"StatefulPartitionedCall/onnx_tf_prefix_generator/G_MODEL/C/r4/1/moments/SquaredDifference","op":"SquaredDifference","input":["StatefulPartitionedCall/transpose_50","StatefulPartitionedCall/onnx_tf_prefix_generator/G_MODEL/C/r4/1/moments/mean"],"attr":{"T":{"type":"DT_FLOAT"}}},
          {"name":"StatefulPartitionedCall/onnx_tf_prefix_generator/G_MODEL/C/r4/1/moments/variance","op":"Mean","input":["StatefulPartitionedCall/onnx_tf_prefix_generator/G_MODEL/C/r4/1/moments/SquaredDifference","StatefulPartitionedCall/onnx_tf_prefix_generator/G_MODEL/C/r4/1/moments/variance/reduction_indices"],"attr":{"T":{"type":"DT_FLOAT"},"Tidx":{"type":"DT_INT32"},"keep_dims":{"b":true}}},
          {"name":"StatefulPartitionedCall/onnx_tf_prefix_generator/G_MODEL/C/r4/1/batchnorm/add","op":"AddV2","input":["StatefulPartitionedCall/onnx_tf_prefix_generator/G_MODEL/C/r4/1/moments/variance","unknown_0"],"attr":{"T":{"type":"DT_FLOAT"}}},
          {"name":"StatefulPartitionedCall/onnx_tf_prefix_generator/G_MODEL/C/r4/1/batchnorm/Rsqrt","op":"Sqrt","input":["StatefulPartitionedCall/onnx_tf_prefix_generator/G_MODEL/C/r4/1/batchnorm/add"],"attr":{"T":{"type":"DT_FLOAT"}}},
          {"name":"StatefulPartitionedCall/onnx_tf_prefix_generator/G_MODEL/C/r4/1/batchnorm/Rsqrt__221","op":"Reciprocal","input":["StatefulPartitionedCall/onnx_tf_prefix_generator/G_MODEL/C/r4/1/batchnorm/Rsqrt"],"attr":{"T":{"type":"DT_FLOAT"}}},
          {"name":"StatefulPartitionedCall/onnx_tf_prefix_generator/G_MODEL/C/r4/1/batchnorm/mul","op":"Mul","input":["StatefulPartitionedCall/onnx_tf_prefix_generator/G_MODEL/C/r4/1/batchnorm/Rsqrt__221","unknown_53"],"attr":{"T":{"type":"DT_FLOAT"}}},
          {"name":"StatefulPartitionedCall/onnx_tf_prefix_generator/G_MODEL/C/r4/1/batchnorm/mul_2","op":"Mul","input":["StatefulPartitionedCall/onnx_tf_prefix_generator/G_MODEL/C/r4/1/moments/mean","StatefulPartitionedCall/onnx_tf_prefix_generator/G_MODEL/C/r4/1/batchnorm/mul"],"attr":{"T":{"type":"DT_FLOAT"}}},
          {"name":"StatefulPartitionedCall/onnx_tf_prefix_generator/G_MODEL/C/r4/1/batchnorm/mul_1","op":"Mul","input":["StatefulPartitionedCall/transpose_50","StatefulPartitionedCall/onnx_tf_prefix_generator/G_MODEL/C/r4/1/batchnorm/mul"],"attr":{"T":{"type":"DT_FLOAT"}}},
          {"name":"StatefulPartitionedCall/onnx_tf_prefix_generator/G_MODEL/C/r4/1/batchnorm/sub","op":"Sub","input":["unknown_54","StatefulPartitionedCall/onnx_tf_prefix_generator/G_MODEL/C/r4/1/batchnorm/mul_2"],"attr":{"T":{"type":"DT_FLOAT"}}},
          {"name":"StatefulPartitionedCall/onnx_tf_prefix_generator/G_MODEL/C/r4/1/batchnorm/add_1","op":"AddV2","input":["StatefulPartitionedCall/onnx_tf_prefix_generator/G_MODEL/C/r4/1/batchnorm/mul_1","StatefulPartitionedCall/onnx_tf_prefix_generator/G_MODEL/C/r4/1/batchnorm/sub"],"attr":{"T":{"type":"DT_FLOAT"}}},
          {"name":"StatefulPartitionedCall/onnx_tf_prefix_generator/G_MODEL/C/r4/LeakyRelu_1","op":"LeakyRelu","input":["StatefulPartitionedCall/onnx_tf_prefix_generator/G_MODEL/C/r4/1/batchnorm/add_1"],"attr":{"alpha":{"f":0.2},"T":{"type":"DT_FLOAT"}}},
          {"name":"StatefulPartitionedCall/transpose_52","op":"Transpose","input":["StatefulPartitionedCall/onnx_tf_prefix_generator/G_MODEL/C/r4/LeakyRelu_1","StatefulPartitionedCall/transpose_52/perm"],"attr":{"T":{"type":"DT_FLOAT"},"Tperm":{"type":"DT_INT32"}}},
          {"name":"StatefulPartitionedCall/convolution_13","op":"Conv2D","input":["StatefulPartitionedCall/transpose_52","StatefulPartitionedCall/split_13"],"device":"/device:CPU:0","attr":{"strides":{"list":{"i":["1","1","1","1"]}},"data_format":{"s":"TkhXQw=="},"explicit_paddings":{"list":{}},"use_cudnn_on_gpu":{"b":true},"padding":{"s":"VkFMSUQ="},"T":{"type":"DT_FLOAT"},"dilations":{"list":{"i":["1","1","1","1"]}}}},
          {"name":"StatefulPartitionedCall/transpose_53","op":"Transpose","input":["StatefulPartitionedCall/convolution_13","StatefulPartitionedCall/transpose_53/perm"],"attr":{"Tperm":{"type":"DT_INT32"},"T":{"type":"DT_FLOAT"}}},
          {"name":"StatefulPartitionedCall/onnx_tf_prefix_generator/G_MODEL/C/r4/2/moments/mean","op":"Mean","input":["StatefulPartitionedCall/transpose_53","StatefulPartitionedCall/onnx_tf_prefix_generator/G_MODEL/C/r4/2/moments/mean/reduction_indices"],"attr":{"Tidx":{"type":"DT_INT32"},"T":{"type":"DT_FLOAT"},"keep_dims":{"b":true}}},
          {"name":"StatefulPartitionedCall/onnx_tf_prefix_generator/G_MODEL/C/r4/2/moments/SquaredDifference","op":"SquaredDifference","input":["StatefulPartitionedCall/transpose_53","StatefulPartitionedCall/onnx_tf_prefix_generator/G_MODEL/C/r4/2/moments/mean"],"attr":{"T":{"type":"DT_FLOAT"}}},
          {"name":"StatefulPartitionedCall/onnx_tf_prefix_generator/G_MODEL/C/r4/2/moments/variance","op":"Mean","input":["StatefulPartitionedCall/onnx_tf_prefix_generator/G_MODEL/C/r4/2/moments/SquaredDifference","StatefulPartitionedCall/onnx_tf_prefix_generator/G_MODEL/C/r4/2/moments/variance/reduction_indices"],"attr":{"T":{"type":"DT_FLOAT"},"keep_dims":{"b":true},"Tidx":{"type":"DT_INT32"}}},
          {"name":"StatefulPartitionedCall/onnx_tf_prefix_generator/G_MODEL/C/r4/2/batchnorm/add","op":"AddV2","input":["StatefulPartitionedCall/onnx_tf_prefix_generator/G_MODEL/C/r4/2/moments/variance","unknown_0"],"attr":{"T":{"type":"DT_FLOAT"}}},
          {"name":"StatefulPartitionedCall/onnx_tf_prefix_generator/G_MODEL/C/r4/2/batchnorm/Rsqrt","op":"Sqrt","input":["StatefulPartitionedCall/onnx_tf_prefix_generator/G_MODEL/C/r4/2/batchnorm/add"],"attr":{"T":{"type":"DT_FLOAT"}}},
          {"name":"StatefulPartitionedCall/onnx_tf_prefix_generator/G_MODEL/C/r4/2/batchnorm/Rsqrt__233","op":"Reciprocal","input":["StatefulPartitionedCall/onnx_tf_prefix_generator/G_MODEL/C/r4/2/batchnorm/Rsqrt"],"attr":{"T":{"type":"DT_FLOAT"}}},
          {"name":"StatefulPartitionedCall/onnx_tf_prefix_generator/G_MODEL/C/r4/2/batchnorm/mul","op":"Mul","input":["StatefulPartitionedCall/onnx_tf_prefix_generator/G_MODEL/C/r4/2/batchnorm/Rsqrt__233","unknown_56"],"attr":{"T":{"type":"DT_FLOAT"}}},
          {"name":"StatefulPartitionedCall/onnx_tf_prefix_generator/G_MODEL/C/r4/2/batchnorm/mul_2","op":"Mul","input":["StatefulPartitionedCall/onnx_tf_prefix_generator/G_MODEL/C/r4/2/moments/mean","StatefulPartitionedCall/onnx_tf_prefix_generator/G_MODEL/C/r4/2/batchnorm/mul"],"attr":{"T":{"type":"DT_FLOAT"}}},
          {"name":"StatefulPartitionedCall/onnx_tf_prefix_generator/G_MODEL/C/r4/2/batchnorm/mul_1","op":"Mul","input":["StatefulPartitionedCall/transpose_53","StatefulPartitionedCall/onnx_tf_prefix_generator/G_MODEL/C/r4/2/batchnorm/mul"],"attr":{"T":{"type":"DT_FLOAT"}}},
          {"name":"StatefulPartitionedCall/onnx_tf_prefix_generator/G_MODEL/C/r4/2/batchnorm/sub","op":"Sub","input":["unknown_57","StatefulPartitionedCall/onnx_tf_prefix_generator/G_MODEL/C/r4/2/batchnorm/mul_2"],"attr":{"T":{"type":"DT_FLOAT"}}},
          {"name":"StatefulPartitionedCall/onnx_tf_prefix_generator/G_MODEL/C/r4/2/batchnorm/add_1","op":"AddV2","input":["StatefulPartitionedCall/onnx_tf_prefix_generator/G_MODEL/C/r4/2/batchnorm/mul_1","StatefulPartitionedCall/onnx_tf_prefix_generator/G_MODEL/C/r4/2/batchnorm/sub"],"attr":{"T":{"type":"DT_FLOAT"}}},
          {"name":"StatefulPartitionedCall/onnx_tf_prefix_generator/G_MODEL/C/r4/add","op":"AddV2","input":["StatefulPartitionedCall/onnx_tf_prefix_generator/G_MODEL/C/r3/add","StatefulPartitionedCall/onnx_tf_prefix_generator/G_MODEL/C/r4/2/batchnorm/add_1"],"attr":{"T":{"type":"DT_FLOAT"}}},
          {"name":"StatefulPartitionedCall/cond_10","op":"StatelessIf","input":["StatefulPartitionedCall/All_10","StatefulPartitionedCall/Const_20","StatefulPartitionedCall/onnx_tf_prefix_generator/G_MODEL/C/r4/add"],"attr":{"else_branch":{"func":{"name":"__inference_cond_10_false_1213_1004"}},"Tout":{"list":{"type":["DT_FLOAT"]}},"output_shapes":{"list":{"shape":[{"dim":[{"size":"-1"},{"size":"-1"},{"size":"-1"},{"size":"-1"}]}]}},"_lower_using_switch_merge":{"b":false},"then_branch":{"func":{"name":"__inference_cond_10_true_1212_568"}},"Tin":{"list":{"type":["DT_INT32","DT_FLOAT"]}},"_read_only_resource_inputs":{"list":{}},"Tcond":{"type":"DT_BOOL"}}},
          {"name":"StatefulPartitionedCall/transpose_55","op":"Transpose","input":["StatefulPartitionedCall/cond_10","StatefulPartitionedCall/transpose_55/perm"],"attr":{"T":{"type":"DT_FLOAT"},"Tperm":{"type":"DT_INT32"}}},
          {"name":"StatefulPartitionedCall/convolution_14","op":"Conv2D","input":["StatefulPartitionedCall/transpose_55","StatefulPartitionedCall/split_14"],"device":"/device:CPU:0","attr":{"data_format":{"s":"TkhXQw=="},"use_cudnn_on_gpu":{"b":true},"dilations":{"list":{"i":["1","1","1","1"]}},"padding":{"s":"VkFMSUQ="},"strides":{"list":{"i":["1","1","1","1"]}},"T":{"type":"DT_FLOAT"},"explicit_paddings":{"list":{}}}},
          {"name":"StatefulPartitionedCall/transpose_56","op":"Transpose","input":["StatefulPartitionedCall/convolution_14","StatefulPartitionedCall/transpose_56/perm"],"attr":{"Tperm":{"type":"DT_INT32"},"T":{"type":"DT_FLOAT"}}},
          {"name":"StatefulPartitionedCall/onnx_tf_prefix_generator/G_MODEL/C/LayerNorm_1/moments/mean","op":"Mean","input":["StatefulPartitionedCall/transpose_56","StatefulPartitionedCall/onnx_tf_prefix_generator/G_MODEL/C/LayerNorm_1/moments/mean/reduction_indices"],"attr":{"T":{"type":"DT_FLOAT"},"Tidx":{"type":"DT_INT32"},"keep_dims":{"b":true}}},
          {"name":"StatefulPartitionedCall/onnx_tf_prefix_generator/G_MODEL/C/LayerNorm_1/moments/SquaredDifference","op":"SquaredDifference","input":["StatefulPartitionedCall/transpose_56","StatefulPartitionedCall/onnx_tf_prefix_generator/G_MODEL/C/LayerNorm_1/moments/mean"],"attr":{"T":{"type":"DT_FLOAT"}}},
          {"name":"StatefulPartitionedCall/onnx_tf_prefix_generator/G_MODEL/C/LayerNorm_1/moments/variance","op":"Mean","input":["StatefulPartitionedCall/onnx_tf_prefix_generator/G_MODEL/C/LayerNorm_1/moments/SquaredDifference","StatefulPartitionedCall/onnx_tf_prefix_generator/G_MODEL/C/LayerNorm_1/moments/variance/reduction_indices"],"attr":{"T":{"type":"DT_FLOAT"},"Tidx":{"type":"DT_INT32"},"keep_dims":{"b":true}}},
          {"name":"StatefulPartitionedCall/onnx_tf_prefix_generator/G_MODEL/C/LayerNorm_1/batchnorm/add","op":"AddV2","input":["StatefulPartitionedCall/onnx_tf_prefix_generator/G_MODEL/C/LayerNorm_1/moments/variance","unknown_0"],"attr":{"T":{"type":"DT_FLOAT"}}},
          {"name":"StatefulPartitionedCall/onnx_tf_prefix_generator/G_MODEL/C/LayerNorm_1/batchnorm/Rsqrt","op":"Sqrt","input":["StatefulPartitionedCall/onnx_tf_prefix_generator/G_MODEL/C/LayerNorm_1/batchnorm/add"],"attr":{"T":{"type":"DT_FLOAT"}}},
          {"name":"StatefulPartitionedCall/onnx_tf_prefix_generator/G_MODEL/C/LayerNorm_1/batchnorm/Rsqrt__245","op":"Reciprocal","input":["StatefulPartitionedCall/onnx_tf_prefix_generator/G_MODEL/C/LayerNorm_1/batchnorm/Rsqrt"],"attr":{"T":{"type":"DT_FLOAT"}}},
          {"name":"StatefulPartitionedCall/onnx_tf_prefix_generator/G_MODEL/C/LayerNorm_1/batchnorm/mul","op":"Mul","input":["StatefulPartitionedCall/onnx_tf_prefix_generator/G_MODEL/C/LayerNorm_1/batchnorm/Rsqrt__245","unknown_59"],"attr":{"T":{"type":"DT_FLOAT"}}},
          {"name":"StatefulPartitionedCall/onnx_tf_prefix_generator/G_MODEL/C/LayerNorm_1/batchnorm/mul_2","op":"Mul","input":["StatefulPartitionedCall/onnx_tf_prefix_generator/G_MODEL/C/LayerNorm_1/moments/mean","StatefulPartitionedCall/onnx_tf_prefix_generator/G_MODEL/C/LayerNorm_1/batchnorm/mul"],"attr":{"T":{"type":"DT_FLOAT"}}},
          {"name":"StatefulPartitionedCall/onnx_tf_prefix_generator/G_MODEL/C/LayerNorm_1/batchnorm/mul_1","op":"Mul","input":["StatefulPartitionedCall/transpose_56","StatefulPartitionedCall/onnx_tf_prefix_generator/G_MODEL/C/LayerNorm_1/batchnorm/mul"],"attr":{"T":{"type":"DT_FLOAT"}}},
          {"name":"StatefulPartitionedCall/onnx_tf_prefix_generator/G_MODEL/C/LayerNorm_1/batchnorm/sub","op":"Sub","input":["unknown_60","StatefulPartitionedCall/onnx_tf_prefix_generator/G_MODEL/C/LayerNorm_1/batchnorm/mul_2"],"attr":{"T":{"type":"DT_FLOAT"}}},
          {"name":"StatefulPartitionedCall/onnx_tf_prefix_generator/G_MODEL/C/LayerNorm_1/batchnorm/add_1","op":"AddV2","input":["StatefulPartitionedCall/onnx_tf_prefix_generator/G_MODEL/C/LayerNorm_1/batchnorm/mul_1","StatefulPartitionedCall/onnx_tf_prefix_generator/G_MODEL/C/LayerNorm_1/batchnorm/sub"],"attr":{"T":{"type":"DT_FLOAT"}}},
          {"name":"StatefulPartitionedCall/onnx_tf_prefix_generator/G_MODEL/C/LeakyRelu_1","op":"LeakyRelu","input":["StatefulPartitionedCall/onnx_tf_prefix_generator/G_MODEL/C/LayerNorm_1/batchnorm/add_1"],"attr":{"alpha":{"f":0.2},"T":{"type":"DT_FLOAT"}}},
          {"name":"StatefulPartitionedCall/Shape_22","op":"Shape","input":["StatefulPartitionedCall/onnx_tf_prefix_generator/G_MODEL/C/LeakyRelu_1"],"attr":{"T":{"type":"DT_FLOAT"},"out_type":{"type":"DT_INT64"}}},
          {"name":"StatefulPartitionedCall/onnx_tf_prefix_Shape__1351","op":"Shape","input":["StatefulPartitionedCall/onnx_tf_prefix_generator/G_MODEL/C/LeakyRelu_1"],"attr":{"T":{"type":"DT_FLOAT"},"out_type":{"type":"DT_INT64"}}},
          {"name":"StatefulPartitionedCall/onnx_tf_prefix_Gather__1355","op":"GatherV2","input":["StatefulPartitionedCall/onnx_tf_prefix_Shape__1351","unknown_61","StatefulPartitionedCall/onnx_tf_prefix_Gather__1355/axis"],"attr":{"Tindices":{"type":"DT_INT64"},"batch_dims":{"i":"0"},"Taxis":{"type":"DT_INT32"},"Tparams":{"type":"DT_INT64"}}},
          {"name":"StatefulPartitionedCall/onnx_tf_prefix_generator/G_MODEL/D/Shape_1__246","op":"Cast","input":["StatefulPartitionedCall/onnx_tf_prefix_Gather__1355"],"attr":{"SrcT":{"type":"DT_INT64"},"DstT":{"type":"DT_INT32"},"Truncate":{"b":false}}},
          {"name":"StatefulPartitionedCall/onnx_tf_prefix_Slice__259","op":"Slice","input":["StatefulPartitionedCall/onnx_tf_prefix_Gather__1355","StatefulPartitionedCall/onnx_tf_prefix_Slice__259/begin","StatefulPartitionedCall/onnx_tf_prefix_Slice__259/size"],"attr":{"Index":{"type":"DT_INT64"},"T":{"type":"DT_INT64"}}},
          {"name":"StatefulPartitionedCall/onnx_tf_prefix_generator/G_MODEL/D/strided_slice","op":"Slice","input":["StatefulPartitionedCall/onnx_tf_prefix_generator/G_MODEL/D/Shape_1__246","StatefulPartitionedCall/onnx_tf_prefix_generator/G_MODEL/D/strided_slice/begin","StatefulPartitionedCall/onnx_tf_prefix_generator/G_MODEL/D/strided_slice/size"],"attr":{"Index":{"type":"DT_INT64"},"T":{"type":"DT_INT32"}}},
          {"name":"StatefulPartitionedCall/onnx_tf_prefix_generator/G_MODEL/D/strided_slice_1","op":"Slice","input":["StatefulPartitionedCall/onnx_tf_prefix_generator/G_MODEL/D/Shape_1__246","StatefulPartitionedCall/onnx_tf_prefix_generator/G_MODEL/D/strided_slice_1/begin","StatefulPartitionedCall/onnx_tf_prefix_generator/G_MODEL/D/strided_slice_1/size"],"attr":{"Index":{"type":"DT_INT64"},"T":{"type":"DT_INT32"}}},
          {"name":"StatefulPartitionedCall/onnx_tf_prefix_Cast__260","op":"Cast","input":["StatefulPartitionedCall/onnx_tf_prefix_Slice__259"],"attr":{"SrcT":{"type":"DT_INT64"},"DstT":{"type":"DT_FLOAT"},"Truncate":{"b":false}}},
          {"name":"StatefulPartitionedCall/onnx_tf_prefix_generator/G_MODEL/D/strided_slice__249","op":"Squeeze","input":["StatefulPartitionedCall/onnx_tf_prefix_generator/G_MODEL/D/strided_slice"],"attr":{"squeeze_dims":{"list":{"i":["0"]}},"T":{"type":"DT_INT32"}}},
          {"name":"StatefulPartitionedCall/onnx_tf_prefix_generator/G_MODEL/D/strided_slice_1__247","op":"Squeeze","input":["StatefulPartitionedCall/onnx_tf_prefix_generator/G_MODEL/D/strided_slice_1"],"attr":{"T":{"type":"DT_INT32"},"squeeze_dims":{"list":{"i":["0"]}}}},
          {"name":"StatefulPartitionedCall/onnx_tf_prefix_generator/G_MODEL/D/mul","op":"Mul","input":["unknown_62","StatefulPartitionedCall/onnx_tf_prefix_generator/G_MODEL/D/strided_slice__249"],"attr":{"T":{"type":"DT_INT32"}}},
          {"name":"StatefulPartitionedCall/onnx_tf_prefix_generator/G_MODEL/D/mul_1","op":"Mul","input":["unknown_62","StatefulPartitionedCall/onnx_tf_prefix_generator/G_MODEL/D/strided_slice_1__247"],"attr":{"T":{"type":"DT_INT32"}}},
          {"name":"StatefulPartitionedCall/onnx_tf_prefix_generator/G_MODEL/D/resize/size_Unsqueeze__250","op":"ExpandDims","input":["StatefulPartitionedCall/onnx_tf_prefix_generator/G_MODEL/D/mul","StatefulPartitionedCall/onnx_tf_prefix_generator/G_MODEL/D/resize/size_Unsqueeze__250/dim"],"attr":{"T":{"type":"DT_INT32"},"Tdim":{"type":"DT_INT32"}}},
          {"name":"StatefulPartitionedCall/onnx_tf_prefix_generator/G_MODEL/D/resize/size_Unsqueeze__251","op":"ExpandDims","input":["StatefulPartitionedCall/onnx_tf_prefix_generator/G_MODEL/D/mul_1","StatefulPartitionedCall/onnx_tf_prefix_generator/G_MODEL/D/resize/size_Unsqueeze__251/dim"],"attr":{"T":{"type":"DT_INT32"},"Tdim":{"type":"DT_INT32"}}},
          {"name":"StatefulPartitionedCall/onnx_tf_prefix_generator/G_MODEL/D/resize/size_Concat__252","op":"ConcatV2","input":["StatefulPartitionedCall/onnx_tf_prefix_generator/G_MODEL/D/resize/size_Unsqueeze__250","StatefulPartitionedCall/onnx_tf_prefix_generator/G_MODEL/D/resize/size_Unsqueeze__251","StatefulPartitionedCall/onnx_tf_prefix_generator/G_MODEL/D/resize/size_Concat__252/axis"],"attr":{"N":{"i":"2"},"Tidx":{"type":"DT_INT32"},"T":{"type":"DT_INT32"}}},
          {"name":"StatefulPartitionedCall/onnx_tf_prefix_Cast__261","op":"Cast","input":["StatefulPartitionedCall/onnx_tf_prefix_generator/G_MODEL/D/resize/size_Concat__252"],"attr":{"Truncate":{"b":false},"SrcT":{"type":"DT_INT32"},"DstT":{"type":"DT_FLOAT"}}},
          {"name":"StatefulPartitionedCall/onnx_tf_prefix_Div__262","op":"RealDiv","input":["StatefulPartitionedCall/onnx_tf_prefix_Cast__261","StatefulPartitionedCall/onnx_tf_prefix_Cast__260"],"attr":{"T":{"type":"DT_FLOAT"}}},
          {"name":"StatefulPartitionedCall/onnx_tf_prefix_Concat__264","op":"ConcatV2","input":["unknown_63","StatefulPartitionedCall/onnx_tf_prefix_Div__262","StatefulPartitionedCall/onnx_tf_prefix_Concat__264/axis"],"attr":{"N":{"i":"2"},"T":{"type":"DT_FLOAT"},"Tidx":{"type":"DT_INT32"}}},
          {"name":"StatefulPartitionedCall/strided_slice_9","op":"StridedSlice","input":["StatefulPartitionedCall/onnx_tf_prefix_Concat__264","StatefulPartitionedCall/strided_slice_9/stack","StatefulPartitionedCall/strided_slice_9/stack_1","StatefulPartitionedCall/strided_slice_9/stack_2"],"attr":{"end_mask":{"i":"0"},"shrink_axis_mask":{"i":"1"},"new_axis_mask":{"i":"0"},"ellipsis_mask":{"i":"0"},"begin_mask":{"i":"0"},"T":{"type":"DT_FLOAT"},"Index":{"type":"DT_INT32"}}},
          {"name":"StatefulPartitionedCall/strided_slice_10","op":"StridedSlice","input":["StatefulPartitionedCall/onnx_tf_prefix_Concat__264","StatefulPartitionedCall/strided_slice_10/stack","StatefulPartitionedCall/strided_slice_10/stack_1","StatefulPartitionedCall/strided_slice_10/stack_2"],"attr":{"end_mask":{"i":"0"},"T":{"type":"DT_FLOAT"},"new_axis_mask":{"i":"0"},"Index":{"…
-1"},{"size":"32"},{"size":"-1"},{"size":"-1"}]}]}}}}}},{"signature":{"name":"__inference_cond_4_false_532_854","inputArg":[{"name":"cond_4_gatherv2_const_8","type":"DT_INT32"},{"name":"cond_4_shape_onnx_tf_prefix_generator_g_model_b_leakyrelu","type":"DT_FLOAT"}],"outputArg":[{"name":"cond_4_identity","type":"DT_FLOAT"}]},"nodeDef":[{"name":"__inference_cond_4_false_532_854/cond_4/range_1","op":"Const","attr":{"value":{"tensor":{"dtype":"DT_INT32","tensorShape":{"dim":[{"size":"4"}]}}},"dtype":{"type":"DT_INT32"}}},{"name":"__inference_cond_4_false_532_854/cond_4/GatherV2_1/axis","op":"Const","attr":{"dtype":{"type":"DT_INT32"},"value":{"tensor":{"dtype":"DT_INT32","tensorShape":{}}}}},{"name":"__inference_cond_4_false_532_854/cond_4/range","op":"Const","attr":{"value":{"tensor":{"dtype":"DT_INT32","tensorShape":{"dim":[{"size":"4"}]}}},"dtype":{"type":"DT_INT32"}}},{"name":"__inference_cond_4_false_532_854/cond_4/GatherV2/axis","op":"Const","attr":{"value":{"tensor":{"dtype":"DT_INT32","tensorShape":{}}},"dtype":{"type":"DT_INT32"}}},{"name":"cond_4/Shape","op":"Shape","input":["cond_4_shape_onnx_tf_prefix_generator_g_model_b_leakyrelu"],"attr":{"T":{"type":"DT_FLOAT"},"out_type":{"type":"DT_INT32"}}},{"name":"cond_4/GatherV2_1","op":"GatherV2","input":["cond_4_gatherv2_const_8","__inference_cond_4_false_532_854/cond_4/range_1:output:0","__inference_cond_4_false_532_854/cond_4/GatherV2_1/axis:output:0"],"attr":{"Taxis":{"type":"DT_INT32"},"Tindices":{"type":"DT_INT32"},"Tparams":{"type":"DT_INT32"},"batch_dims":{"i":"0"}}},{"name":"cond_4/GatherV2","op":"GatherV2","input":["cond_4_gatherv2_const_8","__inference_cond_4_false_532_854/cond_4/range:output:0","__inference_cond_4_false_532_854/cond_4/GatherV2/axis:output:0"],"attr":{"Tparams":{"type":"DT_INT32"},"Tindices":{"type":"DT_INT32"},"batch_dims":{"i":"0"},"Taxis":{"type":"DT_INT32"}}},{"name":"cond_4/add","op":"AddV2","input":["cond_4/Shape:output:0","cond_4/GatherV2_1:output:0"],"attr":{"T":{"type":"DT_INT32"}}},{"name":"cond_4/Neg","op":"Neg","input":["cond_4/GatherV2:output:0"],"attr":{"T":{"type":"DT_INT32"}}},{"name":"cond_4/sub","op":"AddV2","input":["cond_4/add:z:0","cond_4/GatherV2:output:0"],"attr":{"T":{"type":"DT_INT32"}}},{"name":"cond_4/Slice","op":"Slice","input":["cond_4_shape_onnx_tf_prefix_generator_g_model_b_leakyrelu","cond_4/Neg:y:0","cond_4/sub:z:0"],"attr":{"Index":{"type":"DT_INT32"},"T":{"type":"DT_FLOAT"}}}],"ret":{"cond_4_identity":"cond_4/Slice:output:0"},"attr":{"_construction_context":{"s":"a0VhZ2VyUnVudGltZQ=="}},"argAttr":{"0":{"attr":{"_output_shapes":{"list":{"shape":[{"dim":[{"size":"8"}]}]}}}},"1":{"attr":{"_output_shapes":{"list":{"shape":[{"dim":[{"size":"-1"},{"size":"128"},{"size":"-1"},{"size":"-1"}]}]}}}}}},{"signature":{"name":"__inference_cond_11_false_1455_664","inputArg":[{"name":"cond_11_gatherv2_const_22","type":"DT_INT32"},{"name":"cond_11_shape_transpose_58","type":"DT_FLOAT"}],"outputArg":[{"name":"cond_11_identity","type":"DT_FLOAT"}]},"nodeDef":[{"name":"__inference_cond_11_false_1455_664/cond_11/range_1","op":"Const","attr":{"dtype":{"type":"DT_INT32"},"value":{"tensor":{"dtype":"DT_INT32","tensorShape":{"dim":[{"size":"4"}]}}}}},{"name":"__inference_cond_11_false_1455_664/cond_11/GatherV2_1/axis","op":"Const","attr":{"dtype":{"type":"DT_INT32"},"value":{"tensor":{"dtype":"DT_INT32","tensorShape":{}}}}},{"name":"__inference_cond_11_false_1455_664/cond_11/range","op":"Const","attr":{"dtype":{"type":"DT_INT32"},"value":{"tensor":{"dtype":"DT_INT32","tensorShape":{"dim":[{"size":"4"}]}}}}},{"name":"__inference_cond_11_false_1455_664/cond_11/GatherV2/axis","op":"Const","attr":{"dtype":{"type":"DT_INT32"},"value":{"tensor":{"dtype":"DT_INT32","tensorShape":{}}}}},{"name":"cond_11/Shape","op":"Shape","input":["cond_11_shape_transpose_58"],"attr":{"T":{"type":"DT_FLOAT"},"out_type":{"type":"DT_INT32"}}},{"name":"cond_11/GatherV2_1","op":"GatherV2","input":["cond_11_gatherv2_const_22","__inference_cond_11_false_1455_664/cond_11/range_1:output:0","__inference_cond_11_false_1455_664/cond_11/GatherV2_1/axis:output:0"],"attr":{"batch_dims":{"i":"0"},"Taxis":{"type":"DT_INT32"},"Tparams":{"type":"DT_INT32"},"Tindices":{"type":"DT_INT32"}}},{"name":"cond_11/GatherV2","op":"GatherV2","input":["cond_11_gatherv2_const_22","__inference_cond_11_false_1455_664/cond_11/range:output:0","__inference_cond_11_false_1455_664/cond_11/GatherV2/axis:output:0"],"attr":{"Tparams":{"type":"DT_INT32"},"Tindices":{"type":"DT_INT32"},"Taxis":{"type":"DT_INT32"},"batch_dims":{"i":"0"}}},{"name":"cond_11/add","op":"AddV2","input":["cond_11/Shape:output:0","cond_11/GatherV2_1:output:0"],"attr":{"T":{"type":"DT_INT32"}}},{"name":"cond_11/Neg","op":"Neg","input":["cond_11/GatherV2:output:0"],"attr":{"T":{"type":"DT_INT32"}}},{"name":"cond_11/sub","op":"AddV2","input":["cond_11/add:z:0","cond_11/GatherV2:output:0"],"attr":{"T":{"type":"DT_INT32"}}},{"name":"cond_11/Slice","op":"Slice","input":["cond_11_shape_transpose_58","cond_11/Neg:y:0","cond_11/sub:z:0"],"attr":{"Index":{"type":"DT_INT32"},"T":{"type":"DT_FLOAT"}}}],"ret":{"cond_11_identity":"cond_11/Slice:output:0"},"attr":{"_construction_context":{"s":"a0VhZ2VyUnVudGltZQ=="}},"argAttr":{"0":{"attr":{"_output_shapes":{"list":{"shape":[{"dim":[{"size":"8"}]}]}}}},"1":{"attr":{"_output_shapes":{"list":{"shape":[{"dim":[{"size":"-1"},{"size":"128"},{"size":"-1"},{"size":"-1"}]}]}}}}}},{"signature":{"name":"__inference_cond_7_true_837_1034","inputArg":[{"name":"cond_7_reshape_const_14","type":"DT_INT32"},{"name":"cond_7_onnx_tf_prefix_generator_g_model_c_r2_mirrorpad_onnx_tf_prefix_generator_g_model_c_r2_leakyrelu","type":"DT_FLOAT"}],"outputArg":[{"name":"cond_7_identity","type":"DT_FLOAT"}]},"nodeDef":[{"name":"__inference_cond_7_true_837_1034/cond_7/Reshape/shape","op":"Const","attr":{"dtype":{"type":"DT_INT32"},"value":{"tensor":{"dtype":"DT_INT32","tensorShape":{"dim":[{"size":"2"}]}}}}},{"name":"__inference_cond_7_true_837_1034/cond_7/transpose/perm","op":"Const","attr":{"value":{"tensor":{"dtype":"DT_INT32","tensorShape":{"dim":[{"size":"2"}]}}},"dtype":{"type":"DT_INT32"}}},{"name":"cond_7/Reshape","op":"Reshape","input":["cond_7_reshape_const_14","__inference_cond_7_true_837_1034/cond_7/Reshape/shape:output:0"],"attr":{"T":{"type":"DT_INT32"},"Tshape":{"type":"DT_INT32"}}},{"name":"cond_7/transpose","op":"Transpose","input":["cond_7/Reshape:output:0","__inference_cond_7_true_837_1034/cond_7/transpose/perm:output:0"],"attr":{"T":{"type":"DT_INT32"},"Tperm":{"type":"DT_INT32"}}},{"name":"cond_7/onnx_tf_prefix_generator/G_MODEL/C/r2/MirrorPad","op":"MirrorPad","input":["cond_7_onnx_tf_prefix_generator_g_model_c_r2_mirrorpad_onnx_tf_prefix_generator_g_model_c_r2_leakyrelu","cond_7/transpose:y:0"],"attr":{"mode":{"s":"UkVGTEVDVA=="},"T":{"type":"DT_FLOAT"},"Tpaddings":{"type":"DT_INT32"}}}],"ret":{"cond_7_identity":"cond_7/onnx_tf_prefix_generator/G_MODEL/C/r2/MirrorPad:output:0"},"attr":{"_construction_context":{"s":"a0VhZ2VyUnVudGltZQ=="}},"argAttr":{"0":{"attr":{"_output_shapes":{"list":{"shape":[{"dim":[{"size":"8"}]}]}}}},"1":{"attr":{"_output_shapes":{"list":{"shape":[{"dim":[{"size":"-1"},{"size":"512"},{"size":"-1"},{"size":"-1"}]}]}}}}}},{"signature":{"name":"__inference_cond_4_true_531_744","inputArg":[{"name":"cond_4_reshape_const_8","type":"DT_INT32"},{"name":"cond_4_onnx_tf_prefix_generator_g_model_b_mirrorpad_1_onnx_tf_prefix_generator_g_model_b_leakyrelu","type":"DT_FLOAT"}],"outputArg":[{"name":"cond_4_identity","type":"DT_FLOAT"}]},"nodeDef":[{"name":"__inference_cond_4_true_531_744/cond_4/Reshape/shape","op":"Const","attr":{"value":{"tensor":{"dtype":"DT_INT32","tensorShape":{"dim":[{"size":"2"}]}}},"dtype":{"type":"DT_INT32"}}},{"name":"__inference_cond_4_true_531_744/cond_4/transpose/perm","op":"Const","attr":{"dtype":{"type":"DT_INT32"},"value":{"tensor":{"dtype":"DT_INT32","tensorShape":{"dim":[{"size":"2"}]}}}}},{"name":"cond_4/Reshape","op":"Reshape","input":["cond_4_reshape_const_8","__inference_cond_4_true_531_744/cond_4/Reshape/shape:output:0"],"attr":{"T":{"type":"DT_INT32"},"Tshape":{"type":"DT_INT32"}}},{"name":"cond_4/transpose","op":"Transpose","input":["cond_4/Reshape:output:0","__inference_cond_4_true_531_744/cond_4/transpose/perm:output:0"],"attr":{"Tperm":{"type":"DT_INT32"},"T":{"type":"DT_INT32"}}},{"name":"cond_4/onnx_tf_prefix_generator/G_MODEL/B/MirrorPad_1","op":"MirrorPad","input":["cond_4_onnx_tf_prefix_generator_g_model_b_mirrorpad_1_onnx_tf_prefix_generator_g_model_b_leakyrelu","cond_4/transpose:y:0"],"attr":{"T":{"type":"DT_FLOAT"},"mode":{"s":"UkVGTEVDVA=="},"Tpaddings":{"type":"DT_INT32"}}}],"ret":{"cond_4_identity":"cond_4/onnx_tf_prefix_generator/G_MODEL/B/MirrorPad_1:output:0"},"attr":{"_construction_context":{"s":"a0VhZ2VyUnVudGltZQ=="}},"argAttr":{"0":{"attr":{"_output_shapes":{"list":{"shape":[{"dim":[{"size":"8"}]}]}}}},"1":{"attr":{"_output_shapes":{"list":{"shape":[{"dim":[{"size":"-1"},{"size":"128"},{"size":"-1"},{"size":"-1"}]}]}}}}}},{"signature":{"name":"__inference_Assert_1_AssertGuard_false_1728_670","inputArg":[{"name":"assert_1_assertguard_assert_logicaland_1","type":"DT_BOOL"},{"name":"assert_1_assertguard_assert_onnx_tf_prefix_concat__310","type":"DT_FLOAT"}],"outputArg":[{"name":"assert_1_assertguard_identity_1","type":"DT_BOOL"}],"isStateful":true,"controlOutput":["Assert_1/AssertGuard/Assert"]},"nodeDef":[{"name":"Assert_1/AssertGuard/Assert","op":"NoOp","input":["^assert_1_assertguard_assert_logicaland_1","^assert_1_assertguard_assert_onnx_tf_prefix_concat__310"]},{"name":"Assert_1/AssertGuard/Identity_1","op":"Identity","input":["assert_1_assertguard_assert_logicaland_1","^assert_1_assertguard_assert_onnx_tf_prefix_concat__310"],"attr":{"T":{"type":"DT_BOOL"}}}],"ret":{"assert_1_assertguard_identity_1":"Assert_1/AssertGuard/Identity_1:output:0"},"attr":{"_construction_context":{"s":"a0VhZ2VyUnVudGltZQ=="}},"controlRet":{"Assert_1/AssertGuard/Assert":"Assert_1/AssertGuard/Assert"},"argAttr":{"0":{"attr":{"_output_shapes":{"list":{"shape":[{}]}}}},"1":{"attr":{"_output_shapes":{"list":{"shape":[{"dim":[{"size":"4"}]}]}}}}}},{"signature":{"name":"__inference_cond_14_false_1836_782","inputArg":[{"name":"cond_14_gatherv2_const_28","type":"DT_INT32"},{"name":"cond_14_shape_onnx_tf_prefix_generator_g_model_e_leakyrelu","type":"DT_FLOAT"}],"outputArg":[{"name":"cond_14_identity","type":"DT_FLOAT"}]},"nodeDef":[{"name":"__inference_cond_14_false_1836_782/cond_14/range_1","op":"Const","attr":{"dtype":{"type":"DT_INT32"},"value":{"tensor":{"dtype":"DT_INT32","tensorShape":{"dim":[{"size":"4"}]}}}}},{"name":"__inference_cond_14_false_1836_782/cond_14/GatherV2_1/axis","op":"Const","attr":{"dtype":{"type":"DT_INT32"},"value":{"tensor":{"dtype":"DT_INT32","tensorShape":{}}}}},{"name":"__inference_cond_14_false_1836_782/cond_14/range","op":"Const","attr":{"dtype":{"type":"DT_INT32"},"value":{"tensor":{"dtype":"DT_INT32","tensorShape":{"dim":[{"size":"4"}]}}}}},{"name":"__inference_cond_14_false_1836_782/cond_14/GatherV2/axis","op":"Const","attr":{"dtype":{"type":"DT_INT32"},"value":{"tensor":{"dtype":"DT_INT32","tensorShape":{}}}}},{"name":"cond_14/Shape","op":"Shape","input":["cond_14_shape_onnx_tf_prefix_generator_g_model_e_leakyrelu"],"attr":{"T":{"type":"DT_FLOAT"},"out_type":{"type":"DT_INT32"}}},{"name":"cond_14/GatherV2_1","op":"GatherV2","input":["cond_14_gatherv2_const_28","__inference_cond_14_false_1836_782/cond_14/range_1:output:0","__inference_cond_14_false_1836_782/cond_14/GatherV2_1/axis:output:0"],"attr":{"Taxis":{"type":"DT_INT32"},"batch_dims":{"i":"0"},"Tindices":{"type":"DT_INT32"},"Tparams":{"type":"DT_INT32"}}},{"name":"cond_14/GatherV2","op":"GatherV2","input":["cond_14_gatherv2_const_28","__inference_cond_14_false_1836_782/cond_14/range:output:0","__inference_cond_14_false_1836_782/cond_14/GatherV2/axis:output:0"],"attr":{"Taxis":{"type":"DT_INT32"},"Tparams":{"type":"DT_INT32"},"batch_dims":{"i":"0"},"Tindices":{"type":"DT_INT32"}}},{"name":"cond_14/add","op":"AddV2","input":["cond_14/Shape:output:0","cond_14/GatherV2_1:output:0"],"attr":{"T":{"type":"DT_INT32"}}},{"name":"cond_14/Neg","op":"Neg","input":["cond_14/GatherV2:output:0"],"attr":{"T":{"type":"DT_INT32"}}},{"name":"cond_14/sub","op":"AddV2","input":["cond_14/add:z:0","cond_14/GatherV2:output:0"],"attr":{"T":{"type":"DT_INT32"}}},{"name":"cond_14/Slice","op":"Slice","input":["cond_14_shape_onnx_tf_prefix_generator_g_model_e_leakyrelu","cond_14/Neg:y:0","cond_14/sub:z:0"],"attr":{"T":{"type":"DT_FLOAT"},"Index":{"type":"DT_INT32"}}}],"ret":{"cond_14_identity":"cond_14/Slice:output:0"},"attr":{"_construction_context":{"s":"a0VhZ2VyUnVudGltZQ=="}},"argAttr":{"0":{"attr":{"_output_shapes":{"list":{"shape":[{"dim":[{"size":"8"}]}]}}}},"1":{"attr":{"_output_shapes":{"list":{"shape":[{"dim":[{"size":"-1"},{"size":"64"},{"size":"-1"},{"size":"-1"}]}]}}}}}},{"signature":{"name":"__inference_cond_true_244_642","inputArg":[{"name":"cond_reshape_const","type":"DT_INT32"},{"name":"cond_onnx_tf_prefix_generator_g_model_a_mirrorpad_generator_input_tf_0_ee2363c7","type":"DT_FLOAT"}],"outputArg":[{"name":"cond_identity","type":"DT_FLOAT"}]},"nodeDef":[{"name":"__inference_cond_true_244_642/cond/Reshape/shape","op":"Const","attr":{"dtype":{"type":"DT_INT32"},"value":{"tensor":{"dtype":"DT_INT32","tensorShape":{"dim":[{"size":"2"}]}}}}},{"name":"__inference_cond_true_244_642/cond/transpose/perm","op":"Const","attr":{"value":{"tensor":{"dtype":"DT_INT32","tensorShape":{"dim":[{"size":"2"}]}}},"dtype":{"type":"DT_INT32"}}},{"name":"cond/Reshape","op":"Reshape","input":["cond_reshape_const","__inference_cond_true_244_642/cond/Reshape/shape:output:0"],"attr":{"T":{"type":"DT_INT32"},"Tshape":{"type":"DT_INT32"}}},{"name":"cond/transpose","op":"Transpose","input":["cond/Reshape:output:0","__inference_cond_true_244_642/cond/transpose/perm:output:0"],"attr":{"T":{"type":"DT_INT32"},"Tperm":{"type":"DT_INT32"}}},{"name":"cond/onnx_tf_prefix_generator/G_MODEL/A/MirrorPad","op":"MirrorPad","input":["cond_onnx_tf_prefix_generator_g_model_a_mirrorpad_generator_input_tf_0_ee2363c7","cond/transpose:y:0"],"attr":{"Tpaddings":{"type":"DT_INT32"},"T":{"type":"DT_FLOAT"},"mode":{"s":"UkVGTEVDVA=="}}}],"ret":{"cond_identity":"cond/onnx_tf_prefix_generator/G_MODEL/A/MirrorPad:output:0"},"attr":{"_construction_context":{"s":"a0VhZ2VyUnVudGltZQ=="}},"argAttr":{"0":{"attr":{"_output_shapes":{"list":{"shape":[{"dim":[{"size":"8"}]}]}}}},"1":{"attr":{"_output_shapes":{"list":{"shape":[{"dim":[{"size":"1"},{"size":"-1"},{"size":"-1"},{"size":"3"}]}]}}}}}},{"signature":{"name":"__inference_Assert_AssertGuard_false_1418_466","inputArg":[{"name":"assert_assertguard_assert_logicaland","type":"DT_BOOL"},{"name":"assert_assertguard_assert_onnx_tf_prefix_concat__264","type":"DT_FLOAT"}],"outputArg":[{"name":"assert_assertguard_identity_1","type":"DT_BOOL"}],"isStateful":true,"controlOutput":["Assert/AssertGuard/Assert"]},"nodeDef":[{"name":"Assert/AssertGuard/Assert","op":"NoOp","input":["^assert_assertguard_assert_logicaland","^assert_assertguard_assert_onnx_tf_prefix_concat__264"]},{"name":"Assert/AssertGuard/Identity_1","op":"Identity","input":["assert_assertguard_assert_logicaland","^assert_assertguard_assert_onnx_tf_prefix_concat__264"],"attr":{"T":{"type":"DT_BOOL"}}}],"ret":{"assert_assertguard_identity_1":"Assert/AssertGuard/Identity_1:output:0"},"attr":{"_construction_context":{"s":"a0VhZ2VyUnVudGltZQ=="}},"controlRet":{"Assert/AssertGuard/Assert":"Assert/AssertGuard/Assert"},"argAttr":{"0":{"attr":{"_output_shapes":{"list":{"shape":[{}]}}}},"1":{"attr":{"_output_shapes":{"list":{"shape":[{"dim":[{"size":"4"}]}]}}}}}},{"signature":{"name":"__inference_cond_5_true_602_950","inputArg":[{"name":"cond_5_reshape_const_10","type":"DT_INT32"},{"name":"cond_5_onnx_tf_prefix_generator_g_model_c_mirrorpad_onnx_tf_prefix_generator_g_model_b_leakyrelu_1","type":"DT_FLOAT"}],"outputArg":[{"name":"cond_5_identity","type":"DT_FLOAT"}]},"nodeDef":[{"name":"__inference_cond_5_true_602_950/cond_5/Reshape/shape","op":"Const","attr":{"dtype":{"type":"DT_INT32"},"value":{"tensor":{"dtype":"DT_INT32","tensorShape":{"dim":[{"size":"2"}]}}}}},{"name":"__inference_cond_5_true_602_950/cond_5/transpose/perm","op":"Const","attr":{"dtype":{"type":"DT_INT32"},"value":{"tensor":{"dtype":"DT_INT32","tensorShape":{"dim":[{"size":"2"}]}}}}},{"name":"cond_5/Reshape","op":"Reshape","input":["cond_5_reshape_const_10","__inference_cond_5_true_602_950/cond_5/Reshape/shape:output:0"],"attr":{"T":{"type":"DT_INT32"},"Tshape":{"type":"DT_INT32"}}},{"name":"cond_5/transpose","op":"Transpose","input":["cond_5/Reshape:output:0","__inference_cond_5_true_602_950/cond_5/transpose/perm:output:0"],"attr":{"T":{"type":"DT_INT32"},"Tperm":{"type":"DT_INT32"}}},{"name":"cond_5/onnx_tf_prefix_generator/G_MODEL/C/MirrorPad","op":"MirrorPad","input":["cond_5_onnx_tf_prefix_generator_g_model_c_mirrorpad_onnx_tf_prefix_generator_g_model_b_leakyrelu_1","cond_5/transpose:y:0"],"attr":{"T":{"type":"DT_FLOAT"},"Tpaddings":{"type":"DT_INT32"},"mode":{"s":"UkVGTEVDVA=="}}}],"ret":{"cond_5_identity":"cond_5/onnx_tf_prefix_generator/G_MODEL/C/MirrorPad:output:0"},"attr":{"_construction_context":{"s":"a0VhZ2VyUnVudGltZQ=="}},"argAttr":{"0":{"attr":{"_output_shapes":{"list":{"shape":[{"dim":[{"size":"8"}]}]}}}},"1":{"attr":{"_output_shapes":{"list":{"shape":[{"dim":[{"size":"-1"},{"size":"128"},{"size":"-1"},{"size":"-1"}]}]}}}}}}]
      },
      "versions":
      {
          "producer": 1087,
          "minConsumer": 12
      }
  },
  "weightsManifest":
  [
      {
          "paths": ["shinkai.bin"],
          "weights": [{"name":"unknown_78","shape":[1,32,1,1],"dtype":"float32"},{"name":"StatefulPartitionedCall/All_15","shape":[],"dtype":"bool"},{"name":"StatefulPartitionedCall/Const_30","shape":[8],"dtype":"int32"},{"name":"unknown_75","shape":[1,64,1,1],"dtype":"float32"},{"name":"StatefulPartitionedCall/All_14","shape":[],"dtype":"bool"},{"name":"StatefulPartitionedCall/Const_28","shape":[8],"dtype":"int32"},{"name":"unknown_72","shape":[1,64,1,1],"dtype":"float32"},{"name":"StatefulPartitionedCall/All_13","shape":[],"dtype":"bool"},{"name":"StatefulPartitionedCall/Const_26","shape":[8],"dtype":"int32"},{"name":"StatefulPartitionedCall/strided_slice_22/stack","shape":[1],"dtype":"int32"},{"name":"StatefulPartitionedCall/strided_slice_22/stack_1","shape":[1],"dtype":"int32"},{"name":"StatefulPartitionedCall/strided_slice_22/stack_2","shape":[1],"dtype":"int32"},{"name":"StatefulPartitionedCall/Equal_2/y","shape":[],"dtype":"float32"},{"name":"StatefulPartitionedCall/strided_slice_23/stack","shape":[1],"dtype":"int32"},{"name":"StatefulPartitionedCall/strided_slice_23/stack_1","shape":[1],"dtype":"int32"},{"name":"StatefulPartitionedCall/strided_slice_23/stack_2","shape":[1],"dtype":"int32"},{"name":"StatefulPartitionedCall/Equal_3/y","shape":[],"dtype":"float32"},{"name":"StatefulPartitionedCall/onnx_tf_prefix_generator/G_MODEL/E/strided_slice/begin","shape":[1],"dtype":"int32"},{"name":"StatefulPartitionedCall/onnx_tf_prefix_generator/G_MODEL/E/strided_slice/size","shape":[1],"dtype":"int32"},{"name":"StatefulPartitionedCall/onnx_tf_prefix_generator/G_MODEL/E/resize/size_Unsqueeze__296/dim","shape":[],"dtype":"int32"},{"name":"StatefulPartitionedCall/onnx_tf_prefix_generator/G_MODEL/E/strided_slice_1/begin","shape":[1],"dtype":"int32"},{"name":"StatefulPartitionedCall/onnx_tf_prefix_generator/G_MODEL/E/strided_slice_1/size","shape":[1],"dtype":"int32"},{"name":"StatefulPartitionedCall/onnx_tf_prefix_generator/G_MODEL/E/resize/size_Unsqueeze__297/dim","shape":[],"dtype":"int32"},{"name":"StatefulPartitionedCall/onnx_tf_prefix_generator/G_MODEL/E/resize/size_Concat__298/axis","shape":[],"dtype":"int32"},{"name":"unknown_69","shape":[1,128,1,1],"dtype":"float32"},{"name":"StatefulPartitionedCall/All_12","shape":[],"dtype":"bool"},{"name":"StatefulPartitionedCall/Const_24","shape":[8],"dtype":"int32"},{"name":"unknown_66","shape":[1,128,1,1],"dtype":"float32"},{"name":"StatefulPartitionedCall/All_11","shape":[],"dtype":"bool"},{"name":"StatefulPartitionedCall/Const_22","shape":[8],"dtype":"int32"},{"name":"StatefulPartitionedCall/strided_slice_9/stack","shape":[1],"dtype":"int32"},{"name":"StatefulPartitionedCall/strided_slice_9/stack_1","shape":[1],"dtype":"int32"},{"name":"StatefulPartitionedCall/strided_slice_9/stack_2","shape":[1],"dtype":"int32"},{"name":"StatefulPartitionedCall/Equal/y","shape":[],"dtype":"float32"},{"name":"StatefulPartitionedCall/strided_slice_10/stack","shape":[1],"dtype":"int32"},{"name":"StatefulPartitionedCall/strided_slice_10/stack_1","shape":[1],"dtype":"int32"},{"name":"StatefulPartitionedCall/strided_slice_10/stack_2","shape":[1],"dtype":"int32"},{"name":"StatefulPartitionedCall/Equal_1/y","shape":[],"dtype":"float32"},{"name":"unknown_63","shape":[2],"dtype":"float32"},{"name":"StatefulPartitionedCall/onnx_tf_prefix_generator/G_MODEL/D/strided_slice/begin","shape":[1],"dtype":"int32"},{"name":"StatefulPartitionedCall/onnx_tf_prefix_generator/G_MODEL/D/strided_slice/size","shape":[1],"dtype":"int32"},{"name":"StatefulPartitionedCall/onnx_tf_prefix_generator/G_MODEL/D/resize/size_Unsqueeze__250/dim","shape":[],"dtype":"int32"},{"name":"unknown_62","shape":[],"dtype":"int32"},{"name":"StatefulPartitionedCall/onnx_tf_prefix_generator/G_MODEL/D/strided_slice_1/begin","shape":[1],"dtype":"int32"},{"name":"StatefulPartitionedCall/onnx_tf_prefix_generator/G_MODEL/D/strided_slice_1/size","shape":[1],"dtype":"int32"},{"name":"StatefulPartitionedCall/onnx_tf_prefix_generator/G_MODEL/D/resize/size_Unsqueeze__251/dim","shape":[],"dtype":"int32"},{"name":"StatefulPartitionedCall/onnx_tf_prefix_generator/G_MODEL/D/resize/size_Concat__252/axis","shape":[],"dtype":"int32"},{"name":"unknown_60","shape":[1,128,1,1],"dtype":"float32"},{"name":"StatefulPartitionedCall/All_10","shape":[],"dtype":"bool"},{"name":"StatefulPartitionedCall/Const_20","shape":[8],"dtype":"int32"},{"name":"unknown_57","shape":[1,256,1,1],"dtype":"float32"},{"name":"unknown_54","shape":[1,512,1,1],"dtype":"float32"},{"name":"StatefulPartitionedCall/All_9","shape":[],"dtype":"bool"},{"name":"StatefulPartitionedCall/Const_18","shape":[8],"dtype":"int32"},{"name":"unknown_50","shape":[1,512,1,1],"dtype":"float32"},{"name":"unknown_47","shape":[1,256,1,1],"dtype":"float32"},{"name":"unknown_44","shape":[1,512,1,1],"dtype":"float32"},{"name":"StatefulPartitionedCall/All_8","shape":[],"dtype":"bool"},{"name":"StatefulPartitionedCall/Const_16","shape":[8],"dtype":"int32"},{"name":"unknown_40","shape":[1,512,1,1],"dtype":"float32"},{"name":"unknown_37","shape":[1,256,1,1],"dtype":"float32"},{"name":"unknown_34","shape":[1,512,1,1],"dtype":"float32"},{"name":"StatefulPartitionedCall/All_7","shape":[],"dtype":"bool"},{"name":"StatefulPartitionedCall/Const_14","shape":[8],"dtype":"int32"},{"name":"unknown_30","shape":[1,512,1,1],"dtype":"float32"},{"name":"unknown_27","shape":[1,256,1,1],"dtype":"float32"},{"name":"unknown_24","shape":[1,256,1,1],"dtype":"float32"},{"name":"StatefulPartitionedCall/All_6","shape":[],"dtype":"bool"},{"name":"StatefulPartitionedCall/Const_12","shape":[8],"dtype":"int32"},{"name":"unknown_20","shape":[1,256,1,1],"dtype":"float32"},{"name":"unknown_17","shape":[1,128,1,1],"dtype":"float32"},{"name":"StatefulPartitionedCall/All_5","shape":[],"dtype":"bool"},{"name":"StatefulPartitionedCall/Const_10","shape":[8],"dtype":"int32"},{"name":"unknown_14","shape":[1,128,1,1],"dtype":"float32"},{"name":"StatefulPartitionedCall/All_4","shape":[],"dtype":"bool"},{"name":"StatefulPartitionedCall/Const_8","shape":[8],"dtype":"int32"},{"name":"unknown_11","shape":[1,128,1,1],"dtype":"float32"},{"name":"StatefulPartitionedCall/All_3","shape":[],"dtype":"bool"},{"name":"StatefulPartitionedCall/Const_6","shape":[8],"dtype":"int32"},{"name":"unknown_8","shape":[1,64,1,1],"dtype":"float32"},{"name":"StatefulPartitionedCall/All_2","shape":[],"dtype":"bool"},{"name":"StatefulPartitionedCall/Const_4","shape":[8],"dtype":"int32"},{"name":"unknown_5","shape":[1,64,1,1],"dtype":"float32"},{"name":"StatefulPartitionedCall/All_1","shape":[],"dtype":"bool"},{"name":"StatefulPartitionedCall/Const_2","shape":[8],"dtype":"int32"},{"name":"unknown_2","shape":[1,32,1,1],"dtype":"float32"},{"name":"StatefulPartitionedCall/All","shape":[],"dtype":"bool"},{"name":"StatefulPartitionedCall/Const","shape":[8],"dtype":"int32"},{"name":"StatefulPartitionedCall/split","shape":[7,7,3,32],"dtype":"float32"},{"name":"StatefulPartitionedCall/transpose_2/perm","shape":[4],"dtype":"int32"},{"name":"StatefulPartitionedCall/onnx_tf_prefix_generator/G_MODEL/A/LayerNorm/moments/mean/reduction_indices","shape":[3],"dtype":"int32"},{"name":"StatefulPartitionedCall/onnx_tf_prefix_generator/G_MODEL/A/LayerNorm/moments/variance/reduction_indices","shape":[3],"dtype":"int32"},{"name":"unknown_1","shape":[1,32,1,1],"dtype":"float32"},{"name":"StatefulPartitionedCall/transpose_4/perm","shape":[4],"dtype":"int32"},{"name":"StatefulPartitionedCall/split_1","shape":[3,3,32,64],"dtype":"float32"},{"name":"StatefulPartitionedCall/transpose_5/perm","shape":[4],"dtype":"int32"},{"name":"StatefulPartitionedCall/onnx_tf_prefix_generator/G_MODEL/A/LayerNorm_1/moments/mean/reduction_indices","shape":[3],"dtype":"int32"},{"name":"StatefulPartitionedCall/onnx_tf_prefix_generator/G_MODEL/A/LayerNorm_1/moments/variance/reduction_indices","shape":[3],"dtype":"int32"},{"name":"unknown_4","shape":[1,64,1,1],"dtype":"float32"},{"name":"StatefulPartitionedCall/transpose_7/perm","shape":[4],"dtype":"int32"},{"name":"StatefulPartitionedCall/split_2","shape":[3,3,64,64],"dtype":"float32"},{"name":"StatefulPartitionedCall/transpose_8/perm","shape":[4],"dtype":"int32"},{"name":"StatefulPartitionedCall/onnx_tf_prefix_generator/G_MODEL/A/LayerNorm_2/moments/mean/reduction_indices","shape":[3],"dtype":"int32"},{"name":"StatefulPartitionedCall/onnx_tf_prefix_generator/G_MODEL/A/LayerNorm_2/moments/variance/reduction_indices","shape":[3],"dtype":"int32"},{"name":"unknown_7","shape":[1,64,1,1],"dtype":"float32"},{"name":"StatefulPartitionedCall/transpose_10/perm","shape":[4],"dtype":"int32"},{"name":"StatefulPartitionedCall/split_3","shape":[3,3,64,128],"dtype":"float32"},{"name":"StatefulPartitionedCall/transpose_11/perm","shape":[4],"dtype":"int32"},{"name":"StatefulPartitionedCall/onnx_tf_prefix_generator/G_MODEL/B/LayerNorm/moments/mean/reduction_indices","shape":[3],"dtype":"int32"},{"name":"StatefulPartitionedCall/onnx_tf_prefix_generator/G_MODEL/B/LayerNorm/moments/variance/reduction_indices","shape":[3],"dtype":"int32"},{"name":"unknown_10","shape":[1,128,1,1],"dtype":"float32"},{"name":"StatefulPartitionedCall/transpose_13/perm","shape":[4],"dtype":"int32"},{"name":"StatefulPartitionedCall/split_4","shape":[3,3,128,128],"dtype":"float32"},{"name":"StatefulPartitionedCall/transpose_14/perm","shape":[4],"dtype":"int32"},{"name":"StatefulPartitionedCall/onnx_tf_prefix_generator/G_MODEL/B/LayerNorm_1/moments/mean/reduction_indices","shape":[3],"dtype":"int32"},{"name":"StatefulPartitionedCall/onnx_tf_prefix_generator/G_MODEL/B/LayerNorm_1/moments/variance/reduction_indices","shape":[3],"dtype":"int32"},{"name":"unknown_13","shape":[1,128,1,1],"dtype":"float32"},{"name":"StatefulPartitionedCall/transpose_16/perm","shape":[4],"dtype":"int32"},{"name":"StatefulPartitionedCall/split_5","shape":[3,3,128,128],"dtype":"float32"},{"name":"StatefulPartitionedCall/transpose_17/perm","shape":[4],"dtype":"int32"},{"name":"StatefulPartitionedCall/onnx_tf_prefix_generator/G_MODEL/C/LayerNorm/moments/mean/reduction_indices","shape":[3],"dtype":"int32"},{"name":"StatefulPartitionedCall/onnx_tf_prefix_generator/G_MODEL/C/LayerNorm/moments/variance/reduction_indices","shape":[3],"dtype":"int32"},{"name":"unknown_16","shape":[1,128,1,1],"dtype":"float32"},{"name":"StatefulPartitionedCall/transpose_19/perm","shape":[4],"dtype":"int32"},{"name":"StatefulPartitionedCall/split_6","shape":[1,1,128,256],"dtype":"float32"},{"name":"StatefulPartitionedCall/transpose_20/perm","shape":[4],"dtype":"int32"},{"name":"StatefulPartitionedCall/onnx_tf_prefix_generator/G_MODEL/C/r1/LayerNorm/moments/mean/reduction_indices","shape":[3],"dtype":"int32"},{"name":"StatefulPartitionedCall/onnx_tf_prefix_generator/G_MODEL/C/r1/LayerNorm/moments/variance/reduction_indices","shape":[3],"dtype":"int32"},{"name":"unknown_19","shape":[1,256,1,1],"dtype":"float32"},{"name":"StatefulPartitionedCall/transpose_22/perm","shape":[4],"dtype":"int32"},{"name":"StatefulPartitionedCall/Reshape","shape":[3,3,256,1],"dtype":"float32"},{"name":"unknown_22","shape":[256],"dtype":"float32"},{"name":"StatefulPartitionedCall/transpose_23/perm","shape":[4],"dtype":"int32"},{"name":"StatefulPartitionedCall/onnx_tf_prefix_generator/G_MODEL/C/r1/1/moments/mean/reduction_indices","shape":[3],"dtype":"int32"},{"name":"StatefulPartitionedCall/onnx_tf_prefix_generator/G_MODEL/C/r1/1/moments/variance/reduction_indices","shape":[3],"dtype":"int32"},{"name":"unknown_23","shape":[1,256,1,1],"dtype":"float32"},{"name":"StatefulPartitionedCall/transpose_25/perm","shape":[4],"dtype":"int32"},{"name":"StatefulPartitionedCall/split_7","shape":[1,1,256,256],"dtype":"float32"},{"name":"StatefulPartitionedCall/transpose_26/perm","shape":[4],"dtype":"int32"},{"name":"StatefulPartitionedCall/onnx_tf_prefix_generator/G_MODEL/C/r1/2/moments/mean/reduction_indices","shape":[3],"dtype":"int32"},{"name":"StatefulPartitionedCall/onnx_tf_prefix_generator/G_MODEL/C/r1/2/moments/variance/reduction_indices","shape":[3],"dtype":"int32"},{"name":"unknown_26","shape":[1,256,1,1],"dtype":"float32"},{"name":"StatefulPartitionedCall/transpose_28/perm","shape":[4],"dtype":"int32"},{"name":"StatefulPartitionedCall/split_8","shape":[1,1,256,512],"dtype":"float32"},{"name":"StatefulPartitionedCall/transpose_29/perm","shape":[4],"dtype":"int32"},{"name":"StatefulPartitionedCall/onnx_tf_prefix_generator/G_MODEL/C/r2/LayerNorm/moments/mean/reduction_indices","shape":[3],"dtype":"int32"},{"name":"StatefulPartitionedCall/onnx_tf_prefix_generator/G_MODEL/C/r2/LayerNorm/moments/variance/reduction_indices","shape":[3],"dtype":"int32"},{"name":"unknown_29","shape":[1,512,1,1],"dtype":"float32"},{"name":"StatefulPartitionedCall/transpose_31/perm","shape":[4],"dtype":"int32"},{"name":"StatefulPartitionedCall/Reshape_1","shape":[3,3,512,1],"dtype":"float32"},{"name":"unknown_32","shape":[512],"dtype":"float32"},{"name":"StatefulPartitionedCall/transpose_32/perm","shape":[4],"dtype":"int32"},{"name":"StatefulPartitionedCall/onnx_tf_prefix_generator/G_MODEL/C/r2/1/moments/mean/reduction_indices","shape":[3],"dtype":"int32"},{"name":"StatefulPartitionedCall/onnx_tf_prefix_generator/G_MODEL/C/r2/1/moments/variance/reduction_indices","shape":[3],"dtype":"int32"},{"name":"unknown_33","shape":[1,512,1,1],"dtype":"float32"},{"name":"StatefulPartitionedCall/transpose_34/perm","shape":[4],"dtype":"int32"},{"name":"StatefulPartitionedCall/split_9","shape":[1,1,512,256],"dtype":"float32"},{"name":"StatefulPartitionedCall/transpose_35/perm","shape":[4],"dtype":"int32"},{"name":"StatefulPartitionedCall/onnx_tf_prefix_generator/G_MODEL/C/r2/2/moments/mean/reduction_indices","shape":[3],"dtype":"int32"},{"name":"StatefulPartitionedCall/onnx_tf_prefix_generator/G_MODEL/C/r2/2/moments/variance/reduction_indices","shape":[3],"dtype":"int32"},{"name":"unknown_36","shape":[1,256,1,1],"dtype":"float32"},{"name":"StatefulPartitionedCall/transpose_37/perm","shape":[4],"dtype":"int32"},{"name":"StatefulPartitionedCall/split_10","shape":[1,1,256,512],"dtype":"float32"},{"name":"StatefulPartitionedCall/transpose_38/perm","shape":[4],"dtype":"int32"},{"name":"StatefulPartitionedCall/onnx_tf_prefix_generator/G_MODEL/C/r3/LayerNorm/moments/mean/reduction_indices","shape":[3],"dtype":"int32"},{"name":"StatefulPartitionedCall/onnx_tf_prefix_generator/G_MODEL/C/r3/LayerNorm/moments/variance/reduction_indices","shape":[3],"dtype":"int32"},{"name":"unknown_39","shape":[1,512,1,1],"dtype":"float32"},{"name":"StatefulPartitionedCall/transpose_40/perm","shape":[4],"dtype":"int32"},{"name":"StatefulPartitionedCall/Reshape_2","shape":[3,3,512,1],"dtype":"float32"},{"name":"unknown_42","shape":[512],"dtype":"float32"},{"name":"StatefulPartitionedCall/transpose_41/perm","shape":[4],"dtype":"int32"},{"name":"StatefulPartitionedCall/onnx_tf_prefix_generator/G_MODEL/C/r3/1/moments/mean/reduction_indices","shape":[3],"dtype":"int32"},{"name":"StatefulPartitionedCall/onnx_tf_prefix_generator/G_MODEL/C/r3/1/moments/variance/reduction_indices","shape":[3],"dtype":"int32"},{"name":"unknown_43","shape":[1,512,1,1],"dtype":"float32"},{"name":"StatefulPartitionedCall/transpose_43/perm","shape":[4],"dtype":"int32"},{"name":"StatefulPartitionedCall/split_11","shape":[1,1,512,256],"dtype":"float32"},{"name":"StatefulPartitionedCall/transpose_44/perm","shape":[4],"dtype":"int32"},{"name":"StatefulPartitionedCall/onnx_tf_prefix_generator/G_MODEL/C/r3/2/moments/mean/reduction_indices","shape":[3],"dtype":"int32"},{"name":"StatefulPartitionedCall/onnx_tf_prefix_generator/G_MODEL/C/r3/2/moments/variance/reduction_indices","shape":[3],"dtype":"int32"},{"name":"unknown_46","shape":[1,256,1,1],"dtype":"float32"},{"name":"StatefulPartitionedCall/transpose_46/perm","shape":[4],"dtype":"int32"},{"name":"StatefulPartitionedCall/split_12","shape":[1,1,256,512],"dtype":"float32"},{"name":"StatefulPartitionedCall/transpose_47/perm","shape":[4],"dtype":"int32"},{"name":"StatefulPartitionedCall/onnx_tf_prefix_generator/G_MODEL/C/r4/LayerNorm/moments/mean/reduction_indices","shape":[3],"dtype":"int32"},{"name":"StatefulPartitionedCall/onnx_tf_prefix_generator/G_MODEL/C/r4/LayerNorm/moments/variance/reduction_indices","shape":[3],"dtype":"int32"},{"name":"unknown_49","shape":[1,512,1,1],"dtype":"float32"},{"name":"StatefulPartitionedCall/transpose_49/perm","shape":[4],"dtype":"int32"},{"name":"StatefulPartitionedCall/Reshape_3","shape":[3,3,512,1],"dtype":"float32"},{"name":"unknown_52","shape":[512],"dtype":"float32"},{"name":"StatefulPartitionedCall/transpose_50/perm","shape":[4],"dtype":"int32"},{"name":"StatefulPartitionedCall/onnx_tf_prefix_generator/G_MODEL/C/r4/1/moments/mean/reduction_indices","shape":[3],"dtype":"int32"},{"name":"StatefulPartitionedCall/onnx_tf_prefix_generator/G_MODEL/C/r4/1/moments/variance/reduction_indices","shape":[3],"dtype":"int32"},{"name":"unknown_53","shape":[1,512,1,1],"dtype":"float32"},{"name":"StatefulPartitionedCall/transpose_52/perm","shape":[4],"dtype":"int32"},{"name":"StatefulPartitionedCall/split_13","shape":[1,1,512,256],"dtype":"float32"},{"name":"StatefulPartitionedCall/transpose_53/perm","shape":[4],"dtype":"int32"},{"name":"StatefulPartitionedCall/onnx_tf_prefix_generator/G_MODEL/C/r4/2/moments/mean/reduction_indices","shape":[3],"dtype":"int32"},{"name":"StatefulPartitionedCall/onnx_tf_prefix_generator/G_MODEL/C/r4/2/moments/variance/reduction_indices","shape":[3],"dtype":"int32"},{"name":"unknown_56","shape":[1,256,1,1],"dtype":"float32"},{"name":"StatefulPartitionedCall/transpose_55/perm","shape":[4],"dtype":"int32"},{"name":"StatefulPartitionedCall/split_14","shape":[3,3,256,128],"dtype":"float32"},{"name":"StatefulPartitionedCall/transpose_56/perm","shape":[4],"dtype":"int32"},{"name":"StatefulPartitionedCall/onnx_tf_prefix_generator/G_MODEL/C/LayerNorm_1/moments/mean/reduction_indices","shape":[3],"dtype":"int32"},{"name":"StatefulPartitionedCall/onnx_tf_prefix_generator/G_MODEL/C/LayerNorm_1/moments/variance/reduction_indices","shape":[3],"dtype":"int32"},{"name":"unknown_59","shape":[1,128,1,1],"dtype":"float32"},{"name":"StatefulPartitionedCall/onnx_tf_prefix_Gather__1355/axis","shape":[],"dtype":"int32"},{"name":"StatefulPartitionedCall/onnx_tf_prefix_Slice__259/begin","shape":[1],"dtype":"int32"},{"name":"StatefulPartitionedCall/onnx_tf_prefix_Slice__259/size","shape":[1],"dtype":"int32"},{"name":"StatefulPartitionedCall/onnx_tf_prefix_Concat__264/axis","shape":[],"dtype":"int32"},{"name":"StatefulPartitionedCall/transpose_60/perm","shape":[4],"dtype":"int32"},{"name":"StatefulPartitionedCall/split_15","shape":[3,3,128,128],"dtype":"float32"},{"name":"StatefulPartitionedCall/transpose_61/perm","shape":[4],"dtype":"int32"},{"name":"StatefulPartitionedCall/onnx_tf_prefix_generator/G_MODEL/D/LayerNorm/moments/mean/reduction_indices","shape":[3],"dtype":"int32"},{"name":"StatefulPartitionedCall/onnx_tf_prefix_generator/G_MODEL/D/LayerNorm/moments/variance/reduction_indices","shape":[3],"dtype":"int32"},{"name":"unknown_65","shape":[1,128,1,1],"dtype":"float32"},{"name":"StatefulPartitionedCall/transpose_63/perm","shape":[4],"dtype":"int32"},{"name":"StatefulPartitionedCall/split_16","shape":[3,3,128,128],"dtype":"float32"},{"name":"StatefulPartitionedCall/transpose_64/perm","shape":[4],"dtype":"int32"},{"name":"StatefulPartitionedCall/onnx_tf_prefix_generator/G_MODEL/D/LayerNorm_1/moments/mean/reduction_indices","shape":[3],"dtype":"int32"},{"name":"StatefulPartitionedCall/onnx_tf_prefix_generator/G_MODEL/D/LayerNorm_1/moments/variance/reduction_indices","shape":[3],"dtype":"int32"},{"name":"unknown_68","shape":[1,128,1,1],"dtype":"float32"},{"name":"unknown_61","shape":[4],"dtype":"int32"},{"name":"StatefulPartitionedCall/onnx_tf_prefix_Gather__1370/axis","shape":[],"dtype":"int32"},{"name":"StatefulPartitionedCall/onnx_tf_prefix_Slice__305/begin","shape":[1],"dtype":"int32"},{"name":"StatefulPartitionedCall/onnx_tf_prefix_Slice__305/size","shape":[1],"dtype":"int32"},{"name":"StatefulPartitionedCall/onnx_tf_prefix_Concat__310/axis","shape":[],"dtype":"int32"},{"name":"StatefulPartitionedCall/transpose_68/perm","shape":[4],"dtype":"int32"},{"name":"StatefulPartitionedCall/split_17","shape":[3,3,128,64],"dtype":"float32"},{"name":"StatefulPartitionedCall/transpose_69/perm","shape":[4],"dtype":"int32"},{"name":"StatefulPartitionedCall/onnx_tf_prefix_generator/G_MODEL/E/LayerNorm/moments/mean/reduction_indices","shape":[3],"dtype":"int32"},{"name":"StatefulPartitionedCall/onnx_tf_prefix_generator/G_MODEL/E/LayerNorm/moments/variance/reduction_indices","shape":[3],"dtype":"int32"},{"name":"unknown_71","shape":[1,64,1,1],"dtype":"float32"},{"name":"StatefulPartitionedCall/transpose_71/perm","shape":[4],"dtype":"int32"},{"name":"StatefulPartitionedCall/split_18","shape":[3,3,64,64],"dtype":"float32"},{"name":"StatefulPartitionedCall/transpose_72/perm","shape":[4],"dtype":"int32"},{"name":"StatefulPartitionedCall/onnx_tf_prefix_generator/G_MODEL/E/LayerNorm_1/moments/mean/reduction_indices","shape":[3],"dtype":"int32"},{"name":"StatefulPartitionedCall/onnx_tf_prefix_generator/G_MODEL/E/LayerNorm_1/moments/variance/reduction_indices","shape":[3],"dtype":"int32"},{"name":"unknown_74","shape":[1,64,1,1],"dtype":"float32"},{"name":"StatefulPartitionedCall/transpose_74/perm","shape":[4],"dtype":"int32"},{"name":"StatefulPartitionedCall/split_19","shape":[7,7,64,32],"dtype":"float32"},{"name":"StatefulPartitionedCall/transpose_75/perm","shape":[4],"dtype":"int32"},{"name":"StatefulPartitionedCall/onnx_tf_prefix_generator/G_MODEL/E/LayerNorm_2/moments/mean/reduction_indices","shape":[3],"dtype":"int32"},{"name":"StatefulPartitionedCall/onnx_tf_prefix_generator/G_MODEL/E/LayerNorm_2/moments/variance/reduction_indices","shape":[3],"dtype":"int32"},{"name":"unknown_0","shape":[1,1,1,1],"dtype":"float32"},{"name":"unknown_77","shape":[1,32,1,1],"dtype":"float32"},{"name":"StatefulPartitionedCall/transpose_77/perm","shape":[4],"dtype":"int32"},{"name":"StatefulPartitionedCall/split_20","shape":[1,1,32,3],"dtype":"float32"},{"name":"StatefulPartitionedCall/transpose_78/perm","shape":[4],"dtype":"int32"},{"name":"StatefulPartitionedCall/onnx_tf_prefix_generator/G_MODEL/out_layer/Conv/Conv2D__353/perm","shape":[4],"dtype":"int32"},{"name":"StatefulPartitionedCall/transpose_57/perm","shape":[4],"dtype":"int32"},{"name":"StatefulPartitionedCall/strided_slice_11/stack","shape":[1],"dtype":"int32"},{"name":"StatefulPartitionedCall/strided_slice_11/stack_1","shape":[1],"dtype":"int32"},{"name":"StatefulPartitionedCall/strided_slice_11/stack_2","shape":[1],"dtype":"int32"},{"name":"StatefulPartitionedCall/strided_slice_12/stack","shape":[1],"dtype":"int32"},{"name":"StatefulPartitionedCall/strided_slice_12/stack_1","shape":[1],"dtype":"int32"},{"name":"StatefulPartitionedCall/strided_slice_12/stack_2","shape":[1],"dtype":"int32"},{"name":"StatefulPartitionedCall/transpose_58/perm","shape":[4],"dtype":"int32"},{"name":"StatefulPartitionedCall/transpose_65/perm","shape":[4],"dtype":"int32"},{"name":"StatefulPartitionedCall/strided_slice_24/stack","shape":[1],"dtype":"int32"},{"name":"StatefulPartitionedCall/strided_slice_24/stack_1","shape":[1],"dtype":"int32"},{"name":"StatefulPartitionedCall/strided_slice_24/stack_2","shape":[1],"dtype":"int32"},{"name":"StatefulPartitionedCall/strided_slice_25/stack","shape":[1],"dtype":"int32"},{"name":"StatefulPartitionedCall/strided_slice_25/stack_1","shape":[1],"dtype":"int32"},{"name":"StatefulPartitionedCall/strided_slice_25/stack_2","shape":[1],"dtype":"int32"},{"name":"StatefulPartitionedCall/transpose_66/perm","shape":[4],"dtype":"int32"},{"name":"__inference_cond_15_false_1907_940/cond_15/range_1","shape":[4],"dtype":"int32"},{"name":"__inference_cond_15_false_1907_940/cond_15/GatherV2_1/axis","shape":[],"dtype":"int32"},{"name":"__inference_cond_15_false_1907_940/cond_15/range","shape":[4],"dtype":"int32"},{"name":"__inference_cond_15_false_1907_940/cond_15/GatherV2/axis","shape":[],"dtype":"int32"},{"name":"__inference_cond_5_false_603_55/cond_5/range_1","shape":[4],"dtype":"int32"},{"name":"__inference_cond_5_false_603_55/cond_5/GatherV2_1/axis","shape":[],"dtype":"int32"},{"name":"__inference_cond_5_false_603_55/cond_5/range","shape":[4],"dtype":"int32"},{"name":"__inference_cond_5_false_603_55/cond_5/GatherV2/axis","shape":[],"dtype":"int32"},{"name":"__inference_cond_3_false_461_348/cond_3/range_1","shape":[4],"dtype":"int32"},{"name":"__inference_cond_3_false_461_348/cond_3/GatherV2_1/axis","shape":[],"dtype":"int32"},{"name":"__inference_cond_3_false_461_348/cond_3/range","shape":[4],"dtype":"int32"},{"name":"__inference_cond_3_false_461_348/cond_3/GatherV2/axis","shape":[],"dtype":"int32"},{"name":"__inference_cond_13_false_1765_326/cond_13/range_1","shape":[4],"dtype":"int32"},{"name":"__inference_cond_13_false_1765_326/cond_13/GatherV2_1/axis","shape":[],"dtype":"int32"},{"name":"__inference_cond_13_false_1765_326/cond_13/range","shape":[4],"dtype":"int32"},{"name":"__inference_cond_13_false_1765_326/cond_13/GatherV2/axis","shape":[],"dtype":"int32"},{"name":"__inference_cond_12_true_1525_814/cond_12/Reshape/shape","shape":[2],"dtype":"int32"},{"name":"__inference_cond_12_true_1525_814/cond_12/transpose/perm","shape":[2],"dtype":"int32"},{"name":"__inference_cond_10_false_1213_1004/cond_10/range_1","shape":[4],"dtype":"int32"},{"name":"__inference_cond_10_false_1213_1004/cond_10/GatherV2_1/axis","shape":[],"dtype":"int32"},{"name":"__inference_cond_10_false_1213_1004/cond_10/range","shape":[4],"dtype":"int32"},{"name":"__inference_cond_10_false_1213_1004/cond_10/GatherV2/axis","shape":[],"dtype":"int32"},{"name":"__inference_cond_11_true_1454_960/cond_11/Reshape/shape","shape":[2],"dtype":"int32"},{"name":"__inference_cond_11_true_1454_960/cond_11/transpose/perm","shape":[2],"dtype":"int32"},{"name":"__inference_cond_7_false_838_600/cond_7/range_1","shape":[4],"dtype":"int32"},{"name":"__inference_cond_7_false_838_600/cond_7/GatherV2_1/axis","shape":[],"dtype":"int32"},{"name":"__inference_cond_7_false_838_600/cond_7/range","shape":[4],"dtype":"int32"},{"name":"__inference_cond_7_false_838_600/cond_7/GatherV2/axis","shape":[],"dtype":"int32"},{"name":"__inference_cond_2_false_390_1088/cond_2/range_1","shape":[4],"dtype":"int32"},{"name":"__inference_cond_2_false_390_1088/cond_2/GatherV2_1/axis","shape":[],"dtype":"int32"},{"name":"__inference_cond_2_false_390_1088/cond_2/range","shape":[4],"dtype":"int32"},{"name":"__inference_cond_2_false_390_1088/cond_2/GatherV2/axis","shape":[],"dtype":"int32"},{"name":"__inference_cond_15_true_1906_400/cond_15/Reshape/shape","shape":[2],"dtype":"int32"},{"name":"__inference_cond_15_true_1906_400/cond_15/transpose/perm","shape":[2],"dtype":"int32"},{"name":"__inference_cond_10_true_1212_568/cond_10/Reshape/shape","shape":[2],"dtype":"int32"},{"name":"__inference_cond_10_true_1212_568/cond_10/transpose/perm","shape":[2],"dtype":"int32"},{"name":"__inference_cond_8_false_973_692/cond_8/range_1","shape":[4],"dtype":"int32"},{"name":"__inference_cond_8_false_973_692/cond_8/GatherV2_1/axis","shape":[],"dtype":"int32"},{"name":"__inference_cond_8_false_973_692/cond_8/range","shape":[4],"dtype":"int32"},{"name":"__inference_cond_8_false_973_692/cond_8/GatherV2/axis","shape":[],"dtype":"int32"},{"name":"__inference_cond_9_false_1108_236/cond_9/range_1","shape":[4],"dtype":"int32"},{"name":"__inference_cond_9_false_1108_236/cond_9/GatherV2_1/axis","shape":[],"dtype":"int32"},{"name":"__inference_cond_9_false_1108_236/cond_9/range","shape":[4],"dtype":"int32"},{"name":"__inference_cond_9_false_1108_236/cond_9/GatherV2/axis","shape":[],"dtype":"int32"},{"name":"__inference_cond_2_true_389_1014/cond_2/Reshape/shape","shape":[2],"dtype":"int32"},{"name":"__inference_cond_2_true_389_1014/cond_2/transpose/perm","shape":[2],"dtype":"int32"},{"name":"__inference_cond_8_true_972_552/cond_8/Reshape/shape","shape":[2],"dtype":"int32"},{"name":"__inference_cond_8_true_972_552/cond_8/transpose/perm","shape":[2],"dtype":"int32"},{"name":"__inference_cond_1_true_318_864/cond_1/Reshape/shape","shape":[2],"dtype":"int32"},{"name":"__inference_cond_1_true_318_864/cond_1/transpose/perm","shape":[2],"dtype":"int32"},{"name":"__inference_cond_9_true_1107_380/cond_9/Reshape/shape","shape":[2],"dtype":"int32"},{"name":"__inference_cond_9_true_1107_380/cond_9/transpose/perm","shape":[2],"dtype":"int32"},{"name":"__inference_cond_false_245_169/cond/range_1","shape":[4],"dtype":"int32"},{"name":"__inference_cond_false_245_169/cond/GatherV2_1/axis","shape":[],"dtype":"int32"},{"name":"__inference_cond_false_245_169/cond/range","shape":[4],"dtype":"int32"},{"name":"__inference_cond_false_245_169/cond/GatherV2/axis","shape":[],"dtype":"int32"},{"name":"__inference_cond_13_true_1764_754/cond_13/Reshape/shape","shape":[2],"dtype":"int32"},{"name":"__inference_cond_13_true_1764_754/cond_13/transpose/perm","shape":[2],"dtype":"int32"},{"name":"__inference_cond_14_true_1835_33/cond_14/Reshape/shape","shape":[2],"dtype":"int32"},{"name":"__inference_cond_14_true_1835_33/cond_14/transpose/perm","shape":[2],"dtype":"int32"},{"name":"__inference_cond_6_true_703_390/cond_6/Reshape/shape","shape":[2],"dtype":"int32"},{"name":"__inference_cond_6_true_703_390/cond_6/transpose/perm","shape":[2],"dtype":"int32"},{"name":"__inference_cond_12_false_1526_208/cond_12/range_1","shape":[4],"dtype":"int32"},{"name":"__inference_cond_12_false_1526_208/cond_12/GatherV2_1/axis","shape":[],"dtype":"int32"},{"name":"__inference_cond_12_false_1526_208/cond_12/range","shape":[4],"dtype":"int32"},{"name":"__inference_cond_12_false_1526_208/cond_12/GatherV2/axis","shape":[],"dtype":"int32"},{"name":"__inference_cond_3_true_460_918/cond_3/Reshape/shape","shape":[2],"dtype":"int32"},{"name":"__inference_cond_3_true_460_918/cond_3/transpose/perm","shape":[2],"dtype":"int32"},{"name":"__inference_cond_6_false_704_23/cond_6/range_1","shape":[4],"dtype":"int32"},{"name":"__inference_cond_6_false_704_23/cond_6/GatherV2_1/axis","shape":[],"dtype":"int32"},{"name":"__inference_cond_6_false_704_23/cond_6/range","shape":[4],"dtype":"int32"},{"name":"__inference_cond_6_false_704_23/cond_6/GatherV2/axis","shape":[],"dtype":"int32"},{"name":"__inference_cond_1_false_319_1066/cond_1/range_1","shape":[4],"dtype":"int32"},{"name":"__inference_cond_1_false_319_1066/cond_1/GatherV2_1/axis","shape":[],"dtype":"int32"},{"name":"__inference_cond_1_false_319_1066/cond_1/range","shape":[4],"dtype":"int32"},{"name":"__inference_cond_1_false_319_1066/cond_1/GatherV2/axis","shape":[],"dtype":"int32"},{"name":"__inference_cond_4_false_532_854/cond_4/range_1","shape":[4],"dtype":"int32"},{"name":"__inference_cond_4_false_532_854/cond_4/GatherV2_1/axis","shape":[],"dtype":"int32"},{"name":"__inference_cond_4_false_532_854/cond_4/range","shape":[4],"dtype":"int32"},{"name":"__inference_cond_4_false_532_854/cond_4/GatherV2/axis","shape":[],"dtype":"int32"},{"name":"__inference_cond_11_false_1455_664/cond_11/range_1","shape":[4],"dtype":"int32"},{"name":"__inference_cond_11_false_1455_664/cond_11/GatherV2_1/axis","shape":[],"dtype":"int32"},{"name":"__inference_cond_11_false_1455_664/cond_11/range","shape":[4],"dtype":"int32"},{"name":"__inference_cond_11_false_1455_664/cond_11/GatherV2/axis","shape":[],"dtype":"int32"},{"name":"__inference_cond_7_true_837_1034/cond_7/Reshape/shape","shape":[2],"dtype":"int32"},{"name":"__inference_cond_7_true_837_1034/cond_7/transpose/perm","shape":[2],"dtype":"int32"},{"name":"__inference_cond_4_true_531_744/cond_4/Reshape/shape","shape":[2],"dtype":"int32"},{"name":"__inference_cond_4_true_531_744/cond_4/transpose/perm","shape":[2],"dtype":"int32"},{"name":"__inference_cond_14_false_1836_782/cond_14/range_1","shape":[4],"dtype":"int32"},{"name":"__inference_cond_14_false_1836_782/cond_14/GatherV2_1/axis","shape":[],"dtype":"int32"},{"name":"__inference_cond_14_false_1836_782/cond_14/range","shape":[4],"dtype":"int32"},{"name":"__inference_cond_14_false_1836_782/cond_14/GatherV2/axis","shape":[],"dtype":"int32"},{"name":"__inference_cond_true_244_642/cond/Reshape/shape","shape":[2],"dtype":"int32"},{"name":"__inference_cond_true_244_642/cond/transpose/perm","shape":[2],"dtype":"int32"},{"name":"__inference_cond_5_true_602_950/cond_5/Reshape/shape","shape":[2],"dtype":"int32"},{"name":"__inference_cond_5_true_602_950/cond_5/transpose/perm","shape":[2],"dtype":"int32"}]
      }
  ]
}